Lab/Lab6_Hyperparameter-Tuning/ray_results/random_search/best_autoencoder_random_search.pth (torch, 765498 bytes, 36 tensors)

encoder.0.conv.weight f4 [32, 3, 3, 3]
000000 8e 23 33 be b1 aa 93 bd d8 60 d8 bd ea 47 4d 3d
       -0.17494032 -0.07210291 -0.105653465 0.05011741
000010 18 f2 3e be b7 b7 b8 bc d9 3a bf 3d 8d f4 f8 bc
       -0.18647039 -0.02254854 0.09337396 -0.030390048
000020 ad 6c fe 3d d1 dc 09 be 13 e4 0b 3e e1 5f 3b 3e
       0.12423072 -0.13463141 0.13661222 0.18298294
000030 ec 9c 7d 3c 50 48 18 3b 49 54 c2 bd 7d 2d a3 3c
       0.015479308 0.002323646 -0.09488732 0.019919151
000040 8b 8c cd bd cd c1 83 bd 93 04 28 3c 8a 38 97 3d
       -0.10036572 -0.06433449 0.010254997 0.07383831
000050 3a 6f 24 3e 6c c7 5b bd 08 36 88 3c 9c 7b cc bc
       0.16058055 -0.05365698 0.016627327 -0.024961285
000060 99 55 1b be 5f 3f 49 3e fe 37 5e 3e 59 6f d7 bb
       -0.15169372 0.1965308 0.21701047 -0.006574553
000070 3c 64 7d 39 78 f4 2b be 26 3b 37 be 38 db bf 3c
       0.000241653 -0.16792476 -0.17893657 0.023419961
000080 81 15 35 be ec 83 4a be 0b ef 97 3c 47 09 d4 3d
       -0.17683984 -0.19776887 0.018546602 0.10353332
000090 84 8b bf 3d 72 8c b7 3d f5 35 f1 3d 26 4a 39 be
       0.09352782 0.08962335 0.117778696 -0.18094692
0000a0 b9 a7 da bd b4 79 8a 3d 0a 83 d3 3d 91 50 f8 3d
       -0.10676522 0.06761494 0.10327728 0.12124742
0000b0 9d 1a 82 bd 21 5e 28 be cb f9 07 be 0c 60 aa 3d
       -0.06352732 -0.16442157 -0.13278882 0.08319101
0000c0 ec d0 41 3d 7e 78 01 be 51 e2 6d 3c 08 40 ee 3d
       0.047318384 -0.1264362 0.01451929 0.11633307
0000d0 db 86 41 be 2d 0e f1 bd dd dd 31 3e c2 3e c1 3d
       -0.188991 -0.11770282 0.1736979 0.09435798
0000e0 76 37 39 3e e7 da df bd ca 06 36 3e b8 f1 d5 3b
       0.18087563 -0.10930424 0.17776027 0.0065290593
0000f0 1c 51 34 3e 13 16 42 be 12 1e 01 3e d8 3c 3f 3e
       0.17609066 -0.18953733 0.12609127 0.18675554
000100 07 b2 f0 bc 12 c1 d2 bd c7 1d 9e 3d 54 d4 15 bb
       -0.029381765 -0.102907315 0.07720523 -0.0022862153
000110 90 81 b7 3a 0f 8b 55 3c 42 51 1a 3e c1 19 bb 3b
       0.0014000405 0.013033642 0.1507006 0.005709857
000120 72 08 31 be f9 bb 1c 3e 14 f6 59 bd ca 7d f8 3d
       -0.17288378 0.15306081 -0.053213194 0.12133367
000130 48 06 4b be 36 e6 05 3e 33 6d ef 3d 72 82 cc bd
       -0.19826615 0.130761 0.1169075 -0.09985818
000140 52 20 dc 3d ca 47 25 3e 36 94 a3 3d 88 03 ff bc
       0.10748352 0.16140667 0.07987253 -0.031129614
000150 df b4 0b 3e 68 0e 80 bd 81 c3 be bd a6 98 d5 bc
       0.13643216 -0.06252748 -0.09314633 -0.026073765
000160 3e 17 2c 3e 2d a9 4c 3e 93 3b 1b be 30 5d b0 bb
       0.16805741 0.1998641 -0.15159445 -0.0053822026
000170 bf 2d 2e be 38 e8 41 3e b7 f6 9c 3d 99 b6 d3 3d
       -0.17009638 0.1893624 0.076642446 0.10337562
000180 da fb 82 bd 2c 45 a3 3c 8a 3b 0f bd 2b 56 d5 bd
       -0.06395693 0.019930445 -0.03496889 -0.10416826
000190 72 6d 42 be e9 1a d5 bd 17 3d 8e bd 68 d5 d5 bc
       -0.18987063 -0.10405523 -0.06945246 -0.026102737
0001a0 01 fb fa bd cc 84 19 3e a8 ff c2 bd f4 42 ca 3a
       -0.122549064 0.14992064 -0.09521419 0.001543133
0001b0 74 b0 d9 bd 09 f3 06 3e 3a 70 12 be cf 2b 12 3e
       -0.10629359 0.13178648 -0.14300624 0.14274524
0001c0 04 11 0a 3e 90 de 4c be 5c bc b7 bc 7f 8c 06 be
       0.13483053 -0.20006776 -0.022428684 -0.13139533
0001d0 dc 3c b3 bd dc a4 bd 3d cf af 3d 3d e7 f6 16 3e
       -0.087518424 0.0925996 0.046310242 0.14742623
0001e0 4a ef 66 3b 06 61 31 bc 82 a4 07 3e 1e 11 43 bd
       0.0035237842 -0.010826355 0.13246349 -0.047623746
0001f0 7c 69 20 be 54 26 a2 bc b1 0a 16 3e 35 26 06 be
       -0.15665239 -0.019793667 0.14652516 -0.13100512
000200 ad 92 0c bd 6f e4 b6 bd c0 52 9f bd 3b 0c 85 3d
       -0.03431957 -0.08930289 -0.07779455 0.064964734
000210 8f d7 ae 3d c3 6d 44 be 6f b4 67 bd 02 af 69 3d
       0.08537208 -0.19182496 -0.05656856 0.057051666
000220 f8 48 3b 3e 17 8b e6 bb e1 4d 13 be e6 cb 90 3d
       0.18289554 -0.007035624 -0.14385177 0.070701405
000230 69 9c 10 be 88 2b fa bd 6c 2a 07 3e 94 d2 69 bd
       -0.14122166 -0.12215334 0.13199776 -0.05708559
000240 7c 98 bc 3c 92 c9 10 3e 86 2a 04 3e d5 bb d2 3d
       0.023021929 0.14139393 0.12906846 0.10289732
000250 5c 4c b6 bd a0 72 28 3d 6f 29 b0 3d aa be 4b 3e
       -0.08901283 0.04112494 0.08601653 0.19896951
000260 18 48 26 bc 44 c1 aa 3c 30 2b 56 3d 5c 7d ec 3c
       -0.010149024 0.02084411 0.05228728 0.02886837
000270 16 89 2a 3e 84 5f ae bd 25 b9 51 3d 3e f6 dd bd
       0.16653857 -0.08514312 0.05120196 -0.108379826
000280 66 a8 86 bd 93 1b 1e 3e a0 7d 7a bb 1c 85 48 3e
       -0.06575088 0.15440206 -0.003822185 0.19582027
000290 7e 92 98 3d 99 14 18 be 72 e3 06 be 10 a8 ee 3d
       0.07449816 -0.14851607 -0.13172701 0.11653149
0002a0 54 68 18 be 46 02 31 bd ec 89 3d 3e e0 01 32 3c
       -0.14883548 -0.04321506 0.18509644 0.010864705
0002b0 66 03 89 bc 08 b5 99 3d ad 27 3f 3d 94 df 0b 3e
       -0.016725253 0.07505232 0.046668697 0.13659507
0002c0 78 12 7f bd 7b fe 1b be c0 20 33 3c d0 55 15 3e
       -0.062273473 -0.15233795 0.010933101 0.14583516
0002d0 09 6a 25 bd 9f ab 07 be 7f 52 e3 3d 8a 62 2f 3e
       -0.040384326 -0.13249062 0.11099719 0.17127433
0002e0 ab c6 a2 bd bc 22 0a be 25 fa 2e 3e 36 e5 93 bd
       -0.07948049 -0.13489813 0.1708761 -0.07221453
0002f0 8a 13 19 3e 0e 8e 95 3d aa e9 fe 3c 5a c6 5f bd
       0.1494886 0.073024854 0.03111728 -0.054632522
000300 3e ba ea 3d 7f 00 21 3c 60 ee 58 bd be f5 95 3d
       0.11461304 0.009826778 -0.052961707 0.07322262
000310 a9 99 d3 3d 6f b9 37 bc a2 32 d8 3d 69 66 15 3e
       0.10332043 -0.011213644 0.105565324 0.14589848
000320 96 71 02 3e 37 f8 fb 3c e8 84 09 be 76 20 47 3d
       0.12738642 0.030758006 -0.13429606 0.04861494
000330 58 e1 d9 3d a1 91 e7 3d 47 e7 9e 3d ff c0 37 3d
       0.10638684 0.113070734 0.077589564 0.04486179
000340 90 70 b1 bb d9 93 20 be 20 9e ab 3c e3 d6 85 3d
       -0.00541503 -0.156814 0.020949423 0.06535127
000350 28 12 26 3e 92 04 1a be 73 a2 22 3e 7f 53 fa bc
       0.16217864 -0.15040806 0.15882282 -0.030557392
000360 aa 44 d0 3d 14 52 e4 bd 89 ff db bc cb 20 a1 3d
       0.10169347 -0.11148468 -0.026855247 0.07867583
000370 da 85 2c 3e be cd 4b 3c 78 7b 25 3e 64 3d a0 3d
       0.16847935 0.0124391895 0.16160381 0.07824209
000380 2b a4 0d bd ea 0d 0b be f1 f2 ca 3d c9 5a 94 3d
       -0.03458039 -0.13579527 0.09909619 0.072438784
000390 54 ad 87 3d 38 c4 0b be fb bc 7f bd 4e 33 f7 bd
       0.066248566 -0.1364907 -0.062436085 -0.120703325
0003a0 0e f8 bd bd 40 08 ba 3d ed 08 46 be 78 1c f1 bd
       -0.09275828 0.09083605 -0.19339342 -0.11773008
0003b0 63 b1 f6 3d 66 1f c0 bd 11 83 8d bd f4 9c 41 3d
       0.120455526 -0.09380989 -0.069097646 0.047268823
0003c0 b9 e0 fb 3c 33 76 2d be 20 81 13 3e a0 6e cc bd
       0.030746805 -0.1693962 0.14404726 -0.099820375
0003d0 cd 67 29 3e f2 0c 3f bd fe 81 52 be 48 72 9b 3d
       0.16543503 -0.046643205 -0.205574 0.07590157
0003e0 3f ab 06 3d 07 cf 10 3e 56 9c f2 bd 88 64 29 be
       0.032878157 0.14141475 -0.11846225 -0.16542256
0003f0 f4 2f 40 be c3 44 17 3e 5d 1e 31 3e 28 bf 1f 3e
       -0.18768293 0.14772324 0.17296739 0.15600264

encoder.0.conv.bias f4 [32]
000000 ba 73 38 be 26 1b 1d 3e 88 c9 3a bd 96 4d f0 bd
       -0.18012896 0.15342388 -0.04560235 -0.11733548
000010 b9 bf c0 3d 00 27 bb 39 2a 22 17 3d 41 e9 b9 bd
       0.09411568 0.00035696477 0.036897816 -0.09077693
000020 ab 91 2f 3e 2b 32 44 3e de 83 19 be 17 72 e7 3c
       0.17145412 0.19159763 -0.1499171 0.028252644
000030 b6 89 10 3e cb ac 9d bb 48 da e0 bc a0 d7 17 be
       0.14115033 -0.0048118583 -0.027447835 -0.14828348
000040 89 aa c6 3c 49 80 be bd 31 84 f9 3d 86 4a 0c 3d
       0.02425124 -0.09301812 0.12183417 0.03425076
000050 ee 78 d2 3c 42 be c9 bc ee f4 57 3d 4b 15 32 3c
       0.02569243 -0.024626855 0.052723818 0.010869334
000060 f0 65 fc bd a5 8d 2f be 58 6a 8f bc 50 39 05 be
       -0.123241305 -0.17143877 -0.017506763 -0.13010144
000070 05 2c 3b bc d1 32 4e bd e6 2b fa bd 98 60 e7 3d
       -0.011424069 -0.05034143 -0.12215404 0.11297721

encoder.0.bn.weight f4 [32]
000000 1b 7f 81 3f 85 af 7c 3f 72 64 80 3f 05 b5 7a 3f
       1.0116915 0.9870532 1.0030653 0.97932464
000010 5c 40 83 3f bb 92 7c 3f 0a 1a 81 3f 59 c2 79 3f
       1.0254016 0.9866139 1.0086071 0.97562176
000020 bb dd 81 3f ce 2f 80 3f 68 e9 82 3f 12 06 7a 3f
       1.0145792 1.0014589 1.022748 0.9766551
000030 96 22 7c 3f d1 0e 7b 3f ed 82 7a 3f 5c 2f 7a 3f
       0.98490274 0.98069483 0.97856027 0.97728515
000040 08 07 83 3f 85 e8 7d 3f 16 8e 7c 3f 77 3b 7e 3f
       1.0236521 0.9918292 0.98654306 0.99309486
000050 7e 2b 7c 3f 96 d2 7c 3f d9 f5 81 3f e9 3e 7a 3f
       0.98503864 0.9875883 1.0153152 0.97752243
000060 34 06 80 3f 57 f9 82 3f 4e 11 82 3f bd 57 82 3f
       1.0001893 1.0232342 1.0161531 1.0183026
000070 97 9d 82 3f 56 69 7a 3f 61 17 83 3f 8b 9a 7b 3f
       1.0204343 0.9781698 1.024151 0.9828269

encoder.0.bn.bias f4 [32]
000000 23 b4 21 3c 8e 34 a6 bc 56 a6 ae 3c 41 77 67 bc
       0.009869608 -0.020288732 0.02131955 -0.014127553
000010 de d5 92 3b 96 fe 36 bc 25 d6 af 3c d9 71 53 bc
       0.0044810614 -0.011169096 0.021464417 -0.012905561
000020 d9 b0 ad 3c 14 68 d8 bb 03 4b c0 3c d6 c1 bd bc
       0.021202492 -0.006604204 0.023473268 -0.023163717
000030 80 1a 73 bc f8 c0 a6 bc df 80 c6 bc ce 8a a8 ba
       -0.014837861 -0.020355687 -0.024231372 -0.001285875
000040 79 b6 b8 3c 62 f6 15 3c cc e6 06 bc a3 c4 db 3c
       0.022547947 0.0091529805 -0.008233737 0.026827162
000050 7a 4a c4 bc 00 4a 44 3a 62 f5 bb 3c f8 db 17 39
       -0.023961294 0.00074878335 0.022944156 0.00014482427
000060 8a 17 15 3c 21 8b b9 3c f0 a5 2f 3c da 00 a3 bc
       0.00909985 0.02264935 0.010720715 -0.019897867
000070 0a 90 d6 3c 85 71 9f 3c f8 4d b0 3c 0a 09 ab bc
       0.02619173 0.01946331 0.021521553 -0.020878334

encoder.0.bn.running_mean f4 [32]
000000 f6 38 cb bd a0 68 45 bd ad e5 19 3e 75 fd e3 bc
       -0.09922974 -0.04819548 0.1502902 -0.027830819
000010 72 3c 92 3b fb 54 87 3d 70 29 1b 3d 7e 0b d0 3d
       0.004462772 0.066080056 0.037881315 0.10158442
000020 6f 2f a1 3d c8 c1 e8 3d 24 c7 d9 bd e0 49 50 3d
       0.07870375 0.11365086 -0.10633686 0.050851703
000030 00 70 f9 3c 2f 4d ab bd e7 66 e4 bd ef fd 72 bd
       0.030448914 -0.08364331 -0.111524396 -0.0593242
000040 5b bb 85 bd 4a 74 56 3d 8f f4 09 3e cf 21 85 3c
       -0.06529876 0.052356996 0.13472198 0.016251473
000050 ae 71 25 3c d6 f6 62 bb 92 31 ba 3d 41 cb 0a bd
       0.010097904 -0.003463199 0.09091486 -0.033885244
000060 51 0b 65 3d e6 97 2e be 09 96 b7 bd 81 87 ad bd
       0.055918995 -0.17050132 -0.08964164 -0.08473111
000070 52 01 75 3d b0 f0 e3 3c 46 44 a4 bd c7 2b 4b 3d
       0.059815712 0.02782473 -0.080208346 0.049602296

encoder.0.bn.running_var f4 [32]
000000 29 b7 28 3f 44 9b 2b 3f 41 ff 30 3f 6f c8 28 3f
       0.6590448 0.6703379 0.69139487 0.6593084
000010 44 8d 28 3f c9 4d 2a 3f 03 8d 28 3f 22 fc 2d 3f
       0.65840554 0.6652494 0.65840167 0.6796285
000020 ba 6b 28 3f 1b 4f 29 3f f4 8f 29 3f 94 b4 28 3f
       0.6578938 0.6613633 0.6623528 0.6590054
000030 d2 93 28 3f 72 81 2a 3f 0a 0b 2c 3f f4 5f 28 3f
       0.65850556 0.6660377 0.67204344 0.6577141
000040 aa dc 29 3f c3 f6 2a 3f 05 88 2b 3f ca 09 28 3f
       0.6635233 0.6678278 0.67004424 0.65639937
000050 88 93 28 3f e8 72 28 3f 00 5f 2a 3f e4 66 29 3f
       0.65850115 0.65800333 0.6655121 0.66172624
000060 8c 4a 2b 3f 2b 85 2c 3f 1a 79 2a 3f 29 cc 28 3f
       0.66910625 0.673907 0.66591036 0.65936524
000070 25 87 29 3f 40 13 29 3f 2f b2 28 3f 7a 71 28 3f
       0.6622184 0.66045 0.65896887 0.6579815

encoder.1.conv.weight f4 [64, 32, 3, 3]
000000 29 4c 1e 3d 23 05 05 3c 66 68 ff bb e4 d9 38 3d
       0.03864685 0.0081189005 -0.0077944277 0.04512967
000010 62 32 88 3d 23 c8 9a bc a3 e9 80 3d b2 7a a7 3c
       0.06650235 -0.01889426 0.06294563 0.020444248
000020 c9 f9 d7 bc 7e 6b 47 3d 61 b2 c6 3c 5c 43 0d 3d
       -0.026364224 0.048686497 0.02425498 0.034488067
000030 4c 5e 5b 3d 5a 01 e9 bb da 43 ed 3a a8 1a f7 bc
       0.053556725 -0.007110757 0.0018101886 -0.030164078
000040 59 81 50 3c fa ba 23 3c 11 a9 f7 3c e5 ac bf bc
       0.012726151 0.009993309 0.030231984 -0.023397872
000050 14 96 2d 3c 6c f3 20 bd ab 75 c7 bc 8c 76 92 bd
       0.010594863 -0.039294645 -0.0243481 -0.07151517
000060 3a d3 6a bd eb b7 00 3d e0 ed be bb f6 b2 d3 3c
       -0.057330348 0.031425398 -0.0058266968 0.025842171
000070 1c 7e 46 bc 94 1b 09 3d d9 31 87 bd e3 6c d9 3c
       -0.012115028 0.033473566 -0.066013046 0.026541179
000080 7e 8d 26 bc 08 e6 8e bc 1e b7 db 3c 9d 1b 07 3d
       -0.01016557 -0.017443672 0.026820716 0.03298532
000090 67 01 63 3d 7f e2 96 bc d0 62 9b 39 0a 89 ff bc
       0.05542126 -0.018418549 0.00029637525 -0.031193275
0000a0 1e b3 42 3d d2 a0 ac bc 90 47 7f bd 69 67 d4 3c
       0.0475341 -0.021072779 -0.062324107 0.025928216
0000b0 8b 3c 58 bb e8 49 8f 3c 00 c8 9b bc ac 2c fc 3b
       -0.003299507 0.017491296 -0.019016266 0.007695755
0000c0 40 c8 c2 bc 5e 8a 2b bc 9f 00 3e 3d 2f 2f 7f bd
       -0.023777127 -0.010470001 0.04638731 -0.062300857
0000d0 26 6d 27 3d bc 6d 5a 3d 03 95 0b 3d 1a 7a 36 3d
       0.040875576 0.053327307 0.034077656 0.04455004
0000e0 66 56 f1 bc 5f 1a 3f bd 08 9a a6 3c 50 a4 60 3c
       -0.029460143 -0.04665601 0.02033712 0.01371105
0000f0 4b f3 6e bc 4a cd fa bc eb e3 fb bc 7c 14 66 bd
       -0.014584373 -0.030615468 -0.030748328 -0.05617188
000100 d0 ca b4 38 dd 1c 20 3d 20 0d 98 bd 3f 90 45 3c
       8.6208456e-05 0.039090026 -0.074243784 0.012058317
000110 69 5f 2c bd d6 3d d6 bc d9 b6 2d 3d b5 97 62 bd
       -0.042083178 -0.026152533 0.042410705 -0.05532046
000120 dd 73 34 bd 12 cb 4d bd 4e cb 74 bd 80 97 e2 bc
       -0.04405581 -0.05024249 -0.0597642 -0.027660131
000130 d6 20 67 bd 00 bc 41 bd ba 4c 81 bc 94 71 9d 3b
       -0.0564278 -0.04729843 -0.015783656 0.0048047993
000140 e9 16 01 bd bd 08 5f 3c 6b f3 3a bd 47 c1 f0 3c
       -0.03151599 0.013612923 -0.045642298 0.029389037
000150 dc bd 8e bb 77 f0 5b 3d 0b 53 28 bd 2b 6b 20 bd
       -0.004356129 0.053696122 -0.04109482 -0.039164703
000160 10 db 61 bd 79 7f 66 3c 7c c7 02 bc 34 cb 50 3d
       -0.055140555 0.014068478 -0.007982131 0.05097504
000170 03 e4 1b 3d 8b a9 a5 bc 7c 17 fb bb 6c df 3a 3d
       0.038059246 -0.020222446 -0.0076627117 0.045623228
000180 88 e0 14 3c 19 9f 17 3d 5e f7 f6 3c 21 38 9b bd
       0.009086736 0.03701696 0.03014725 -0.07579065
000190 72 e7 21 3c 9d ed 48 bd 4e c2 ed 3c 1e cc b0 bc
       0.009881841 -0.04905473 0.029023316 -0.021581706
0001a0 af fb 52 bd 6a 3b 90 bd ac ab 83 3c d9 7e 42 bc
       -0.051509555 -0.07042582 0.01607307 -0.011871063
0001b0 82 cc 39 3d 3c 59 8e 3c 73 87 0a bd a4 43 ba 3b
       0.04536105 0.017376535 -0.03382058 0.005684333
0001c0 e4 02 4d 3d 5e d8 c2 ba 67 5d 2d bd a4 b7 23 3a
       0.050051585 -0.0014865508 -0.042325404 0.0006245321
0001d0 fd c2 22 3d e0 21 15 ba a0 45 a6 3b 46 41 db 3c
       0.039736737 -0.00056889467 0.005074218 0.026764523
0001e0 b9 be 95 3c c7 1f 7b 3d ae d1 58 3c 60 4e 8b 3d
       0.01827942 0.061309602 0.013233585 0.06802058
0001f0 f9 7c 30 3d 51 aa 5f 3d 4e 51 76 3d e0 c1 b5 3c
       0.043087933 0.054605786 0.060136132 0.022187173
000200 80 38 f4 3a 7b 8c be bc 58 d8 5d 3c 15 44 28 3d
       0.0018632561 -0.023260346 0.01354035 0.041080553
000210 ec 55 63 3d 8d 13 f4 bc 4f 8b b9 bc 28 71 d2 3a
       0.055501863 -0.029794479 -0.022649435 0.0016055452
000220 84 4f cc 3a 50 e0 bf 3c 10 38 82 bd 23 20 53 3c
       0.0015587662 0.02342239 -0.06358349 0.01288608
000230 48 dc 62 3c 56 f8 bf 3c ba 60 1f 3d 60 c4 13 3c
       0.013846464 0.023433845 0.038910605 0.009018987
000240 c2 56 4a 3c 01 5c 3e 3c 9d a8 9e 3d 98 d5 38 3d
       0.012349786 0.011618615 0.07747004 0.045125574
000250 67 bc 9e 3d 6a 3f a4 3a 51 48 84 3d 35 77 4b 3c
       0.07750779 0.0012531106 0.06459106 0.012418558
000260 56 8b 8c 3d 08 9a 3b bd 70 30 40 bb 92 0d 86 3c
       0.06862514 -0.045801193 -0.0029325746 0.016363893
000270 57 61 09 bd e6 ba a8 bc fa 71 41 bd d6 41 a6 3c
       -0.033540096 -0.020596933 -0.047227837 0.020295065
000280 85 22 7a bd dd f0 bb ba 14 4e 00 bd cb 29 cd bc
       -0.061068077 -0.0014338751 -0.03132446 -0.025044343
000290 77 71 0a 3d e9 a8 d5 bb 72 50 f8 ba a2 27 64 3c
       0.033799615 -0.00652038 -0.0018944873 0.013925465
0002a0 4c d9 18 3d 06 82 8e 3c 31 37 df bc 0d 7b 18 bd
       0.037316605 0.017395984 -0.027247997 -0.037226725
0002b0 be 6c 5a bc 09 14 8c bd b2 7a 1f bd 20 cc 7e bc
       -0.01333159 -0.06839759 -0.03893537 -0.015551597
0002c0 9b df 9c bd d5 f2 9e bd 0c 44 97 3b f9 b7 15 3d
       -0.07659837 -0.0776116 0.004616266 0.036552403
0002d0 d8 48 4b bc 8e 2d 81 3c 79 ed 85 3c 4b f8 9a bc
       -0.012407504 0.015768792 0.016348587 -0.018917223
0002e0 e5 45 5e bd c9 7b e2 bc 36 b2 63 bd 20 2a 02 3c
       -0.054265875 -0.027646916 -0.055589877 0.007944614
0002f0 12 12 06 3d 72 7b 21 bd 06 82 6a bc 2a 30 b8 3b
       0.032732077 -0.039424367 -0.014313227 0.005620976
000300 a8 7e 58 3d d2 8f e9 3a 24 ee a9 3c da ab 1b 3d
       0.052855164 0.0017819351 0.020743437 0.038005687
000310 4e ae 74 3c 33 c7 10 3d cc da c2 bc 55 e0 06 bd
       0.014934136 0.03534622 -0.023785971 -0.032928783
000320 bc ab d5 3c e1 fc c0 bc 5c d9 48 bd ce 21 e2 bc
       0.026082866 -0.023558082 -0.049035415 -0.02760401
000330 77 fd 1c bd 8c 21 98 bc 4e ad f3 3c b9 46 4f bd
       -0.03832766 -0.018570684 0.029745724 -0.050604556
000340 02 73 0f 3d e0 b8 f1 3c a3 a2 e3 3c c2 f9 6f 3c
       0.03502179 0.0295071 0.027787512 0.014646949
000350 07 df 84 bd 2a 69 6e 3c c0 3a a3 b9 45 74 03 bb
       -0.064878516 0.01455144 -0.00031133555 -0.0020058316
000360 5c 6a 8c 3d f3 6e 3a bd 3c 27 e0 bc 5c f6 02 bd
       0.06856224 -0.045515966 -0.027362458 -0.031973228
000370 10 a5 8b bd f6 2b f6 3c 12 67 3a 3c ec e7 c8 3b
       -0.068185925 0.03005026 0.011377113 0.006131163
000380 9a b5 ea bc 45 b6 3e 3d c2 e7 1c 3d 69 e1 e1 3c
       -0.028651047 0.046560545 0.03830696 0.027573304
000390 4a a1 55 3d d8 aa 1d 3d 50 95 29 3a 91 c7 8f 3d
       0.05215577 0.038493007 0.00064690877 0.07020486
0003a0 52 4d e8 3b ba 66 18 3d 4e e0 ae bc 5a c3 41 3d
       0.0070892954 0.037207343 -0.021347191 0.047305442
0003b0 39 40 e2 bb fc d5 1a bc d9 9e 42 3c 8f bf 66 3b
       -0.0069046286 -0.009450432 0.011878693 0.0035209393
0003c0 66 4f 0c 3d 0c ff c9 bc 95 8b 61 3d eb 22 a3 3d
       0.034255408 -0.024657749 0.055064756 0.079656444
0003d0 15 db da bc 49 6d 86 3d 7a 8d 8e 3d 31 4f f5 bc
       -0.026715795 0.06563813 0.06960578 -0.029944988
0003e0 a5 65 43 3d d4 c0 db 3c a5 a0 91 3d 9b 5b ab 3c
       0.047704358 0.026825346 0.07110719 0.020917704
0003f0 f3 c1 4d 3d 67 16 24 3d 22 63 b0 3c 32 7f 0c bd
       0.050233793 0.040060427 0.021531645 -0.03430099

encoder.1.conv.bias f4 [64]
000000 d9 33 41 3d 72 3f 6e bd 66 fe 83 bd 15 9e 37 bc
       0.047168586 -0.058165975 -0.06445007 -0.011207123
000010 13 76 31 bc 57 e0 f3 bc 3c 10 2c 3c dd fe c9 3b
       -0.010831374 -0.02977006 0.010501917 0.0061644153
000020 f2 5f 99 3a ab 8d 9a ba 32 f2 c8 3c 27 16 b4 3c
       0.0011701568 -0.0011791488 0.02452955 0.02198322
000030 6c d1 48 3d 4c fb 88 3b ac 48 15 3a 45 dd c8 3b
       0.049027845 0.0041803475 0.0005694728 0.006129893
000040 a9 f2 10 bd 9c 4d 96 bd 63 7c 0d bd c0 eb de 3c
       -0.03538767 -0.073390216 -0.034542453 0.027212024
000050 9c eb 48 3d 28 7e 04 3c 3d 76 02 3d 03 37 95 3c
       0.04905282 0.008086719 0.031851042 0.018214708
000060 79 a4 e1 bc b0 a0 34 bd 63 b7 60 3d 83 9d 21 bd
       -0.027544247 -0.044098556 0.05486239 -0.039456856
000070 64 1d 34 bc a1 9a db bc a8 e5 7a 3d de 27 05 3d
       -0.010993335 -0.026807131 0.061254174 0.032508723
000080 ac 2d de 3c 46 82 d7 3a 24 31 56 bd 3d 78 cc bc
       0.027121387 0.0016442023 -0.052292958 -0.024959678
000090 16 6e 39 bd cc 65 22 3d b4 69 85 bd 4e 40 bc bc
       -0.045271 0.039647862 -0.06514302 -0.022979882
0000a0 a7 00 6e 3b 36 80 38 3d 2f ed 09 3d 15 f7 e6 bc
       0.0036316307 0.045044146 0.03367346 -0.02819399
0000b0 9b 01 46 bd 7f ae ae 3b 93 b9 3f 3d 7e 29 98 bd
       -0.048341375 0.00533086 0.046807837 -0.07429789
0000c0 a3 7c 20 3d 2d 9e 25 bd 3b d3 79 bc 42 02 75 3d
       0.039181363 -0.04043405 -0.015248115 0.059816606
0000d0 43 05 80 bd 40 76 0c 3d 90 1b 42 3d b8 a1 61 bc
       -0.062510036 0.03429246 0.047389567 -0.013771467
0000e0 49 6e 06 3d d5 6a 37 3d a1 d3 1c 3d 3e 80 05 bd
       0.03282002 0.044779617 0.038287763 -0.032593004
0000f0 f7 f3 82 bd 1c 9c 2e 3d 94 3b 9f 3c 16 ed 3a 3c
       -0.06394189 0.042629346 0.019437589 0.011409065

encoder.1.bn.weight f4 [64]
000000 62 fc 7e 3f 34 6b 7c 3f 79 58 7b 3f 37 49 7f 3f
       0.99603856 0.9860108 0.98181874 0.9972109
000010 fe c4 82 3f d7 d6 7e 3f 1a d3 82 3f 45 97 80 3f
       1.0216367 0.9954657 1.0220673 1.0046164
000020 41 13 7a 3f f8 c9 82 3f 61 47 82 3f 58 7f 80 3f
       0.9768563 1.0217886 1.0178033 1.0038862
000030 16 04 7f 3f 96 03 7a 3f 60 12 81 3f da b0 7d 3f
       0.9961561 0.9766172 1.0083733 0.9909798
000040 54 c2 80 3f ab 11 83 3f fc 09 83 3f 02 4d 7a 3f
       1.0059304 1.0239767 1.0237422 0.97773755
000050 8e 82 7e 3f 38 03 7b 3f 22 b7 80 3f 64 11 7f 3f
       0.9941796 0.98051786 1.0055888 0.9963591
000060 e1 b9 7b 3f d7 a3 82 3f 9d 3b 82 3f d4 3f 80 3f
       0.98330504 1.020625 1.0174443 1.0019479
000070 da 39 80 3f 56 1e 83 3f d3 73 7b 3f 88 ad 80 3f
       1.0017655 1.0243633 0.9822361 1.0052958
000080 2e 5e 7b 3f b2 ab 7f 3f 6f ab 82 3f 7e 6c 80 3f
       0.9819058 0.9987136 1.0208567 1.0033109
000090 c6 6e 7a 3f 46 36 83 3f 5e e4 7a 3f c2 4e 7b 3f
       0.97825277 1.0250938 0.9800471 0.9816705
0000a0 53 f4 79 3f 99 f6 7a 3f ad 9a 80 3f b7 1e 82 3f
       0.97638434 0.9803253 1.0047203 1.0165623
0000b0 09 1b 7a 3f a2 5b 81 3f 2a b1 7c 3f ce 72 7f 3f
       0.976975 1.0106089 0.9870783 0.99784553
0000c0 92 f1 79 3f 7f 6b 7a 3f cb fe 81 3f 04 69 81 3f
       0.9763423 0.97820276 1.0155882 1.0110173
0000d0 0f de 7d 3f 79 28 7a 3f fa 87 82 3f 58 0d 83 3f
       0.9916696 0.97718006 1.0197747 1.0238447
0000e0 11 15 80 3f b0 24 83 3f 87 d8 79 3f 74 1e 83 3f
       1.0006429 1.0245571 0.9759602 1.0243669
0000f0 de 09 80 3f 9b 93 7f 3f 13 15 82 3f bd 1c 82 3f
       1.0003011 0.99834603 1.0162681 1.016502

encoder.1.bn.bias f4 [64]
000000 68 9d 54 bb 98 60 0f bc fa c1 8c bc d9 ce d9 3b
       -0.0032442454 -0.008751057 -0.017182339 0.0066469726
000010 3d 54 c1 3c 8d fc a1 bc 9e 6b b9 3c 1c b8 17 3b
       0.023599738 -0.019773746 0.022634324 0.002315051
000020 e7 f4 a0 bc 4a 57 9b 3c d0 02 bc 3c c6 9c df 3c
       -0.019648029 0.018962521 0.02295056 0.027296435
000030 0a 78 5c bc e4 af bc bc 0f bc 4c 3c 31 10 4b bc
       -0.013456354 -0.02303309 0.012496009 -0.012393997
000040 77 45 9c 3c 63 fd ca 3c 39 10 9d 3c bb 4a 49 bb
       0.019076092 0.024779027 0.019172775 -0.003071471
000050 d2 d6 ac 3c 9a 11 d1 3c a6 4e fe bb 5a 97 9c bc
       0.021098528 0.025521088 -0.0077608405 -0.019115139
000060 08 14 ae bc 0c 12 b8 3c 74 6b 6c bc 7c 34 d0 3b
       -0.021249786 0.022469543 -0.014429916 0.006353913
000070 32 7f ec 3a fa 11 c4 3c 64 76 d8 bb 93 8b b7 3c
       0.0018043278 0.023934353 -0.00660591 0.022405421
000080 3e b1 c8 bc 30 41 2e 3c 58 4c 9a 3c 7a ba c1 ba
       -0.024498578 0.010635659 0.018835232 -0.0014780306
000090 98 88 7b bc 8b 92 c8 3c 4f 78 b9 bc 0f 5c 1c bc
       -0.015352391 0.02448394 -0.022640375 -0.009543433
0000a0 2a cb c5 bc b9 27 32 3c c4 79 b8 3c 74 4d a4 3c
       -0.024144728 0.010873728 0.022519 0.020056464
0000b0 e1 51 9a bc 79 71 43 3b 0e f8 aa bc cf 33 b2 3c
       -0.018837871 0.0029822274 -0.020870235 0.02175322
0000c0 73 07 a4 bc 0c a3 b3 bc 94 76 7f 3c ec 04 b5 bc
       -0.020023083 -0.021928333 0.015592236 -0.022097073
0000d0 70 19 e3 bb 49 8d a4 bc 44 13 af 3c 98 d4 a3 3c
       -0.0069305226 -0.020086901 0.021371491 0.019998834
0000e0 d6 12 10 3c ac 16 cc 3c 84 fb b4 3b 56 9b ca 3c
       0.008793553 0.024913155 0.005523147 0.024732273
0000f0 34 2e c5 3c 6b a7 ac 3c ec 61 bf 3c 5c 7d 84 3c
       0.024069883 0.021075925 0.023362122 0.016173057

encoder.1.bn.running_mean f4 [64]
000000 da 6e a3 3d 0c 4e 8d be 7c 0c 7f be 98 05 b7 3c
       0.07980128 -0.27598608 -0.24907106 0.022341534
000010 86 1f f8 bd 4a 3d 09 3e d6 82 47 bc 1e b0 f6 3c
       -0.121153876 0.13402286 -0.01217719 0.030113276
000020 05 ae 51 be 0b ec c1 3d 3b cf ee 3d d4 61 99 3e
       -0.2047654 0.0946885 0.1166062 0.2995745
000030 38 98 7e be db be e6 3d 65 02 d6 bd bc 30 ad 3b
       -0.24862754 0.112668715 -0.104496755 0.0052853506
000040 28 78 be 3b fe 07 66 be 3c 14 14 3e 99 6e 3a be
       0.0058126636 -0.22463986 0.14460844 -0.18206252
000050 12 f0 21 be d3 61 78 3d f2 72 14 bd 52 f7 be bc
       -0.15814236 0.060640167 -0.036242433 -0.02331129
000060 7b 82 0c 3d 6a b9 1c 3e 2a fc 80 3d 20 85 76 3e
       0.034304123 0.15305105 0.062980965 0.2407422
000070 b0 7d f7 bd df 23 11 be 78 5c 0c bd d5 07 72 be
       -0.1208452 -0.1417384 -0.034267873 -0.236358
000080 67 1b 6f 3e c2 16 c0 be 81 50 18 be 4a 85 17 3e
       0.23350297 -0.37517363 -0.1487446 0.1479694
000090 31 db 55 3e 37 71 68 3c 2c dc d9 bd cc f3 02 3e
       0.20884396 0.014187149 -0.106376976 0.12788314
0000a0 08 f9 90 be cc 45 0f be 11 81 ff 3d db 37 54 3e
       -0.28314996 -0.13991469 0.12475789 0.20724432
0000b0 05 2e 06 3e b6 1d 75 3d 5e c1 e7 3d 4a 7f 71 be
       0.13103493 0.059842788 0.11316179 -0.23583713
0000c0 e6 b8 e7 39 a5 b6 9a bd 20 df ab 3e 69 0c 83 3d
       0.00044197513 -0.07554368 0.33568668 0.063988514
0000d0 c5 96 34 bd a6 31 f8 3b 2d ed 84 3c 60 51 44 3e
       -0.044089098 0.007574278 0.016226375 0.19171667
0000e0 d0 7e 99 bd 68 ea 81 bc fe dd 4c bd 34 00 8b bd
       -0.07494891 -0.015858844 -0.050016396 -0.06787148
0000f0 05 d7 fa 3c 56 cc 92 be 16 d4 6a 3e 8e a0 07 3e
       0.030620107 -0.2867152 0.22932467 0.1324484

encoder.1.bn.running_var f4 [64]
000000 64 de 8e 3f 4a 0f 81 3f 84 c7 43 3f 98 ee 5b 3f
       1.1161618 1.0082791 0.7647631 0.8591094
000010 a5 69 8a 3f 38 f1 38 3f 87 eb 4c 3f b0 b5 82 3f
       1.081349 0.7224307 0.80046886 1.0211697
000020 56 b8 4e 3f 4a 49 5a 3f 51 31 96 3f f8 75 6c 3f
       0.80750024 0.8526808 1.17338 0.92367506
000030 26 0e 4c 3f d1 9b 3d 3f ae d8 3b 3f 64 93 9e 3f
       0.7970909 0.7406588 0.733775 1.238873
000040 cf d8 3c 3f e3 11 4d 3f a7 22 67 3f a4 a7 4b 3f
       0.73768324 0.8010542 0.9028725 0.79552674
000050 5a 25 53 3f f4 ea 96 3f 1b f3 89 3f 57 8a 56 3f
       0.8247887 1.1790452 1.0777315 0.8380484
000060 e9 1a 3a 3f 6c 2a 66 3f 7a 03 86 3f 4f da 65 3f
       0.7269731 0.8990848 1.0469811 0.8978624
000070 49 b4 9f 3f 96 d2 60 3f 8f fc 65 3f 54 02 4e 3f
       1.2476894 0.8782133 0.898385 0.804723
000080 cc 1e 41 3f ab 90 51 3f ed ab 6a 3f 9e c5 81 3f
       0.7543762 0.8186137 0.9166859 1.0138433
000090 01 c8 64 3f 4b 2b 90 3f 80 d4 74 3f ab 96 47 3f
       0.8936768 1.1263212 0.9563675 0.77964276
0000a0 8d 23 87 3f 63 3e 4d 3f 5e 59 46 3f f9 c6 49 3f
       1.0557724 0.8017332 0.77480114 0.78819233
0000b0 f0 d2 4e 3f 8f 22 4c 3f d6 47 71 3f d2 22 39 3f
       0.80790615 0.7974023 0.9425024 0.72318757
0000c0 24 d9 86 3f 01 8c 84 3f 44 08 4a 3f 0d 06 49 3f
       1.0535016 1.0355226 0.7891886 0.7852486
0000d0 4a a9 93 3f ae 82 8a 3f 3d c6 3a 3f d0 9e 64 3f
       1.1536038 1.082113 0.7295874 0.8930483
0000e0 c2 09 82 3f 30 1d 4d 3f bd 51 6f 3f 95 19 82 3f
       1.0159228 0.8012266 0.934841 1.0164057
0000f0 70 e3 68 3f d6 1c 6b 3f d9 eb 57 3f 2f 73 3f 3f
       0.9097204 0.91840875 0.8434425 0.7478513

encoder.2.conv.weight f4 [128, 64, 3, 3]
000000 a8 ed 68 bc 3f f7 45 3c 61 92 d1 bc 8b 6e ca bc
       -0.014216818 0.012082874 -0.025582494 -0.024710914
000010 94 cd 47 3c e0 5f eb bc 7f 52 bb bb 39 59 52 bd
       0.01219501 -0.02873224 -0.0057166214 -0.05135462
000020 37 90 c0 bc bf 24 db bc a6 62 f7 bb 49 da b4 bc
       -0.023506267 -0.02675092 -0.0075496016 -0.022076743
000030 4e a9 8e 3c 74 72 87 3c 68 a0 c5 3c 2a 73 5a bc
       0.017414715 0.016534068 0.02412434 -0.013333121
000040 d2 ab 41 bd 8f 6a c4 3c e6 37 b3 3c 02 d2 14 bd
       -0.047283 0.023976592 0.02187724 -0.03633309
000050 eb 07 11 bd d8 9b 8f bc 82 0f 1d bc 2c 29 0d 3a
       -0.03540794 -0.017530367 -0.009586217 0.0005384858
000060 50 a2 ad 3c b7 1a 99 3c 7b 76 e0 3c 32 14 95 3c
       0.02119556 0.018689496 0.027400246 0.018198106
000070 bb 21 e8 bb 48 f4 09 3c 26 28 93 3a f2 4a c7 3c
       -0.007084099 0.008420058 0.0011227175 0.024327729
000080 33 2a a6 bc b4 12 3a 3d 24 5b a6 bc f2 81 a1 3c
       -0.020283794 0.045427993 -0.020307131 0.019715283
000090 9c ee 95 bc 0f 64 13 bd c4 19 95 3b ef e5 4d bd
       -0.018302254 -0.035984095 0.0045501906 -0.05026811
0000a0 33 6d 5d bc 92 51 4f 3c 85 d9 ce bc 75 48 4c bd
       -0.013514805 0.012653725 -0.025250206 -0.049873788
0000b0 dd 60 07 bc 47 b1 72 bc 24 c8 39 3b ab a9 65 3c
       -0.00826284 -0.014812774 0.0028348053 0.014017503
0000c0 9c dd 6e bd ac 7e e0 bb 10 79 97 bc 10 1e 69 3c
       -0.058316812 -0.006851038 -0.018490344 0.014228359
0000d0 07 53 bc bc ab 06 70 3c b0 08 33 bd 14 1f 18 3c
       -0.02298881 0.014650027 -0.043709457 0.009284753
0000e0 b8 42 6d bd 6b db 4c bd 30 1c d5 ba 40 b3 c4 bb
       -0.057924956 -0.05001394 -0.0016259011 -0.0060028136
0000f0 da 6a 5e bd 3e a7 42 bd a9 ff 52 bc 84 1a 83 bc
       -0.05430112 -0.047522776 -0.012878337 -0.016003855
000100 44 93 40 bd 1e c8 d6 3c 55 a8 49 3c 7e f7 19 bd
       -0.047015443 0.02621847 0.0123082 -0.037589543
000110 7c 2c e1 3a ab 53 69 3c c3 8a 34 bd 21 8b 0a bd
       0.0017179395 0.014241139 -0.044077646 -0.03382409
000120 5e 50 0a 3c 09 3c 21 bd cc 5b 8d bb 10 0e 83 3c
       0.008442013 -0.039363895 -0.0043139216 0.015997916
000130 df e2 75 bb 3d e5 ea bc b0 04 f3 bc 5c dd 60 bd
       -0.003751926 -0.028673762 -0.029665321 -0.054898605
000140 c3 9f 95 3c 68 7f 0b bd 24 8a 49 bd 96 98 e1 3c
       0.018264657 -0.03405705 -0.049204007 0.027538579
000150 92 89 2b bd da 1e 48 bd 2c e7 4b bd 6d 13 a4 3c
       -0.041879244 -0.048857547 -0.04978101 0.020028794
000160 84 27 04 bd 9f 75 26 bc c8 9a 8e bc d2 4d bf 3c
       -0.032264248 -0.010159879 -0.01740779 0.023352537
000170 15 9c a2 3c 77 fa 63 bc 45 8a 04 bd b0 67 a2 3b
       0.019849816 -0.013914696 -0.032358427 0.004956208
000180 d0 8a 7d bb 83 d1 9d 3c e8 81 bf 3c 0a 53 6f 3c
       -0.0038687475 0.019264942 0.023377374 0.0146072
000190 9b e4 3c 3b 09 ef d8 bb 7d 82 57 bd f6 d4 18 bd
       0.0028822783 -0.006620292 -0.052614678 -0.03731247
0001a0 36 9f 33 bd c7 a2 b7 bc 03 90 26 bd a3 3d f3 3b
       -0.043853007 -0.022416485 -0.040664684 0.007423119
0001b0 08 52 bd 3b e2 64 14 bd f0 2c 03 bd ea 64 8b 3c
       0.005777601 -0.03622902 -0.032025278 0.017015893
0001c0 4c 94 9b 3c 3c 18 2b 3c 99 82 9c 3b f7 c1 96 3c
       0.018991612 0.01044279 0.0047763106 0.018403037
0001d0 43 89 ed bc 74 82 61 bd 5a e1 88 bc 47 1f 54 bd
       -0.028996116 -0.05505605 -0.016709018 -0.05178764
0001e0 2e 24 5e bd f0 93 ad bb 3c 9a 4a bd 49 e7 23 bd
       -0.054233722 -0.0052971765 -0.049463496 -0.040015493
0001f0 4b ed ff bc 91 08 09 bb 46 20 58 bd 96 34 bf bc
       -0.03124108 -0.0020909647 -0.052765153 -0.023340505
000200 20 d2 41 bd 16 ae 32 bd 03 16 48 bd 8a 98 6c bb
       -0.04731953 -0.043623053 -0.048849117 -0.0036101663
000210 ac 70 97 3c 80 b1 7b b8 08 e0 d8 bc 6f 21 9d bc
       0.018486343 -6.0008373e-05 -0.026474014 -0.019180981
000220 08 16 81 bc ec 14 f8 ba 9b fa 96 3c 60 96 3a bc
       -0.015757576 -0.0018927134 0.018430045 -0.011388391
000230 ba 43 42 bd eb e5 0d bd 39 4c 06 bd b7 b9 ab 3c
       -0.04742787 -0.034643095 -0.032787535 0.02096258
000240 29 5c 6b bd ea 01 51 bd f8 2b 9f bc f2 58 25 bc
       -0.057460938 -0.051027216 -0.019430146 -0.010092007
000250 94 19 a1 39 ab 67 f4 bc c5 ef a3 bc 0c a1 a7 3b
       0.0003072737 -0.029834589 -0.020011792 0.005115634
000260 7f cc cb bc 66 f7 de bc 48 b1 99 3c 52 e5 6d 3d
       -0.024877785 -0.027217578 0.018761292 0.058080025
000270 6b d3 f0 3c 1c 27 72 3d 27 77 66 bc 7f 3c 23 3d
       0.029397687 0.05911933 -0.014066494 0.039852615
000280 0a 91 65 bc 48 fc 61 3b 85 8f a1 3c 4f 4c c2 bc
       -0.014011631 0.0034482647 0.019721756 -0.023718027
000290 ec de 5f 3c 6c 5b 35 3c b6 c0 33 bd 6d 51 07 3c
       0.013663989 0.01106916 -0.043884955 0.0082591595
0002a0 90 eb 05 3c e9 b2 86 bc cc 95 06 bc dd 5a fb bc
       0.008173838 -0.016442733 -0.008214425 -0.030682975
0002b0 28 49 11 3c 06 d3 26 bd c8 fb f9 bc d1 29 3e bc
       0.008867539 -0.04072859 -0.030515566 -0.0116066495
0002c0 4b c0 6f 3c 68 d6 77 bd 4b 11 d5 bc ec 42 12 bd
       0.014633249 -0.060507208 -0.026009222 -0.035708353
0002d0 e4 d9 63 bd 0f 83 fd bc c7 b8 0b bd af c1 37 3c
       -0.05562772 -0.030946283 -0.034111764 0.011215611
0002e0 54 cb 2c bd 27 ab 06 3c bd a4 5d bd 94 00 3c bd
       -0.042186096 0.008219517 -0.054112185 -0.04589899
0002f0 fa 59 18 3c 85 44 2f bd cd f5 1c bd 01 f3 8a bc
       0.009298796 -0.042789955 -0.03832035 -0.016961576
000300 58 05 9c bc af c7 18 bd c3 90 a5 3c de 3c 5f 3c
       -0.019045517 -0.037299808 0.02021063 0.013625352
000310 35 5e 1e 3b 2a 39 22 bc 41 48 79 bd 78 91 be bc
       0.0024165038 -0.009901324 -0.060859922 -0.023262724
000320 a0 7b 1f bd de b8 76 bd 5e 77 a1 3a 74 84 b7 3c
       -0.038936257 -0.060234897 0.0012318899 0.022402026
000330 08 ea 6c bd fa f3 da 3b 38 0c 90 bc 68 54 f7 3b
       -0.057840377 0.0066819163 -0.017583951 0.007547904
000340 4a 4a bf bc 57 f1 12 bb 69 e7 f8 3b 0a 9f 6b bd
       -0.023350853 -0.0022421682 0.0075959456 -0.05752472
000350 58 ac 77 bd 36 60 85 bc 93 13 63 bc b6 31 10 bd
       -0.060467094 -0.016281229 -0.013859647 -0.035203658
000360 57 98 23 bc a8 ef a1 ba fc 6e bc bb 62 ca 4a bb
       -0.009985051 -0.0012354748 -0.005750535 -0.0030943383
000370 f8 95 43 bd 47 b9 63 bd c4 b9 9c bc 22 03 af 3c
       -0.047750443 -0.055596616 -0.019131549 0.021363799
000380 fb 7f 1e bc b2 55 34 3d 82 9a 5c 3d 9c 4f b9 3c
       -0.009674068 0.044027038 0.053858288 0.022620969
000390 71 6e 1a bc 8a a3 a3 3a 49 a8 37 3d 84 e9 5d bc
       -0.009425745 0.0012484652 0.044838224 -0.013544444
0003a0 36 70 6e 3c c9 33 5a 3d 86 92 25 bd cd 1b 3f bb
       0.01455312 0.053272042 -0.04042294 -0.0029160858
0003b0 d4 c4 a3 bc 6b 66 a1 bc 61 9a 15 bd 00 1a 5a 3c
       -0.019991316 -0.019702157 -0.03652418 0.013311863
0003c0 2c b0 92 3c aa e3 a4 3b a2 c1 52 bc bd c5 0d bc
       0.01790627 0.0050320225 -0.0128635485 -0.0086531015
0003d0 80 18 51 3c 80 2b 31 3d 1d f5 61 3d 05 f9 02 3d
       0.012762189 0.043254375 0.0551654 0.031975765
0003e0 f5 4b 51 3d d2 d1 c5 ba 82 77 82 3a 6a fb 39 bc
       0.05109783 -0.0015092439 0.0009953829 -0.011351446
0003f0 e9 97 a9 bb 98 7e 69 3c 0c 51 0f bd 15 9e 73 bd
       -0.00517558 0.014251374 -0.0349894 -0.05947693

encoder.2.conv.bias f4 [128]
000000 44 53 47 bc aa 16 e7 3c a6 5f 9f 3c 12 76 84 3b
       -0.012165848 0.02820905 0.019454788 0.0040423954
000010 24 cf a8 bc 6e 0a 98 bc b4 ea 0b 3d bd ab a4 3c
       -0.020606585 -0.01855966 0.034159377 0.020101422
000020 8a b0 06 3d f4 d5 30 bc 87 2c e2 bb 33 3f f9 3c
       0.032883205 -0.010793198 -0.0069022807 0.030425644
000030 f4 c6 fa bc a6 c0 3e 3c d6 5a 06 3d 98 23 01 3d
       -0.030612446 0.011642611 0.03280147 0.031528085
000040 de 24 04 3d 13 ab c7 3c aa d0 15 bd 60 21 4b 3c
       0.03226172 0.024373567 -0.03657595 0.012398094
000050 99 c3 ee 3b 91 c2 0e 3b 35 59 21 3c f9 bc 7e bc
       0.0072865007 0.002178345 0.009847929 -0.015547984
000060 ad c7 ed 3c 4c 37 aa bc 55 21 b0 3c 45 82 45 3c
       0.029025877 -0.02077832 0.021500269 0.012054984
000070 04 34 aa bc 67 0a 77 bb 08 36 b8 3c d3 ab 0e bd
       -0.020776756 -0.003769541 0.022486702 -0.034831833
000080 5c d6 b6 3c 8a 5c 17 3d 64 e9 17 3d 1e 03 a1 bc
       0.022319011 0.036953487 0.037087813 -0.019654807
000090 9a f8 57 3b aa 79 5f 3c 9a e5 fe 3c 02 d5 22 bd
       0.0032954575 0.013639847 0.031115342 -0.03975392
0000a0 03 6a c5 3c 82 fc 02 3d 48 6f cd ba 89 91 04 bd
       0.024098402 0.03197909 -0.0015673423 -0.032365356
0000b0 5f 17 f5 bc 43 9f 8a bc 25 6c 26 3c 17 dc 2e bd
       -0.02991837 -0.016921645 0.01015762 -0.042690363
0000c0 f3 b7 85 bc df 24 e8 bc 4b ec 30 bd 0d 27 14 bd
       -0.016323065 -0.028337894 -0.043194097 -0.036170054
0000d0 62 e4 ca bc 61 cf 97 3b d6 c3 c8 3c 0d 14 4f 3c
       -0.024767105 0.004632876 0.024507444 0.012639058
0000e0 64 37 b4 bc 8b 3b 16 bd 50 36 0a 3c 24 36 84 bc
       -0.021999069 -0.03667788 0.008435801 -0.016139098
0000f0 97 54 b6 3b 35 34 4a bc 2d 7d ef bc 50 a5 3a 3d
       0.005564283 -0.012341549 -0.029234493 0.04556781
000100 b1 52 02 3b 16 07 84 3c d4 22 ad 39 c4 35 00 3d
       0.0019885714 0.01611666 0.0003302308 0.031301275
000110 d6 c3 92 3a de ee a4 3c 42 72 39 3d 5f b3 dc bc
       0.001119728 0.020133432 0.04527498 -0.026941
000120 02 2d 1f 3c 47 8a 15 bd 71 38 d4 bb 49 24 ca 3c
       0.009715321 -0.036508825 -0.006476455 0.024675505
000130 d6 82 e1 b9 1d 05 03 3d 31 d8 9d 3c 0e 9a 6d bb
       -0.00043012825 0.0319873 0.019268127 -0.0036255154
000140 6c 0c 04 bd 1a 3b 06 bd 3e ac 4d bc 9e 51 81 bc
       -0.03223841 -0.032771207 -0.012553273 -0.015785988
000150 13 c8 40 bc ef ab 66 3c 89 4c a1 3c 90 08 06 bd
       -0.011766451 0.014079078 0.019689815 -0.03272301
000160 80 c8 7c bb 4f 01 17 bd 4c a9 17 bc 8f 4b 25 3d
       -0.0038571656 -0.036866482 -0.009256672 0.04035526
000170 e1 8f 1b bc bd 31 91 3b 98 43 22 3d ed 0f fa bc
       -0.009494753 0.004430978 0.039615244 -0.030525172
000180 6b b0 21 3d ed 6a 40 3c 9c 42 64 39 01 18 1b 3d
       0.039474886 0.011744243 0.00021768588 0.03786469
000190 a9 41 23 3d 73 2a 3e 3c 41 25 46 3c 71 34 38 bc
       0.03985754 0.0116068 0.012093843 -0.011242972
0001a0 de a5 14 3d 09 5c e5 3c 0b 4f 02 3d 31 d2 1b bd
       0.036290996 0.027997987 0.031813662 -0.03804225
0001b0 34 4f 57 3b 4a a2 33 3d e8 85 10 3d 64 fc 3f 3d
       0.0032853605 0.043855943 0.035283953 0.046871558
0001c0 da ab d7 3c 67 36 ae bc 94 f9 41 3b 8c e5 9b bc
       0.026327062 -0.021266175 0.0029598223 -0.019030355
0001d0 93 cd e3 bc cf 76 26 3d 3a 34 00 bc d0 a8 ff bb
       -0.027807986 0.04064065 -0.007824952 -0.0078021064
0001e0 38 06 a7 3c 9e cc a4 3c 96 38 80 3c 02 df b1 3c
       0.020388708 0.0201171 0.015651982 0.021712784
0001f0 24 d0 6d 3c 26 ec 48 bc 6c 6c c1 3c 54 af 35 bb
       0.014514957 -0.012263333 0.02361127 -0.0027722912

encoder.2.bn.weight f4 [128]
000000 22 2a 83 3f 9f 12 83 3f 36 84 7f 3f 24 92 81 3f
       1.0247233 1.0240058 0.9981111 1.0122724
000010 fa 92 7a 3f ed 3c 80 3f 79 12 83 3f 41 28 80 3f
       0.9788052 1.0018593 1.0240012 1.0012285
000020 9a b3 82 3f a1 26 82 3f d6 95 7a 3f 71 8e 7a 3f
       1.021106 1.0168039 0.9788488 0.978736
000030 dc 40 7f 3f 95 e1 80 3f 40 ac 79 3f 8c e9 7c 3f
       0.9970834 1.0068842 0.9752846 0.98793864
000040 02 c2 79 3f 33 8a 7b 3f 67 07 80 3f 2d 91 7f 3f
       0.9756166 0.9825775 1.0002259 0.99830896
000050 d7 3d 7e 3f af 4f 82 3f 0b d9 81 3f ab 53 7c 3f
       0.9931311 1.0180568 1.0144361 0.9856517
000060 85 7f 82 3f d6 c5 7a 3f 7f 07 82 3f 72 54 7b 3f
       1.0195166 0.97958124 1.0158538 0.9817573
000070 d5 18 7a 3f cb eb 79 3f a5 bd 7f 3f 47 63 7b 3f
       0.9769414 0.97625417 0.9989875 0.9819836
000080 40 50 7f 3f 0c cc 7b 3f 95 b6 7d 3f 9f a8 7a 3f
       0.99731827 0.98358226 0.99106723 0.97913545
000090 82 d4 79 3f 80 91 80 3f e4 da 79 3f f3 3a 82 3f
       0.97589886 1.0044403 0.97599626 1.017424
0000a0 65 7e 7e 3f c0 fe 7f 3f 42 67 80 3f 37 5d 82 3f
       0.9941161 0.9999809 1.0031512 1.0184697
0000b0 5e 97 79 3f 85 86 82 3f 22 8e 7a 3f ba 8d 7b 3f
       0.97496593 1.0197302 0.9787313 0.9826313
0000c0 91 85 82 3f 21 67 7b 3f d3 77 7f 3f 47 18 7a 3f
       1.0197011 0.9820424 0.9979221 0.97693294
0000d0 18 93 7f 3f be 12 7f 3f ec 9f 7d 3f 53 a9 80 3f
       0.9983382 0.99637973 0.99072146 1.0051674
0000e0 b9 06 7b 3f f7 d4 82 3f ab 1a 82 3f cd 06 83 3f
       0.9805713 1.0221242 1.0164388 1.023645
0000f0 f6 b6 82 3f 7c 73 7b 3f 76 a4 82 3f 71 5d 82 3f
       1.0212085 0.9822309 1.020644 1.0184766
000100 c1 4d 83 3f 69 02 7a 3f 1d 3f 83 3f cc 03 7b 3f
       1.0258104 0.9765993 1.0253636 0.9805267
000110 73 c8 81 3f da 2f 81 3f e3 68 7c 3f 45 2a 7b 3f
       1.0139297 1.0092728 0.98597544 0.98111373
000120 92 5f 82 3f 12 af 82 3f 6c 2d 80 3f 1d 4e 81 3f
       1.0185416 1.0209677 1.0013862 1.0101963
000130 69 c5 82 3f bf 33 81 3f 3a 48 83 3f 74 2e 83 3f
       1.0216495 1.0093917 1.0256417 1.0248551
000140 09 20 7a 3f 42 42 82 3f d0 0a 7b 3f bf ff 80 3f
       0.9770513 1.017647 0.98063374 1.0078048
000150 1b 30 80 3f a4 fd 7a 3f 6c 82 79 3f a6 04 83 3f
       1.0014681 0.98043275 0.97464633 1.0235794
000160 25 2a 83 3f cd de 7f 3f 86 35 7e 3f 80 2a 83 3f
       1.0247236 0.9994934 0.9930042 1.0247345
000170 5e c9 81 3f 49 15 83 3f 15 b9 82 3f 61 28 7a 3f
       1.0139577 1.0240871 1.0212733 0.97717863
000180 a6 1b 7b 3f 23 d7 79 3f 68 9f 81 3f 97 cc 80 3f
       0.98089063 0.975939 1.0126772 1.0062436
000190 cc da 80 3f c9 e2 82 3f 8f 8d 80 3f 46 c7 81 3f
       1.0066772 1.0225459 1.00432 1.0138938
0001a0 26 1e 7a 3f fa d2 81 3f 25 88 80 3f 22 01 7a 3f
       0.9770225 1.014251 1.0041548 0.9765798
0001b0 d6 4f 83 3f 33 8d 7a 3f 64 56 81 3f 40 14 83 3f
       1.0258739 0.978717 1.0104489 1.0240555
0001c0 98 37 7b 3f b2 02 82 3f d2 1e 83 3f dd 1a 82 3f
       0.98131704 1.0157073 1.0243781 1.0164448
0001d0 02 e4 7c 3f f3 f8 80 3f d4 b8 7b 3f a3 0f 82 3f
       0.9878541 1.0075973 0.983289 1.0161022
0001e0 54 30 83 3f 69 d6 80 3f d0 ef 81 3f e7 b7 7b 3f
       1.0249124 1.0065433 1.015131 0.9832749
0001f0 4f c7 81 3f c0 fd 7e 3f db 1a 83 3f 42 48 7a 3f
       1.0138949 0.9960594 1.0242571 0.97766507

encoder.2.bn.bias f4 [128]
000000 fc b6 b8 3c 18 24 d0 bb ff 55 1f 3c 6a b1 db 3c
       0.022548191 -0.006351959 0.009725093 0.026817996
000010 96 12 68 3c b0 8e 9b ba 3b 5c b8 3c 92 e1 41 bb
       0.0141645875 -0.0011868086 0.022504916 -0.0029583913
000020 1f 54 b7 3c b2 f5 36 3b e2 e2 96 bc 3f 86 b0 bc
       0.02237898 0.0027917442 -0.018418733 -0.021548389
000030 1c a9 c2 3a 71 9e b9 3b 7e 4a c8 bc 7f 6e 01 bc
       0.0014851424 0.0056646396 -0.024449583 -0.0078998795
000040 86 01 d3 bc 20 01 a8 bc db b7 08 3c 66 e9 b5 3a
       -0.025757562 -0.020508349 0.008344616 0.0013878762
000050 39 e4 c8 3c 69 9e aa 3c 08 91 92 bb 62 9f ad bb
       0.024522888 0.020827489 -0.0044728555 -0.005298541
000060 b7 8d b9 3c 03 d0 97 bc 94 bb 35 3c 90 1a 9b bc
       0.022650583 -0.018531805 0.011092085 -0.018933564
000070 a5 6f af bc 69 f3 0b 3c 21 95 63 bb 4d 50 77 bc
       -0.021415541 0.00854192 -0.003472634 -0.015094829
000080 79 a6 85 3b d8 be 33 3c 88 95 55 bb b6 ab ac bc
       0.004078683 0.010970794 -0.0032590348 -0.021077972
000090 3a f1 c2 bc 8c c1 d5 3c 0f 3a c2 bc a4 47 c9 3c
       -0.023796666 0.026093267 -0.023709325 0.024570294
0000a0 13 9f f6 3b 2f d0 bb bc 6a b8 fb 3a 99 2a 4d bc
       0.0075262873 -0.022926418 0.001920474 -0.012522363
0000b0 9c 71 1d 3c 95 39 94 3c e1 cf 98 bb 32 72 b8 bc
       0.009609606 0.018093864 -0.004663453 -0.02251539
0000c0 ba bd b1 3c b2 87 a8 bc a7 ce 8a 3c ac e8 c3 bc
       0.021696914 -0.020572517 0.016944243 -0.023914658
0000d0 08 38 aa bc 01 cd b4 3b e7 b1 39 bc 2b 18 cd bc
       -0.02077867 0.0055176024 -0.011333919 -0.025035938
0000e0 66 12 1f 3b ce 94 b0 3c eb db 90 3c 5b 98 6c bb
       0.002427244 0.02155533 0.01768299 -0.0036101553
0000f0 00 ab 9f 3b 95 0b 76 bc cd 31 90 3c 3d cc 5a 3c
       0.0048726797 -0.01501741 0.017601872 0.013354358
000100 5d d1 00 3c c1 e0 b6 bc 88 30 89 bc 3e ae 98 bc
       0.007862416 -0.022323968 -0.016746774 -0.018637773
000110 3f 12 9c bc a9 e5 01 3c 90 b2 9a bc f4 99 dc 3c
       -0.01905167 0.00792829 -0.018883973 0.02692888
000120 7b da be 3c 0e 1f a0 3c 93 1d 98 3b 7a 68 c5 3c
       0.023297539 0.019546058 0.0046421974 0.02409767
000130 0b 54 8e 3c e8 3a 00 3c 1c 23 c8 3c 71 5a be 3c
       0.01737406 0.007826544 0.024430804 0.023236485
000140 66 b7 ba bc 82 74 da 3c c5 69 b6 bc dc b2 dd 39
       -0.02279253 0.026666883 -0.022267232 0.00042285665
000150 db 39 51 3b 05 84 9e bc 87 3d d7 bc ed 46 14 bc
       0.0031925354 -0.019350061 -0.026274456 -0.009050113
000160 a4 2a aa 3c db f8 6c 3c b4 39 33 3c e2 26 c7 3c
       0.020772286 0.014463629 0.0109390505 0.024310533
000170 f8 16 7c 3c 93 5b b6 3c 0f 83 a0 3c 09 d1 06 bc
       0.015386336 0.022260463 0.019593744 -0.008228549
000180 4b 01 a9 bc ae a6 a6 bc b4 ca 82 3c 6c c1 4a 3a
       -0.0206305 -0.020343151 0.015965797 0.00077345106
000190 aa dd a2 3c 48 d3 6c 3a b9 f6 d5 3a ba c9 ec 3b
       0.019881088 0.0009034169 0.001632414 0.007226196
0001a0 d2 a5 24 3c 72 85 05 bb ca 4d b5 3b 8d bb d0 3b
       0.0100493 -0.002037373 0.005532955 0.006370014
0001b0 8c 8e b2 3c d1 98 62 bb 2a 79 f9 3b ca ac d0 3c
       0.021796487 -0.003457595 0.007613321 0.025473017
0001c0 9a 0f 1c ba 54 d1 8b 3c f4 65 59 bb d0 33 d7 3b
       -0.00059532525 0.017067589 -0.003317234 0.006567456
0001d0 41 39 9f bc 68 99 f3 39 70 35 a5 bc e7 19 aa 3c
       -0.01943648 0.00046462868 -0.020167083 0.020764304
0001e0 54 c0 7f 3c 3a a6 a3 3c 8b 95 86 3c 1e 04 1a bc
       0.015609819 0.019976724 0.01642873 -0.009400396
0001f0 16 16 b7 3b 1d 24 1d bb e9 be b3 3c 3a a5 a8 bc
       0.0055873496 -0.0023977824 0.021941619 -0.020586599

encoder.2.bn.running_mean f4 [128]
000000 1a f4 03 bf b0 10 e7 3e 32 a4 00 bf a6 bb a1 be
       -0.51544344 0.4512992 -0.5025054 -0.31588477
000010 6c 18 07 3e 4e 86 bc 3e d6 d6 e5 be 12 d1 e1 be
       0.1319291 0.36821216 -0.4489047 -0.4410482
000020 e2 a4 23 bf 77 96 81 3d 02 87 2e bf 43 d0 b2 3e
       -0.63923466 0.06327527 -0.68174756 0.34924516
000030 bc 87 f5 be 29 b1 16 bf 3a 25 cf be 8b 8a 4e bd
       -0.4795512 -0.58864075 -0.4045809 -0.050425094
000040 12 ed 09 bf cb a1 8b be 66 b8 11 3e f8 12 c1 3e
       -0.53877366 -0.27271876 0.14230499 0.37709785
000050 f3 c6 19 bf bc a5 e3 3e 47 8d 85 3e 14 62 a4 be
       -0.600692 0.44462383 0.2608435 -0.32106078
000060 c4 fd b6 3e 23 ab c8 3e 21 0f e7 3e 8b 4f 9a 3e
       0.35740483 0.39193067 0.4512873 0.3013881
000070 3c 9c ce be 01 f0 14 bf e6 7f 1d bf 02 ec 9b be
       -0.40353572 -0.58178717 -0.6152328 -0.30453497
000080 61 52 cd be 40 29 b6 be 54 13 da be 3c 34 50 3c
       -0.40101913 -0.35578346 -0.4259287 0.012707766
000090 52 43 10 be 82 1f 73 be 68 de df 3e 0a f2 a2 be
       -0.1408818 -0.23742488 0.4372437 -0.31825286
0000a0 ef 5d ac be 8d 05 0b 3f e7 81 3e be ca 29 8f 3d
       -0.33665416 0.54305345 -0.18604241 0.069903925
0000b0 fe b2 34 bf 84 66 1c bf 62 db 1b bf 18 14 8f 3e
       -0.7058562 -0.61093926 -0.60881627 0.27945018
0000c0 72 19 ff 3e 9a 93 81 be 48 3d 0c 3d f8 cb 48 be
       0.498241 -0.25307924 0.03423813 -0.19609058
0000d0 3a 1c 73 3e 52 29 98 be a0 05 d2 bd 41 91 18 3f
       0.23741236 -0.29719025 -0.10254979 0.5959664
0000e0 f8 a4 07 bd 7e af b7 be 84 ac d9 3e c4 36 c9 3e
       -0.03311631 -0.35876077 0.4251443 0.39299595
0000f0 6e c6 db 3e ea fb 70 be 96 22 f2 3e 2e 5c 0f be
       0.42924827 -0.23533598 0.47292012 -0.14000008
000100 1c 4b 99 3b 44 f4 ac 3e e0 c3 0e 3f bc b7 98 be
       0.004678143 0.3378011 0.5576763 -0.29827678
000110 f5 89 4f 3d 4f cd 86 bd f7 ee 4d 3e 1f 58 03 bf
       0.050668675 -0.06582128 0.20110689 -0.5130634
000120 cf 9b 3d 3d 9c 27 9d be 3c 8d bf be 4e e5 4b be
       0.04629117 -0.30694282 -0.3741244 -0.19911692
000130 1e 60 8c 3e 08 1b d0 be 99 6b a5 3e 46 d2 cb 3e
       0.27417082 -0.40645623 0.32308653 0.39808863
000140 c1 de 20 bf e0 8e fc 39 60 4e ca be 6b cd 96 be
       -0.62839895 0.00048171636 -0.3951292 -0.29453596
000150 9c 15 3b 3e 68 cc f2 bd 3a 2c 08 bf e7 d3 0b 3f
       0.18269962 -0.11855394 -0.53192484 0.5462021
000160 68 06 52 3e 42 bb 80 be 4a 73 28 bf de 21 8f 3e
       0.20510256 -0.25142866 -0.6580092 0.27955526
000170 fe f8 c4 3e a4 bf bb 3e a5 1f cc be 63 d1 d1 be
       0.38471216 0.36669648 -0.39867893 -0.40980062
000180 c2 99 0d 3d 9d 8a a3 bd d9 42 f1 be 2d c6 cb 3e
       0.034570463 -0.07985423 -0.47121313 0.39799634
000190 f6 bc 98 3e 9a 4c e4 be 00 7e d3 be 4e 1d 9a be
       0.29831666 -0.44589692 -0.41307068 -0.30100483
0001a0 e8 7f 20 be f6 c8 f5 3e a6 2c da be f0 7c aa 3e
       -0.15673792 0.48004884 -0.4261219 0.33298445
0001b0 62 30 78 bd 2a 28 03 bf 78 8b 01 bf 2e e5 85 3e
       -0.060593016 -0.5123316 -0.5060344 0.26151413
0001c0 46 d1 6f bd ea a6 77 be e9 17 8c 3e b4 a6 73 be
       -0.058549188 -0.24184766 0.27361992 -0.23794061
0001d0 0c 1b 07 3f 80 23 0c 3f 72 79 f1 3e 10 e8 ae 3d
       0.52775645 0.5474167 0.47162968 0.08540356
0001e0 68 a4 c7 3e 2d 2b e7 bc 5c 9a bc 3e d7 0d 05 3f
       0.3899262 -0.02821883 0.36836517 0.5197424
0001f0 38 c2 c4 3e 28 57 98 3d 16 ff ef be 9c 5d 25 bf
       0.38429427 0.07438499 -0.46874303 -0.6459596
