Lab/Lab6_Hyperparameter-Tuning/ray_results/grid_search/best_autoencoder_grid_search.pth (torch, 765406 bytes, 36 tensors)

encoder.0.conv.weight f4 [32, 3, 3, 3]
0	0x3d829282	0.063756004
1	0x3e126485	0.14296158
2	0x3e34130f	0.17585395
3	0x3d175d9c	0.036954507
4	0x3e32ee85	0.174738
5	0x3e2e3e99	0.17016067
6	0xbda95523	-0.08268192
7	0xbd2b8425	-0.04187407
8	0x3da09af8	0.07842058
9	0x3d5cf9cf	0.053949174
10	0x3e0ed367	0.13947831
11	0x3df0ebfa	0.11763759
12	0xbca89bb5	-0.02058206
13	0xbdf136d5	-0.117780365
14	0xbe001ce5	-0.12511022
15	0x3dc38af3	0.09547987
16	0x3b7f04a9	0.003891269
17	0xbd7bff41	-0.061522726
18	0x3d42b7c0	0.04753852
19	0x3d616c34	0.05503483
20	0x3e18894b	0.14896123
21	0xbd7faac6	-0.06241872
22	0xbe3f0263	-0.18653254
23	0x3dff8fe7	0.12478619
24	0x3e1ac8a0	0.15115595
25	0x3e040a66	0.12894592
26	0xbd3f5d55	-0.046719868
27	0xbda21abb	-0.07915255
28	0x3e38231c	0.17982143
29	0x3d4be17d	0.04977559
30	0x3d59aa41	0.053140882
31	0x3dbc612c	0.091982216
32	0x3c819dc9	0.015822308
33	0xbe21ee6c	-0.15813607
34	0xbd949e7a	-0.072567895
35	0x3d68bfc1	0.056823496
36	0xbe1f2f07	-0.15545283
37	0xbe2cd84f	-0.1687939
38	0x3dc6dd04	0.09710124
39	0x3e1805f0	0.14846015
40	0xbd7cd797	-0.06172904
41	0x3e334446	0.17506513
42	0x3ae28594	0.0017282241
43	0xbc0f4dae	-0.008746548
44	0xbdb437f9	-0.087997384
45	0xbd603917	-0.054741945
46	0xbd89b75a	-0.06724425
47	0x3bc47665	0.005995559
48	0xbbf29bba	-0.007403818
49	0x3cc1cd61	0.023657503
50	0xbe06169f	-0.13094567
51	0x3d395e25	0.0452558
52	0xbdf996f1	-0.12186993
53	0xbdcb5d98	-0.09929961
54	0x3e092418	0.13392675
55	0x3d9f2a10	0.07771695
56	0x3dc75458	0.09732884
57	0x3dd68478	0.10474485
58	0xbe41ace5	-0.1891361
59	0x3e10c9fc	0.14139551
60	0xbdaf64ff	-0.08564185
61	0x3e1476b0	0.144984
62	0xbe314059	-0.17309703
63	0xbe36ecf9	-0.17863835
64	0xbd10846a	-0.03528253
65	0x3d96dab1	0.07365931
66	0x3d7c9a97	0.061670866
67	0x3e17e2c2	0.14832595
68	0x3d281055	0.0410312
69	0xbdb12259	-0.086491294
70	0x3e17a26a	0.1480805
71	0xbddfec24	-0.10933712
72	0xbcf9186a	-0.03040715
73	0xbdaa204a	-0.0830694
74	0xbd9738b4	-0.07383862
75	0xbd2f5fa5	-0.042815823
76	0xbd630c87	-0.05543187
77	0x3dbb4478	0.09143919
78	0xbe3cd402	-0.1844025
79	0xbe1a7d4d	-0.15086861
80	0xbde0feff	-0.10986137
81	0xbdc389b1	-0.09547747
82	0xbe2738e8	-0.16330302
83	0x3e2690ca	0.1626617
84	0x3b5708b5	0.0032811586
85	0xbdad77e6	-0.084701344
86	0x3d6926d7	0.056921806
87	0x3c8e4997	0.017369075
88	0xbd4f4ad5	-0.050608475
89	0xbe19446a	-0.14967504
90	0xbce0a3b9	-0.027421819
91	0x3d10826f	0.03528064
92	0xbdac51f2	-0.08414067
93	0x3d6f4327	0.05841365
94	0xbd737375	-0.05943628
95	0x3d8b7dd0	0.06811106
96	0x3b693474	0.0035584243
97	0xbc2ecab3	-0.010668444
98	0x3e1db94e	0.1540272
99	0x3d79d1ef	0.060991224
100	0x3df4c368	0.11951333
101	0x3e189dfe	0.14904019
102	0x3d3e5a47	0.046472814
103	0x3e418942	0.18900016
104	0xbdbbd944	-0.091722995
105	0xbd1883b1	-0.037234966
106	0xbe24d67e	-0.16097447
107	0xbe332865	-0.17495878
108	0x3db66a74	0.08907023
109	0xbcd15be1	-0.025556507
110	0xbe33d0d0	-0.17560124
111	0xbe3a3a32	-0.18186262
112	0x3dc92804	0.098220855
113	0xbb5d4cc9	-0.0033767691
114	0x3e07ced8	0.13262498
115	0xbe3fe94b	-0.18741338
116	0x3d5c6237	0.053804602
117	0x3be85ffb	0.00709152
118	0xbb15cd49	-0.0022857955
119	0x3da5d074	0.080964
120	0xbaaca513	-0.0013171755
121	0x3d983240	0.074314594
122	0xbd9879e3	-0.07445123
123	0x3e0bc094	0.13647681
124	0xbe2b2431	-0.16713025
125	0x3d14b05f	0.036301013
126	0x3e2c8458	0.1684736
127	0xbdf8696e	-0.12129484
128	0x3d7fe7ef	0.06247705
129	0xbe00c29f	-0.12574242
130	0xbd88643d	-0.06659744
131	0x3d02588b	0.031822722
132	0x3e24b044	0.16082865
133	0xbbf93465	-0.007605123
134	0x3dbb7870	0.09153831
135	0x3cdf8f22	0.02728993
136	0xbd7cec7f	-0.061748978
137	0x3d6e6ad9	0.058207367
138	0x3c4b5a14	0.012411613
139	0xbc09429c	-0.008377697
140	0xbdeb6dc4	-0.114955455
141	0xbe1cf518	-0.15327871
142	0x3dc10894	0.09425464
143	0xbe1565b9	-0.14589585
144	0xbd53b9c7	-0.051690843
145	0x3e208c10	0.1567843
146	0xbe2f8705	-0.1714135
147	0xbc712df9	-0.014720433
148	0x3836c6c0	4.357728e-05
149	0x3e39747c	0.18110842
150	0xbc8beabc	-0.017079704
151	0xbde001fd	-0.10937879
152	0xbcb174cf	-0.021662144
153	0x3db57454	0.088600785
154	0xbd9fe5a6	-0.07807474
155	0xbe145c23	-0.14488272
156	0x3d192202	0.037385948
157	0x3e1c3b89	0.15257086
158	0xbd7d9ae2	-0.061915286
159	0x3e14c4d8	0.14528215
160	0x3ba66653	0.005078116
161	0xbe409ece	-0.18810579
162	0x3e19bef6	0.15014252
163	0xbdabeee5	-0.08395175
164	0xbde8bb6d	-0.11363874
165	0xbd48db79	-0.04903743
166	0x3e344aae	0.17606613
167	0x3d5f035f	0.054446574
168	0xbbcce7e5	-0.00625323
169	0xbd601e3d	-0.054716337
170	0xbcb4c7f1	-0.022067996
171	0x3db85b7e	0.09001826
172	0x3e345bc7	0.17613135
173	0x3cfa7406	0.030572902
174	0x3d8b91bf	0.06814908
175	0x3d672f1e	0.05644142
176	0x3e338208	0.17530072
177	0xbe18cd9b	-0.14922182
178	0xbdcd3c1e	-0.10021232
179	0xbb51714f	-0.0031958406
180	0xbdf8f0c8	-0.121553004
181	0x3e1c2c92	0.15251377
182	0xbdc4821c	-0.09595129
183	0x3d400427	0.04687896
184	0x3dd52b5e	0.10408662
185	0xbd6feb38	-0.05857393
186	0x3d871cab	0.06597265
187	0x3d96d6e7	0.07365208
188	0x3d1f076e	0.038825445
189	0xbd84d125	-0.06485204
190	0xbe1e222b	-0.15442722
191	0x3d33eaea	0.043925203
192	0x3d2ab5dd	0.041677345
193	0xbd9f5a40	-0.07780886
194	0x3cce1bba	0.025159705
195	0x3c16b646	0.009198731
196	0xbd6625ab	-0.056188267
197	0xbe4520d2	-0.19250801
198	0x3e119d97	0.14220272
199	0xbbf5906d	-0.0074940235
200	0xbe254c2a	-0.16142336
201	0x3db47ba4	0.08812645
202	0xbe1957d3	-0.14974909
203	0x3de84a14	0.11342254
204	0x3bed5b27	0.007243532
205	0xbe0ccb89	-0.13749518
206	0x3dd49d8c	0.10381612
207	0x3d0ae94a	0.033913888
208	0xbd904576	-0.070444986
209	0xbd2ec5b7	-0.042669024
210	0xbe458a14	-0.19290954
211	0x3e321b8e	0.17393324
212	0xbd2d82f7	-0.042361226
213	0xbe24300b	-0.16033952
214	0x3d148e45	0.03626849
215	0x3e21d622	0.15804341
216	0xbdb6604c	-0.08905086
217	0x3e0730ac	0.1320216
218	0x3d9a281b	0.07527181
219	0x3d6240a1	0.055237416
220	0xbd440edf	-0.047865745
221	0xbb45af2a	-0.003016422
222	0x3cbdb492	0.023157392
223	0x3e21e69e	0.1581063
224	0xbcd7ae3c	-0.026328199
225	0x3dae7668	0.08518678
226	0xbe0e0e65	-0.13872679
227	0xbd3af0ce	-0.045639805
228	0xbe144df5	-0.14482863
229	0xbe2d6231	-0.16931988
230	0xbe34d760	-0.17660284
231	0x3cb59422	0.022165362
232	0x3d748659	0.059698436
233	0x3d00f2e9	0.031481657
234	0xbdc3ba94	-0.09557071
235	0xbd2c4503	-0.042058002
236	0xbe18af29	-0.14910568
237	0x3cd7f8fa	0.026363838
238	0x3dc72fb8	0.097258985
239	0x3dcc5c48	0.09978539
240	0x3d8dc1b8	0.069217145
241	0x3d06fbb9	0.032954905
242	0xbda0ee69	-0.07857973
243	0x3e11f5ee	0.14253971
244	0xbcf088c4	-0.02936209
245	0x3d0f5369	0.034991655
246	0xbe1ba2b0	-0.15198779
247	0xbd357541	-0.044301275
248	0xbdffb964	-0.12486532
249	0x3e23ee4e	0.16008875
250	0x3e2fe93a	0.17178813
251	0x3e318258	0.17334878
252	0x3d3f484b	0.046699803
253	0x3d7f7c37	0.06237432
254	0x3df41631	0.11918295
255	0xbe2ddd4a	-0.16978946

encoder.0.conv.bias f4 [32]
0	0x3cf37560	0.029719055
1	0xbdb12378	-0.08649343
2	0xbb2953a6	-0.0025837212
3	0xbdaea609	-0.085277624
4	0xbe12d12d	-0.14337607
5	0xbe11c0fd	-0.14233775
6	0x3dbcc976	0.09218113
7	0xbe419c69	-0.18907322
8	0x3c76a99c	0.015055086
9	0xbc92d0db	-0.017921856
10	0x3e243116	0.1603435
11	0x3da7d4ee	0.0819491
12	0xbc9b9106	-0.018990051
13	0x3d00218d	0.031281997
14	0xbd846b32	-0.064657584
15	0x3dc2bb4e	0.09508382
16	0x3d1c32c8	0.038134366
17	0x3de6f068	0.112763226
18	0xbdaac54a	-0.08338411
19	0xbd4b6ebe	-0.04966616
20	0x3d94df34	0.07269135
21	0x3e007ae0	0.12546873
22	0xbe193664	-0.14962155
23	0xbcea9400	-0.028635025
24	0x3d3cf603	0.046133053
25	0xbcaf60cd	-0.021408463
26	0x3d829cf9	0.063775964
27	0xbdde9621	-0.108684786
28	0xbe0e48c5	-0.13894947
29	0x3e1a2209	0.15052046
30	0x3e221f53	0.15832262
31	0x3dc73a49	0.09727914

encoder.0.bn.weight f4 [32]
0	0x3f8020c5	1.001
1	0x3f8020c5	1.001
2	0x3f8020c5	1.001
3	0x3f8020c5	1.001
4	0x3f8020c5	1.001
5	0x3f7fbe77	0.999
6	0x3f7fbe77	0.999
7	0x3f7fbe77	0.999
8	0x3f7fbe77	0.999
9	0x3f7fbe77	0.999
10	0x3f8020c5	1.001
11	0x3f8020c5	1.001
12	0x3f8020c5	1.001
13	0x3f7fbe77	0.999
14	0x3f7fbe77	0.999
15	0x3f8020c5	1.001
16	0x3f7fbe77	0.999
17	0x3f7fbe77	0.999
18	0x3f7fbe77	0.999
19	0x3f8020c5	1.001
20	0x3f8020c5	1.001
21	0x3f7fbe77	0.999
22	0x3f7fbe77	0.999
23	0x3f7fbe77	0.999
24	0x3f7fbe77	0.999
25	0x3f7fbe77	0.999
26	0x3f7fbe77	0.999
27	0x3f8020c5	1.001
28	0x3f7fbe77	0.999
29	0x3f8020c5	1.001
30	0x3f7fbe77	0.999
31	0x3f8020c5	1.001

encoder.0.bn.bias f4 [32]
0	0x3a831267	0.0009999991
1	0x3a831268	0.0009999992
2	0xba831250	-0.0009999964
3	0x3a831267	0.0009999991
4	0xba83124a	-0.0009999957
5	0xba831262	-0.0009999985
6	0xba831262	-0.0009999985
7	0xba831267	-0.0009999991
8	0xba831262	-0.0009999985
9	0x3a831265	0.0009999989
10	0x3a830f84	0.0009999131
11	0x3a83125b	0.0009999977
12	0x3a83123c	0.0009999941
13	0x3a831257	0.0009999973
14	0x3a831255	0.000999997
15	0xba831249	-0.0009999956
16	0xba831263	-0.0009999987
17	0xba831267	-0.0009999991
18	0xba831260	-0.0009999983
19	0xba830f5f	-0.0009999088
20	0x3a831256	0.0009999971
21	0xba831256	-0.0009999971
22	0xba831256	-0.0009999971
23	0xba831262	-0.0009999985
24	0xba83125d	-0.000999998
25	0xba831264	-0.0009999988
26	0xba831255	-0.000999997
27	0x3a8311d7	0.0009999824
28	0xba831221	-0.000999991
29	0x3a83124d	0.0009999961
30	0x3a831260	0.0009999983
31	0x3a831265	0.0009999989

encoder.0.bn.running_mean f4 [32]
0	0x3d59f07b	0.053207856
1	0xbc98bc07	-0.018644346
2	0xbc119de5	-0.008887743
3	0xbc708ff2	-0.014682757
4	0xbc67f743	-0.014158073
5	0xbcfb6553	-0.030687964
6	0x3d07c455	0.03314622
7	0xbd2cec3e	-0.042217486
8	0xbbb2d957	-0.005458038
9	0x3c02840e	0.007966055
10	0x3cc0c201	0.023530008
11	0xbc8a1853	-0.016857302
12	0x3b5f0460	0.0034029707
13	0x3d2dbb9c	0.042415246
14	0x3c970c74	0.018438555
15	0x3d09d428	0.033649594
16	0xbce9fbff	-0.028562544
17	0xbc969a7b	-0.018384209
18	0xbcbf34fe	-0.023340698
19	0x3c0b8cff	0.008517503
20	0x3c91acbd	0.017782563
21	0x3cb73deb	0.022368392
22	0xbbbc7ed1	-0.0057524224
23	0xbcfb3d08	-0.03066875
24	0x3cc75a84	0.024335153
25	0x3b598992	0.003319357
26	0xbc14d033	-0.009082842
27	0x3b2c42bf	0.00262849
28	0x3cc8451d	0.024447018
29	0xba6d4e07	-0.00090524595
30	0x3c81b4cc	0.015833281
31	0x3b3df2ef	0.002898391

encoder.0.bn.running_var f4 [32]
0	0x3f694b64	0.9113066
1	0x3f66a510	0.90095615
2	0x3f66bb1e	0.9012927
3	0x3f667995	0.9002927
4	0x3f667209	0.90017754
5	0x3f66badf	0.9012889
6	0x3f672d75	0.90303737
7	0x3f66fffe	0.90234363
8	0x3f668cd6	0.9005865
9	0x3f669d06	0.9008335
10	0x3f667dfa	0.90035975
11	0x3f671e3e	0.9028052
12	0x3f66891c	0.9005296
13	0x3f684d6c	0.90743136
14	0x3f6734a7	0.90314716
15	0x3f671f94	0.9028256
16	0x3f67b6a7	0.9051308
17	0x3f679116	0.9045576
18	0x3f66aa3c	0.9010351
19	0x3f66a264	0.9009154
20	0x3f669c98	0.90082693
21	0x3f669e29	0.90085083
22	0x3f668abc	0.9005544
23	0x3f67eec0	0.9059868
24	0x3f66ec54	0.9020436
25	0x3f6672c8	0.9001889
26	0x3f66b1df	0.9011516
27	0x3f66b54a	0.90120375
28	0x3f68529b	0.90751046
29	0x3f66cbc7	0.9015469
30	0x3f667081	0.9001542
31	0x3f668b37	0.90056175

encoder.1.conv.weight f4 [64, 32, 3, 3]
0	0xbc505b5b	-0.012717093
1	0xbc638d7a	-0.013888711
2	0xbc48039f	-0.012207895
3	0x3d3046ec	0.043036386
4	0x3caa2795	0.020770827
5	0x3c37f1c1	0.011227072
6	0xbce161c9	-0.027512448
7	0x3d6bae10	0.057539046
8	0xbd518f32	-0.051161952
9	0xbd74e701	-0.059790615
10	0x3d5b35f8	0.053518265
11	0x3d680744	0.056647554
12	0xbcaf8064	-0.021423526
13	0xbbacc4aa	-0.0052724676
14	0xbd6b492b	-0.057442825
15	0x3d631aae	0.055445366
16	0xbd21c3e3	-0.039493453
17	0x3cf80ca8	0.030279472
18	0x3d2f8c78	0.04285857
19	0x3d617208	0.05504039
20	0x3d54f282	0.051989086
21	0xb9cce47c	-0.00039080146
22	0xbad44a23	-0.0016196411
23	0xbd55a85c	-0.052162513
24	0x3cd36b2d	0.025807941
25	0x3d6cb900	0.057793617
26	0x3d4d78b8	0.050163954
27	0xbd2c96d1	-0.042136017
28	0x3bf4ee8d	0.0074747265
29	0xbd573c7f	-0.052547928
30	0xbcd1f367	-0.025628759
31	0xbcd452dd	-0.025918419
32	0x3d13383e	0.03594231
33	0x3c96ab03	0.018392092
34	0x3b29033a	0.0025789277
35	0xbd6b818a	-0.057496585
36	0x3d611747	0.05495384
37	0xbd473f1c	-0.04864417
38	0x3cc29baf	0.023755876
39	0xbd138191	-0.036012236
40	0x3d10801b	0.03527842
41	0x3d28793e	0.04113125
42	0x3ccd1e78	0.025038943
43	0x3cefa0b6	0.029251438
44	0x3d67f77c	0.056632504
45	0xbd1ee899	-0.03879604
46	0xbcf02b0e	-0.029317405
47	0xbd0c661f	-0.034277078
48	0x3d0d7726	0.034537457
49	0xbb621514	-0.0034497427
50	0xbb01f732	-0.0019831178
51	0x3ca23e6c	0.019805156
52	0x3d67fe62	0.056639083
53	0xbc4ce938	-0.012506776
54	0x3d1b698a	0.037942447
55	0xbb2f76ca	-0.0026773685
56	0x3d3da846	0.046303056
57	0xbd0a8ee6	-0.033827685
58	0x3c01eb42	0.007929625
59	0xbb049d3a	-0.0020235316
60	0x3d6c619e	0.057710283
61	0xbd317df3	-0.043333005
62	0x3bd29423	0.0064263507
63	0xbd02c3d1	-0.031925026
64	0xbc2f9605	-0.01071692
65	0x3d3f5418	0.046711057
66	0x3ce03337	0.027368171
67	0x3d51da1e	0.051233403
68	0xbba6eb32	-0.0050939554
69	0xbd110f0a	-0.035414733
70	0x3d0e11ce	0.03468495
71	0x3aa981b9	0.0012932337
72	0x3b87782f	0.0041342
73	0x3d2d8930	0.04236716
74	0x3cc1f85c	0.023677997
75	0x3c8b99cc	0.01704111
76	0x3d662dc4	0.05619599
77	0xbcc3934a	-0.023873944
78	0x3d3253ce	0.043536954
79	0x3d3aa4dc	0.04556738
80	0xbd52bf4d	-0.05145197
81	0x3d358542	0.044316538
82	0x3d45feae	0.048338585
83	0x3c9551e8	0.018227533
84	0x3cfd63f4	0.03093145
85	0xbd47f18f	-0.048814353
86	0x3cf16fd0	0.029472262
87	0x3d2c3f5e	0.04205262
88	0xbc80f146	-0.015740048
89	0x3d309b0e	0.04311662
90	0x3b28cdf6	0.0025757528
91	0x3cf2dfb5	0.029647687
92	0x3c4c15d1	0.012456373
93	0xbd238ce9	-0.039929304
94	0xbbde01fe	-0.00677514
95	0xbd19fdcf	-0.037595566
96	0x3d15d846	0.036583208
97	0xbd56d704	-0.05245115
98	0x3d375c56	0.044765793
99	0xbb68b755	-0.0035509665
100	0x3d5b17aa	0.053489365
101	0xbd253794	-0.040336207
102	0xbd4d0064	-0.0500492
103	0x3d04b510	0.032399237
104	0x3cd4d2a8	0.025979355
105	0xb881f680	-6.1971135e-05
106	0xbd5fabf6	-0.054607354
107	0x3c51396f	0.012770041
108	0x3cacd1ed	0.021096194
109	0xbbcb741e	-0.0062089106
110	0xbc98ebac	-0.018667065
111	0x392a1b58	0.0001622265
112	0xbc01a2bf	-0.007912337
113	0x3c63be19	0.013900303
114	0x3d41c626	0.04730811
115	0x3d1c67c0	0.03818488
116	0x3cdbbc2c	0.026823126
117	0x3d4b5424	0.04964079
118	0x3cafcf51	0.02146116
119	0x3ce39db5	0.027785162
120	0x3d6f8abe	0.058481924
121	0xbd1e7604	-0.038686767
122	0x3c241f49	0.010017225
123	0xbd2ced91	-0.04221875
124	0xbcac7f97	-0.021056933
125	0xbcab186d	-0.02088567
126	0x3d740e7c	0.059584126
127	0x3c941315	0.018075505
128	0x3d1e9638	0.03871748
129	0xbced58f1	-0.028973075
130	0x3d314660	0.043280005
131	0xbd4adbd1	-0.04952604
132	0x3adc8a4b	0.0016825882
133	0x3cd685e9	0.0261869
134	0x3d06137a	0.032733418
135	0xbd2a48e5	-0.041573424
136	0xbd33ea2c	-0.043924496
137	0xbcd1d53f	-0.025614379
138	0x3d66bba0	0.056331277
139	0x3d71143e	0.058857195
140	0xbccf95c3	-0.025339967
141	0xbd687193	-0.056748938
142	0x3d00bfa4	0.031432763
143	0x3d3e104a	0.046402253
144	0xbc865aeb	-0.016400775
145	0xbd3983f9	-0.045291875
146	0x3d24c5ac	0.040227577
147	0x3d6ba8c0	0.05753398
148	0x3c65424f	0.01399286
149	0x3d65fc1e	0.05614864
150	0xba62d610	-0.00086531136
151	0x3accfa18	0.0015638499
152	0xbd6ce20a	-0.057832755
153	0x3cb65648	0.022257939
154	0x3b80aeae	0.0039270734
155	0x3d532af0	0.05155462
156	0x3cff7403	0.031183248
157	0xbc835293	-0.016030585
158	0x3d56aa8e	0.052408747
159	0xbd304ffd	-0.043045033
160	0xbc9c4ef0	-0.01908061
161	0xbcb29020	-0.02179724
162	0x3c75edbf	0.015010296
163	0xbd21e7a4	-0.03952755
164	0x3cf6d060	0.030128658
165	0xbc7bf9cd	-0.015379381
166	0x3d5ecd0c	0.054394767
167	0xbd5b8f71	-0.053603593
168	0xbc171629	-0.009221592
169	0xbbf3d6a2	-0.0074413577
170	0x3b81c58e	0.003960318
171	0xbd15107f	-0.036392685
172	0xbd67ca62	-0.05658949
173	0x3d2a00ec	0.041504785
174	0x3c37f752	0.011228399
175	0xbd18a433	-0.037265968
176	0xba82b835	-0.0009973111
177	0x3ca6d571	0.020365449
178	0xbd03cfd5	-0.032180626
179	0xbcce1971	-0.025158616
180	0x3c4b0559	0.012391412
181	0x3d5ec0e6	0.05438318
182	0x3d4c132e	0.04982298
183	0x3d04230e	0.032259993
184	0x3c7957e1	0.015218706
185	0xbce4bb3e	-0.027921315
186	0xbcd1a059	-0.025589155
187	0x3d5f3a3e	0.054498903
188	0xbd69293f	-0.0569241
189	0x3cc936a1	0.024562182
190	0x3d0c3870	0.03423351
191	0x3d075336	0.03303834
192	0xbd0ef4ae	-0.034901313
193	0x3cd17eed	0.025573218
194	0x3d694b32	0.056956477
195	0xbca3ea15	-0.02000908
196	0x3d6c7a9e	0.057734124
197	0x3cf6f664	0.030146785
198	0xbd38ecb2	-0.045147605
199	0xbbf7a788	-0.007557813
200	0x3d4e5c3e	0.050380938
201	0xbc970a20	-0.018437445
202	0x3d6100f8	0.054932564
203	0x3d1500be	0.03637766
204	0xbc7cd26b	-0.015431027
205	0x3c8151bc	0.015786044
206	0x3c305741	0.01076299
207	0x3d19ae8c	0.037519976
208	0x3c8ce8ec	0.01720091
209	0x3c56e467	0.013115979
210	0x3d1778d0	0.03698045
211	0xbd2c516f	-0.04206985
212	0xbd28e837	-0.041237082
213	0xbd3b0256	-0.045656525
214	0xbd2c1eb7	-0.04202148
215	0x3cb019fc	0.021496765
216	0xbcbb90e3	-0.022896236
217	0xb963baa8	-0.00021717942
218	0xbcc26577	-0.023730023
219	0x3bcf75c3	0.006331177
220	0x3c5301b1	0.012878821
221	0x3d42b2fc	0.047533974
222	0x3c8ef0a1	0.017448725
223	0x3bf626b3	0.0075119375
224	0x3cabb755	0.020961443
225	0xbce6cd96	-0.028174203
226	0xbc4499f7	-0.011999599
227	0x3d4d648c	0.050144717
228	0xbd34b4df	-0.044117805
229	0xbcbe61c5	-0.02323998
230	0xbc577947	-0.013151473
231	0xbd149e58	-0.03628382
232	0xbd5e34b3	-0.054249477
233	0xbd318fdb	-0.043350082
234	0xbcb10af9	-0.021611677
235	0x3cc8975b	0.024486234
236	0x3cabd8e3	0.020977443
237	0xbd24335d	-0.040088046
238	0x3ce4fc17	0.027952237
239	0x3cc8769b	0.024470618
240	0x39d6d460	0.00040975492
241	0x3cf2c240	0.029633641
242	0x3c83f61c	0.016108565
243	0x3d42d6e4	0.047568217
244	0xbd416984	-0.04721977
245	0xbb6248fb	-0.0034528363
246	0xbcaced9f	-0.0211094
247	0xbd4ba5d7	-0.049718704
248	0x3c8a8ce1	0.01691288
249	0x3a96408b	0.0011463327
250	0xbd100d97	-0.03516921
251	0x3b37bc36	0.0028035766
252	0xbb19692a	-0.002340863
253	0x3d215b4e	0.039393716
254	0xbd5507b3	-0.052009296
255	0xbd3efd84	-0.04662849

encoder.1.conv.bias f4 [64]
0	0xbcd44e1e	-0.025916155
1	0x3d4f6f9f	0.05064356
2	0xbc904b7e	-0.017614122
3	0x3c922a83	0.017842537
4	0xbd11cc4b	-0.03559522
5	0x3ccf511d	0.025307233
6	0xbd1cf846	-0.03832271
7	0xbd48f196	-0.04905852
8	0x3d3238c3	0.043511163
9	0x3c5f41d4	0.0136265345
10	0xbc70c5f5	-0.014695634
11	0x3c21c2e6	0.009873128
12	0x3cd29f71	0.025710793
13	0x3d17e177	0.037080254
14	0x3c02e6d0	0.0079896
15	0xbc419517	-0.011815331
16	0x3d68e6cf	0.05686074
17	0xbc932fd4	-0.017967142
18	0xbcdfdb24	-0.027326174
19	0xbc8b9cba	-0.017042506
20	0xbc10d792	-0.0088404585
21	0xbd456b62	-0.04819811
22	0xbc67b1b2	-0.014141487
23	0x3d3767e3	0.04477681
24	0xbc1c0e58	-0.009524904
25	0x3ccb061b	0.024783185
26	0xbd418c79	-0.047253106
27	0xbd4ced30	-0.050030887
28	0x3d41bc68	0.04729882
29	0xbd640961	-0.055673007
30	0x3b789de4	0.0037935907
31	0xbd3eec44	-0.04661204
32	0xbb12c445	-0.0022394818
33	0x3d00e2e2	0.031466372
34	0x3d3e148b	0.04640631
35	0xbd47d405	-0.048786182
36	0x3ce93cac	0.028471313
37	0xbcc07374	-0.023492552
38	0x3c17bb42	0.009260954
39	0x3cb40d40	0.021978974
40	0xbc08d07d	-0.008350489
41	0xbc074df9	-0.008258336
42	0x3d58f834	0.05297108
43	0x3d63c780	0.05561018
44	0xbceac5b0	-0.028658718
45	0xbd41d245	-0.04731967
46	0x3d1fdab2	0.039026923
47	0x3d4ab905	0.049492855
48	0x3c532e8b	0.012889515
49	0xbc12d4c7	-0.008961863
50	0x3d40ce2b	0.047071617
51	0xbc875d7a	-0.016524065
52	0xbcd72271	-0.02626154
53	0x3d311edf	0.04324233
54	0x3ce6929b	0.028146079
55	0x3c7c398c	0.01539458
56	0x3cb1aa80	0.021687746
57	0x3cfa71e5	0.030571887
58	0x3d09c0a0	0.033630967
59	0x3d33d20d	0.043901492
60	0xbd74f305	-0.059802074
61	0x3c9d4e75	0.01920245
62	0x3d1613cb	0.03663997
63	0x3d6d1e18	0.057890028

encoder.1.bn.weight f4 [64]
0	0x3f7fbe77	0.999
1	0x3f7fbe77	0.999
2	0x3f8020c5	1.001
3	0x3f7fbe77	0.999
4	0x3f7fbe77	0.999
5	0x3f7fbe77	0.999
6	0x3f8020c5	1.001
7	0x3f7fbe77	0.999
8	0x3f8020c4	1.0009999
9	0x3f7fbe77	0.999
10	0x3f7fbe77	0.999
11	0x3f8020c5	1.001
12	0x3f8020c5	1.001
13	0x3f7fbe77	0.999
14	0x3f7fbe77	0.999
15	0x3f8020c5	1.001
16	0x3f7fbe77	0.999
17	0x3f7fbe77	0.999
18	0x3f8020c5	1.001
19	0x3f7fbe77	0.999
20	0x3f8020c5	1.001
21	0x3f7fbe77	0.999
22	0x3f8020c5	1.001
23	0x3f8020c5	1.001
24	0x3f7fbe77	0.999
25	0x3f8020c5	1.001
26	0x3f7fbe77	0.999
27	0x3f7fbe77	0.999
28	0x3f7fbe77	0.999
29	0x3f7fbe77	0.999
30	0x3f7fbe77	0.999
31	0x3f7fbe77	0.999
32	0x3f8020c5	1.001
33	0x3f7fbe78	0.9990001
34	0x3f7fbe77	0.999
35	0x3f8020c5	1.001
36	0x3f8020c5	1.001
37	0x3f7fbe77	0.999
38	0x3f8020c5	1.001
39	0x3f8020c5	1.001
40	0x3f8020c5	1.001
41	0x3f7fbe77	0.999
42	0x3f7fbe77	0.999
43	0x3f7fbe77	0.999
44	0x3f7fbe77	0.999
45	0x3f7fbe77	0.999
46	0x3f8020c5	1.001
47	0x3f8020c5	1.001
48	0x3f8020c5	1.001
49	0x3f8020c5	1.001
50	0x3f7fbe77	0.999
51	0x3f7fbe77	0.999
52	0x3f7fbe77	0.999
53	0x3f8020c4	1.0009999
54	0x3f8020c5	1.001
55	0x3f7fbe77	0.999
56	0x3f8020c5	1.001
57	0x3f8020c4	1.0009999
58	0x3f8020c5	1.001
59	0x3f7fbe77	0.999
60	0x3f8020c5	1.001
61	0x3f8020c5	1.001
62	0x3f8020c5	1.001
63	0x3f8020c5	1.001

encoder.1.bn.bias f4 [64]
0	0x3a83124f	0.0009999963
1	0xba83122a	-0.000999992
2	0x3a83125a	0.0009999976
3	0xba83125a	-0.0009999976
4	0xba831260	-0.0009999983
5	0xba831262	-0.0009999985
6	0x3a83123b	0.000999994
7	0xba83124d	-0.0009999961
8	0x3a830e3e	0.0009998751
9	0x3a8311f8	0.0009999862
10	0x3a83125c	0.0009999978
11	0xba831138	-0.0009999638
12	0x3a831262	0.0009999985
13	0x3a8311ca	0.0009999808
14	0xba83120e	-0.0009999888
15	0xba831213	-0.0009999893
16	0x3a831258	0.0009999974
17	0xba831228	-0.0009999918
18	0x3a831250	0.0009999964
19	0xba83125e	-0.0009999981
20	0x3a831247	0.0009999954
21	0xba831246	-0.0009999953
22	0x3a83123c	0.0009999941
23	0x3a831252	0.0009999967
24	0xba83125b	-0.0009999977
25	0x3a8311be	0.0009999794
26	0xba831256	-0.0009999971
27	0x3a831231	0.0009999928
28	0xba83124d	-0.0009999961
29	0xba831231	-0.0009999928
30	0xba831263	-0.0009999987
31	0xba831248	-0.0009999955
32	0x3a831250	0.0009999964
33	0xba830f3f	-0.000999905
34	0xba831261	-0.0009999984
35	0x3a831260	0.0009999983
36	0x3a831259	0.0009999975
37	0xba83124c	-0.000999996
38	0x3a830d18	0.0009998409
39	0xba8311cd	-0.0009999812
40	0xba83110c	-0.0009999587
41	0xba831265	-0.0009999989
42	0xba83124d	-0.0009999961
43	0xba831260	-0.0009999983
44	0xba83122a	-0.000999992
45	0xba8311b8	-0.0009999787
46	0x3a831247	0.0009999954
47	0x3a83124b	0.0009999959
48	0x3a831254	0.0009999969
49	0x3a831265	0.0009999989
50	0x3a831126	0.0009999617
51	0xba831254	-0.0009999969
52	0xba83125e	-0.0009999981
53	0x3a831258	0.0009999974
54	0x3a83123b	0.000999994
55	0xba831265	-0.0009999989
56	0x3a83125a	0.0009999976
57	0x3a831256	0.0009999971
58	0x3a831260	0.0009999983
59	0xba83123c	-0.0009999941
60	0x3a831264	0.0009999988
61	0x3a831251	0.0009999966
62	0x3a831250	0.0009999964
63	0x3a831262	0.0009999985

encoder.1.bn.running_mean f4 [64]
0	0x3d3acf62	0.045607932
1	0x3d1707c8	0.036872655
2	0xbc80dd37	-0.015730483
3	0x3c45e939	0.01207953
4	0x3c69a9b7	0.014261655
5	0x3c5ec8e5	0.013597702
6	0xbdb29018	-0.0871889
7	0x3c0cbcfb	0.008589978
8	0xbd132204	-0.03592111
9	0x3d53f67d	0.05174874
10	0xbc3a08d2	-0.011354642
11	0xbd2a0144	-0.041505113
12	0x3d15d3b4	0.03657885
13	0xbc2eb94e	-0.010664297
14	0x3cb478e8	0.022030309
15	0xbc49a499	-0.01230731
16	0x3d9b5512	0.07584585
17	0x3d82224f	0.063542
18	0x3c8eff78	0.017455801
19	0x3cb5d3f5	0.022195796
20	0x3ce2665a	0.027636696
21	0xbca0c60b	-0.019625684
22	0x3ca2d30a	0.019876022
23	0x3c55d3ea	0.0130510125
24	0x3cade8d8	0.021229193
25	0xbd1c2ecb	-0.038130563
26	0xbce69a15	-0.028149644
27	0xbcbb75c9	-0.022883313
28	0x3aa384ea	0.0012475525
29	0xbd78248a	-0.06058172
30	0x3c154693	0.0091110645
31	0x3b6e5d18	0.0036371406
32	0xbc2b6633	-0.010461378
33	0x3c139d80	0.009009719
34	0x3c90f5c7	0.01769532
35	0xbcaa4dfd	-0.02078914
36	0x3bbc46d3	0.0057457476
37	0x3c7b059a	0.01532116
38	0x3d29b97e	0.041436665
39	0xbca8ee8d	-0.020621562
40	0xbc882a21	-0.016621651
41	0xbd14517a	-0.036210515
42	0xbd19ab9f	-0.037517186
43	0xbc84d997	-0.016217036
44	0x3d1140c5	0.03546216
45	0xbb52a34f	-0.0032140797
46	0x3c99c549	0.01877083
47	0xbd01028b	-0.031496566
48	0x3d61c315	0.055117685
49	0x3cba6655	0.022753874
50	0xbc833915	-0.01601843
51	0xbca708e4	-0.020389982
52	0x3c267dd6	0.010161838
53	0x3a072247	0.0005154949
54	0xb99f2697	-0.00030355595
55	0xbbef61f5	-0.0073053786
56	0x3cbd4ae1	0.023106994
57	0xbd564c32	-0.05231876
58	0x3c0bb6ed	0.0085275
59	0x3d926083	0.071473144
60	0x3b330054	0.0027313428
61	0x3c8bf81a	0.017086077
62	0x3a98bc7d	0.0011652854
63	0xbc3916c8	-0.011296935

encoder.1.bn.running_var f4 [64]
0	0x3f6896bf	0.9085502
1	0x3f690ec0	0.9103813
2	0x3f6c3d7e	0.9228133
3	0x3f67b4f6	0.905105
4	0x3f69450e	0.91120994
5	0x3f69e3be	0.9136313
6	0x3f6990dc	0.9123666
7	0x3f6853b2	0.9075271
8	0x3f6d3f0f	0.92674345
9	0x3f69f199	0.91384274
10	0x3f691365	0.9104522
11	0x3f69714b	0.91188496
12	0x3f690a86	0.9103168
13	0x3f676694	0.90390897
14	0x3f67b91d	0.90516835
15	0x3f69dbbc	0.91350913
16	0x3f691448	0.9104657
17	0x3f688466	0.90827024
18	0x3f68f864	0.91004014
19	0x3f6c7325	0.92363197
20	0x3f699509	0.91243035
21	0x3f67989f	0.90467256
22	0x3f679c3d	0.90472776
23	0x3f67f21f	0.9060382
24	0x3f68509f	0.9074802
25	0x3f67ece8	0.90595865
26	0x3f686623	0.9078085
27	0x3f67750e	0.90412986
28	0x3f68b7ce	0.90905464
29	0x3f6bb0ad	0.9206646
30	0x3f678950	0.904439
31	0x3f69ba07	0.9129948
32	0x3f67e6c3	0.9058649
33	0x3f69e859	0.9137016
34	0x3f68982f	0.90857214
35	0x3f6a8caf	0.91620916
36	0x3f67e4fb	0.9058377
37	0x3f6ca480	0.9243851
38	0x3f691172	0.91042244
39	0x3f6de77d	0.9293135
40	0x3f681aae	0.9066571
41	0x3f68257a	0.90682185
42	0x3f6c9cf8	0.92427015
43	0x3f68da41	0.9095803
44	0x3f68fc2e	0.91009796
45	0x3f674ba7	0.9034981
46	0x3f678ac3	0.9044611
47	0x3f6dbc6a	0.9286562
48	0x3f68cc82	0.90937054
49	0x3f6f37d2	0.9344455
50	0x3f6c8870	0.9239569
51	0x3f693ca9	0.91108185
52	0x3f6eecd8	0.93330145
53	0x3f6cd69b	0.9251496
54	0x3f68a90f	0.9088296
55	0x3f6e509c	0.9309175
56	0x3f677927	0.9041924
57	0x3f6954c2	0.91144955
58	0x3f67490c	0.90345836
59	0x3f6b529b	0.9192292
60	0x3f68ad56	0.9088949
61	0x3f68a9e5	0.9088424
62	0x3f6870a1	0.9079686
63	0x3f69ceaa	0.9133097

encoder.2.conv.weight f4 [128, 64, 3, 3]
0	0xbbdbb18c	-0.006704515
1	0x3d1efcaf	0.038815197
2	0xbce98812	-0.028507266
3	0xbd18b52a	-0.037282147
4	0x3cd6e774	0.026233412
5	0x3cbda9ac	0.023152195
6	0xba9e309a	-0.0012068928
7	0xbbd266c8	-0.006420944
8	0xbbf33196	-0.0074216826
9	0xbc852f95	-0.01625804
10	0x3c8eea4d	0.017445708
11	0x3c1e074d	0.009645295
12	0xbc9e64ab	-0.019335112
13	0xbbc8acce	-0.0061241155
14	0x3c139730	0.009008214
15	0x3cbcef6f	0.02306339
16	0x3ae569f4	0.001750289
17	0x3cea12b2	0.028573368
18	0x3cc51067	0.024055673
19	0xbd041197	-0.032243337
20	0x3cc5e9b0	0.024159282
21	0x3bc9d7ba	0.00615975
22	0x3c1e6683	0.009667995
23	0x3cb0495d	0.021519357
24	0x3c06b868	0.008222677
25	0x3cd59cee	0.026075806
26	0xbcdd922b	-0.027047237
27	0xbd072c19	-0.03300104
28	0xbb43f6ef	-0.0029901823
29	0xbc056e07	-0.008143908
30	0xbcad1fc5	-0.021133313
31	0x3cb7b96f	0.022427289
32	0xbc8f6e61	-0.017508687
33	0xbbca069d	-0.006165339
34	0x3d116d77	0.035504784
35	0xbcca964a	-0.024729867
36	0xbc9c666f	-0.019091813
37	0x3d265e65	0.040617365
38	0xbcea76f1	-0.028621169
39	0xbd09517a	-0.033524968
40	0x3c74aa9a	0.014933253
41	0xbcddf3ab	-0.027093729
42	0x3cc71872	0.024303649
43	0xbd26699d	-0.040628064
44	0x3c8af797	0.016963763
45	0x3c291da8	0.010322012
46	0xbc9a96ad	-0.018870676
47	0xbcbac9b4	-0.022801258
48	0xbd1ab829	-0.037773285
49	0xbce0c0fc	-0.027435772
50	0x3ab05caa	0.001345535
51	0x3be55d30	0.006999634
52	0xbcb37e45	-0.021910796
53	0x3cb3a443	0.021928912
54	0xbc56214b	-0.013069461
55	0x3c8399c0	0.016064525
56	0x3cfa1f4c	0.030532502
57	0x3d20daf6	0.039271317
58	0x3c662854	0.014047701
59	0x3b459781	0.0030150118
60	0xbd21b53f	-0.03947949
61	0xbc00030b	-0.0078132255
62	0xbcb0de0d	-0.021590257
63	0xbd14c39c	-0.03631936
64	0xbd0c8f88	-0.03431657
65	0xbb7f1a70	-0.003892567
66	0x3c78daf1	0.015188918
67	0x3cb4cedb	0.022071293
68	0xbcb62a3b	-0.022236934
69	0xbc0b172e	-0.008489413
70	0x3c55e44c	0.0130549185
71	0x3d014684	0.03156139
72	0xbd02ab30	-0.03190154
73	0x3ca376cb	0.019954106
74	0xbb971958	-0.0046111755
75	0x3cd16d60	0.02556485
76	0x3c7903fe	0.015198706
77	0x3c8361e4	0.016037889
78	0xbc3d3db9	-0.01155036
79	0xbccabac7	-0.024747266
80	0x3a195422	0.00058490236
81	0xbd03a38b	-0.03213839
82	0x3bdf2b2e	0.0068105673
83	0xbd08ef19	-0.033431146
84	0x3c944308	0.01809837
85	0x3cb134bc	0.021631591
86	0xbc9fe399	-0.019517707
87	0x3cd31741	0.025767924
88	0x3d212299	0.039339636
89	0xbd2ec13a	-0.042664744
90	0x3c7e1735	0.015508463
91	0xbd0247fe	-0.03180694
92	0xba4130a6	-0.0007369615
93	0x3c56b88a	0.013105521
94	0x3d241e28	0.04006782
95	0xbc60aedc	-0.013713565
96	0x3cf7febf	0.03027284
97	0x3d26e8f4	0.040749505
98	0xbcd858cd	-0.026409531
99	0x3cddf205	0.027092943
100	0x3bf706ea	0.007538666
101	0xbcba3023	-0.022728032
102	0xbc5b5d98	-0.013389014
103	0xbb60cc22	-0.003430136
104	0xbca149be	-0.019688483
105	0x3cdb830a	0.026795883
106	0xbccec408	-0.02523996
107	0x3c71e341	0.014763654
108	0x3cfc36b3	0.030787801
109	0x3c36aedd	0.011150089
110	0xbcd248e1	-0.025669517
111	0x3d152c1e	0.036419027
112	0x3d1a7282	0.03770686
113	0xbd019f26	-0.031645916
114	0x3ce7a56e	0.028277125
115	0x3cac0224	0.020997114
116	0x3d132ef0	0.035933435
117	0x3c641589	0.01392115
118	0x3cba4b17	0.022740884
119	0x3d184bb8	0.037181586
120	0xbd23b79a	-0.039970018
121	0x3b83ac44	0.0040183384
122	0xbb340440	-0.0027468354
123	0x3cf2217d	0.029556984
124	0x3cf6f904	0.030148037
125	0x3c4a7f04	0.012359384
126	0xbd00c53e	-0.031438105
127	0xbcc851a2	-0.024452988
128	0xbd18d6c2	-0.037314184
129	0x3c54f3b9	0.012997561
130	0x3d2506e7	0.040289786
131	0x3cfc764d	0.030818129
132	0x3c1d8e46	0.00961644
133	0xbc92976f	-0.017894475
134	0x3b6dbeea	0.0036277124
135	0xbca32c00	-0.019918442
136	0xbce37d29	-0.027769642
137	0xbcdffa8e	-0.027341153
138	0x3d01783f	0.031608816
139	0xbccff603	-0.025385862
140	0x3c540f36	0.01294308
141	0x3c6cddb6	0.014457157
142	0xbd2b2582	-0.041783817
143	0x3d055513	0.032551836
144	0xbd05fe32	-0.032713123
145	0xbd238e15	-0.03993042
146	0xbc629358	-0.013829075
147	0xbc110bd5	-0.008852919
148	0xbc1d49f2	-0.0096001495
149	0x3caa06c9	0.020755189
150	0x3cb2fdd9	0.02184956
151	0xbc4a615c	-0.012352314
152	0xbc1b8a92	-0.009493487
153	0x3d1bd96b	0.038049143
154	0x3ca9b840	0.02071774
155	0xbd1bd12e	-0.038041286
156	0x3bca4c58	0.0061736517
157	0x3c30c5b8	0.010789327
158	0x3ca8baf4	0.020596959
159	0xbc84e72a	-0.016223509
160	0xbcdeddb3	-0.027205324
161	0xbc83ad9d	-0.016073996
162	0xbc58b1d0	-0.013225988
163	0xbd0a0eb7	-0.03370544
164	0xbb22dfa8	-0.0024852548
165	0x3cd12278	0.025529131
166	0x3d1ba5b1	0.037999813
167	0xbb580158	-0.0032959785
168	0xbbef6a36	-0.0073063625
169	0x3c5e8db8	0.013583593
170	0xbced7a8a	-0.028989095
171	0x3c0f61da	0.008751357
172	0xbb7f8b29	-0.0038992858
173	0xbc4ff130	-0.012691781
174	0xbd08f12e	-0.033433132
175	0x3b6a24ce	0.0035727504
176	0x3ce46f3b	0.02788507
177	0x3ceb7d3f	0.028746245
178	0x3c926b3d	0.0178734
179	0x3cd065de	0.025439199
180	0xbbddbdb3	-0.0067669987
181	0xbb8291f9	-0.0039846865
182	0xbc8e7e5a	-0.017394233
183	0xbba418a1	-0.005007819
184	0xbd29eada	-0.041483738
185	0xbc0f5f4c	-0.008750748
186	0xbce621b4	-0.028092243
187	0xbcf9ce27	-0.030493809
188	0x3cef57fd	0.02921676
189	0x3c728293	0.014801639
190	0xbd13c51a	-0.036076643
191	0xbd25b811	-0.040458743
192	0xbd10e8dd	-0.035378326
193	0xbc0636ac	-0.008191746
194	0xbcfe4819	-0.031040238
195	0xbca67c0d	-0.020322824
196	0xbc3016b6	-0.010747602
197	0x3d14eb30	0.036357105
198	0x3c867e2b	0.016417583
199	0xbcd51161	-0.026009263
200	0x3d09dd02	0.033658035
201	0xbca0292a	-0.019550879
202	0x3c30b09c	0.010784294
203	0x3caec47d	0.021333927
204	0xbd017699	-0.031607244
205	0xba2a76b4	-0.00065026735
206	0xbc5408b7	-0.012941531
207	0x3c627fb9	0.013824397
208	0x3cb89ada	0.022534776
209	0x3d1794ef	0.03700727
210	0xbcdcad01	-0.026937963
211	0x3c462851	0.012094573
212	0xbcda0b78	-0.026616797
213	0xbc86310f	-0.016380815
214	0x3d2affa3	0.0417477
215	0xbc93ad29	-0.018026905
216	0xbcf766f2	-0.030200455
217	0x3d1e7c1e	0.038692586
218	0xbcd1157b	-0.025522938
219	0x3d20a0fe	0.039216034
220	0xbd0ec787	-0.034858253
221	0x3d1a209a	0.037628748
222	0xba26edc2	-0.0006367826
223	0xbc56ad41	-0.01310283
224	0x3c48fcd6	0.012267312
225	0xbd1c0fa1	-0.038100842
226	0xbd1c44e5	-0.03815164
227	0xbc927a39	-0.017880546
228	0xbcab086e	-0.020878043
229	0xbccff0e4	-0.02538342
230	0x3cb6c200	0.022309303
231	0x3d0249b6	0.031808577
232	0xbcd2fef1	-0.025756331
233	0xbd27b63a	-0.04094527
234	0xbce98e8e	-0.028510358
235	0x3c9504ac	0.018190704
236	0xbc2bf49a	-0.010495329
237	0xbba17f3c	-0.0049284976
238	0x3b90ca41	0.004418642
239	0x3cd58fbc	0.026069514
240	0xbca87efc	-0.020568363
241	0x3ce0eb59	0.027455973
242	0x3cf831f4	0.030297257
243	0x3c4fcd20	0.012683183
244	0x3cb4bf62	0.022063915
245	0xbd07d5e1	-0.033162955
246	0x3a5c33aa	0.00084000325
247	0xbcf9e483	-0.03050447
248	0x3cb8ed41	0.022574069
249	0x3d061603	0.032735836
250	0x3cde18c1	0.027111413
251	0xbcbf00f4	-0.023315884
252	0x3c97cee2	0.018531267
253	0xbd16a4ac	-0.036778137
254	0xbd1d8693	-0.038458418
255	0xbc9fa696	-0.019488614

encoder.2.conv.bias f4 [128]
0	0x3a58b40a	0.0008266574
1	0x3c6d3e89	0.014480242
2	0xbd2164bc	-0.03940271
3	0xbc7eb6cf	-0.015546515
4	0x3c13beb5	0.009017636
5	0x3d007c85	0.03136875
6	0x3bf46b7b	0.0074591017
7	0xbc75a400	-0.014992714
8	0x3c67d0d0	0.014148906
9	0x3d198fbe	0.0374906
10	0xbbf367fd	-0.007428168
11	0xbc9b1e92	-0.018935475
12	0x3b5afba3	0.0033414147
13	0x3d24c052	0.040222473
14	0xbcb79030	-0.022407621
15	0xbc62df86	-0.013847237
16	0xbc074270	-0.008255586
17	0xbc60a731	-0.013711737
18	0x3d270406	0.04077532
19	0x3c0f3123	0.008739742
20	0xbd06809e	-0.032837503
21	0x3cbc63a1	0.022996726
22	0xbc01a091	-0.007911817
23	0x3d1504ba	0.03638146
24	0x3cf7dd4f	0.030256895
25	0xbce25b40	-0.027631402
26	0xbcd8ccde	-0.026464876
27	0x3c9282ff	0.01788473
28	0x3beef6de	0.0072926125
29	0x3cc7fd40	0.024412751
30	0xbb042c17	-0.002016788
31	0xbcd3b3cb	-0.025842568
32	0xba43dfce	-0.0007472009
33	0xbb70442a	-0.0036661723
34	0x3d21df44	0.039519563
35	0xbcf7e5c5	-0.03026093
36	0x3d18f914	0.037346914
37	0x3ceed796	0.029155534
38	0xbbf8266f	-0.007572941
39	0xbca8f02a	-0.020622332
40	0xbcdc453b	-0.02688848
41	0xbca54580	-0.020174742
42	0x3c9f470f	0.019443063
43	0x3c8460db	0.016159466
44	0xbd1d1152	-0.038346596
45	0xbce910d0	-0.0284504
46	0xbc05a5f7	-0.008157245
47	0xbc358cc7	-0.011080927
48	0x3cb034af	0.021509496
49	0x3ccb537f	0.024820087
50	0x3c912ca9	0.017721491
51	0x3d16d588	0.036824733
52	0x3d2397ba	0.03993962
53	0xbd014e83	-0.031569015
54	0xbc8e4f94	-0.01737193
55	0xbc957355	-0.018243471
56	0x3c8bd358	0.01706855
57	0x3ccc8a5f	0.024968324
58	0x3ce6fd95	0.02819709
59	0x3bbb0967	0.005707908
60	0xbc1fe735	-0.009759714
61	0xbae2f794	-0.0017316216
62	0x3c0195f8	0.0079092905
63	0x3d14ff85	0.036376495
64	0x3cc9cf41	0.02463496
65	0x3c3a1f58	0.011360012
66	0x3d0d5390	0.03450352
67	0xbd175a70	-0.036951482
68	0x3abf5231	0.0014596639
69	0xbbaf8ecc	-0.005357599
70	0x3cf3d7da	0.029766012
71	0xbc8a7b4c	-0.016904496
72	0x3d22dcef	0.03976148
73	0xbb5acf66	-0.003338778
74	0xbcbf0a20	-0.023320258
75	0xbd18c661	-0.037298564
76	0xbbb8bd2d	-0.005637786
77	0xbd0a24e1	-0.033726577
78	0xbaff9dbb	-0.0019501963
79	0x3ba6a058	0.0050850324
80	0xbbe37d47	-0.0069424245
81	0xbcbc3342	-0.02297366
82	0x3d065172	0.032792516
83	0x3c24bea9	0.010055223
84	0x3cf4c938	0.029881105
85	0xbcc3212c	-0.023819529
86	0xbcb65e76	-0.02226184
87	0xbaffb6c9	-0.001950943
88	0xbc0bf9c5	-0.008543436
89	0x3d08e709	0.033423457
90	0xbc12686d	-0.00893603
91	0xbc965a20	-0.018353522
92	0xbbddc8e7	-0.006768334
93	0x3a04637b	0.0005050224
94	0x3c7287b2	0.01480286
95	0xbcf0eb09	-0.029408948
96	0xbb8d7e89	-0.0043180627
97	0xbc3c5354	-0.011494476
98	0xbd171527	-0.036885407
99	0xbc34bcd3	-0.011031347
100	0xbc07a16a	-0.00827823
101	0xbcce2fb3	-0.02516923
102	0xbd19b7a3	-0.037528645
103	0x3c60e5d0	0.013726667
104	0x3cb6cae0	0.022313535
105	0x3d24ea33	0.040262412
106	0xbcb6de1c	-0.022322707
107	0x3cabe8e5	0.020985076
108	0xbcf05423	-0.029336995
109	0xbd1cf84c	-0.03832273
110	0xbc8929a8	-0.016743496
111	0x3d277620	0.040884137
112	0x3d09a5fe	0.033605568
113	0x3d234a45	0.03986575
114	0x3cf3f9b1	0.029782148
115	0x3d02eac6	0.03196218
116	0xbd09cfc9	-0.033645425
117	0xbce19dec	-0.027541123
118	0x3d147134	0.03624077
119	0xbc927066	-0.017875861
120	0xbcde0a2f	-0.027104465
121	0x3c86bd43	0.016447669
122	0x3a9c3a49	0.0011919226
123	0x3d1f046a	0.03882257
124	0xbd0bc9a0	-0.03412783
125	0x3cb3b9d4	0.021939196
126	0xbd1e3f27	-0.038634446
127	0x3c3a7aec	0.011381846

encoder.2.bn.weight f4 [128]
0	0x3f7fbe77	0.999
1	0x3f7fbe77	0.999
2	0x3f8020c4	1.0009999
3	0x3f7fbe77	0.999
4	0x3f7fbe77	0.999
5	0x3f7fbe77	0.999
6	0x3f7fbe77	0.999
7	0x3f7fbe77	0.999
8	0x3f7fbe77	0.999
9	0x3f7fbe77	0.999
10	0x3f7fbe77	0.999
11	0x3f7fbe77	0.999
12	0x3f8020c5	1.001
13	0x3f8020c4	1.0009999
14	0x3f8020c5	1.001
15	0x3f8020c5	1.001
16	0x3f8020c5	1.001
17	0x3f8020c5	1.001
18	0x3f8020c5	1.001
19	0x3f8020c5	1.001
20	0x3f7fbe77	0.999
21	0x3f7fbe78	0.9990001
22	0x3f8020c5	1.001
23	0x3f7fbe77	0.999
24	0x3f7fbe77	0.999
25	0x3f7fbe77	0.999
26	0x3f7fbe77	0.999
27	0x3f8020c5	1.001
28	0x3f7fbe77	0.999
29	0x3f7fbe77	0.999
30	0x3f7fbe77	0.999
31	0x3f7fbe78	0.9990001
32	0x3f7fbe77	0.999
33	0x3f8020c5	1.001
34	0x3f8020c5	1.001
35	0x3f8020c5	1.001
36	0x3f8020c5	1.001
37	0x3f8020c5	1.001
38	0x3f8020c5	1.001
39	0x3f8020c4	1.0009999
40	0x3f8020c5	1.001
41	0x3f7fbe77	0.999
42	0x3f7fbe77	0.999
43	0x3f8020c5	1.001
44	0x3f8020c5	1.001
45	0x3f7fbe77	0.999
46	0x3f7fbe77	0.999
47	0x3f8020c5	1.001
48	0x3f7fbe77	0.999
49	0x3f7fbe78	0.9990001
50	0x3f7fbe77	0.999
51	0x3f7fbe78	0.9990001
52	0x3f8020c5	1.001
53	0x3f8020c5	1.001
54	0x3f8020c5	1.001
55	0x3f7fbe77	0.999
56	0x3f7fbe77	0.999
57	0x3f7fbe77	0.999
58	0x3f7fbe77	0.999
59	0x3f7fbe77	0.999
60	0x3f8020c5	1.001
61	0x3f7fbe77	0.999
62	0x3f7fbe77	0.999
63	0x3f8020c5	1.001
64	0x3f7fbe77	0.999
65	0x3f7fbe77	0.999
66	0x3f7fbe77	0.999
67	0x3f7fbe77	0.999
68	0x3f7fbe77	0.999
69	0x3f8020c4	1.0009999
70	0x3f7fbe77	0.999
71	0x3f8020c5	1.001
72	0x3f7fbe77	0.999
73	0x3f7fbe77	0.999
74	0x3f8020c5	1.001
75	0x3f8020c5	1.001
76	0x3f8020c5	1.001
77	0x3f7fbe77	0.999
78	0x3f7fbe77	0.999
79	0x3f8020c5	1.001
80	0x3f7fbe77	0.999
81	0x3f7fbe77	0.999
82	0x3f801e07	1.0009164
83	0x3f8020c4	1.0009999
84	0x3f7fbe77	0.999
85	0x3f8020c5	1.001
86	0x3f8020c5	1.001
87	0x3f8020c4	1.0009999
88	0x3f7fbe77	0.999
89	0x3f7fbe77	0.999
90	0x3f8020c5	1.001
91	0x3f7fbe77	0.999
92	0x3f8020c4	1.0009999
93	0x3f8020c5	1.001
94	0x3f8020c5	1.001
95	0x3f7fbe78	0.9990001
96	0x3f8020c5	1.001
97	0x3f7fbe77	0.999
98	0x3f8020c5	1.001
99	0x3f7fbe77	0.999
100	0x3f7fbe78	0.9990001
101	0x3f7fbe77	0.999
102	0x3f7fbe7b	0.99900025
103	0x3f8020c5	1.001
104	0x3f8020c5	1.001
105	0x3f8020c5	1.001
106	0x3f8020c5	1.001
107	0x3f7fbe77	0.999
108	0x3f7fbe77	0.999
109	0x3f8020c5	1.001
110	0x3f7fbe77	0.999
111	0x3f7fbe77	0.999
112	0x3f8020c5	1.001
113	0x3f7fbe77	0.999
114	0x3f8020c5	1.001
115	0x3f7fbe77	0.999
116	0x3f8020c4	1.0009999
117	0x3f7fbe78	0.9990001
118	0x3f7fbe77	0.999
119	0x3f8020c5	1.001
120	0x3f8020c5	1.001
121	0x3f8020c5	1.001
122	0x3f7fbe77	0.999
123	0x3f7fbe77	0.999
124	0x3f8020c5	1.001
125	0x3f7fbe77	0.999
126	0x3f7fbe77	0.999
127	0x3f7fbe77	0.999

encoder.2.bn.bias f4 [128]
0	0xba83123b	-0.000999994
1	0x3a831212	0.0009999892
2	0x3a831130	0.0009999629
3	0xba831242	-0.0009999948
4	0x3a831241	0.0009999947
5	0xba831236	-0.0009999934
6	0xba8311df	-0.0009999833
7	0x3a8311d4	0.000999982
8	0xba8311cc	-0.0009999811
9	0xba83125b	-0.0009999977
10	0xba831258	-0.0009999974
11	0xba83124b	-0.0009999959
12	0xba83122b	-0.0009999921
13	0xba831214	-0.0009999895
14	0x3a831243	0.0009999949
15	0x3a831255	0.000999997
16	0xba83116f	-0.0009999702
17	0x3a83104e	0.0009999366
18	0x3a831255	0.000999997
19	0x3a83122d	0.0009999924
20	0xba831226	-0.0009999915
21	0xba83115a	-0.0009999678
22	0x3a83125f	0.0009999982
23	0xba831171	-0.0009999705
24	0xba831222	-0.0009999911
25	0xba831250	-0.0009999964
26	0xba831234	-0.0009999932
27	0xba831183	-0.0009999726
28	0xba831220	-0.0009999909
29	0xba831251	-0.0009999966
30	0xba83119a	-0.0009999753
31	0x3a831244	0.000999995
32	0xba8311df	-0.0009999833
33	0x3a831253	0.0009999968
34	0xba831232	-0.000999993
35	0x3a831239	0.0009999938
36	0x3a831217	0.0009999898
37	0x3a831249	0.0009999956
38	0x3a83123d	0.0009999942
39	0x3a83122a	0.000999992
40	0x3a831242	0.0009999948
41	0xba83124b	-0.0009999959
42	0x3a831118	0.0009999601
43	0x3a831254	0.0009999969
44	0x3a83120d	0.0009999886
45	0xba8310d6	-0.0009999524
46	0xba831259	-0.0009999975
47	0x3a8311d7	0.0009999824
48	0x3a82ec3f	0.000998862
49	0x3a8311fe	0.0009999869
50	0x3a83120f	0.0009999889
51	0x3a8311d7	0.0009999824
52	0x3a83125c	0.0009999978
53	0x3a831262	0.0009999985
54	0x3a831236	0.0009999934
55	0xba83124b	-0.0009999959
56	0xba83121b	-0.0009999903
57	0x3a83113b	0.0009999642
58	0xba83125f	-0.0009999982
59	0xba831253	-0.0009999968
60	0x3a831260	0.0009999983
61	0xba8311e8	-0.0009999843
62	0xba831247	-0.0009999954
63	0x3a83125d	0.000999998
64	0xba8311bb	-0.0009999791
65	0xba83125a	-0.0009999976
66	0x3a831190	0.0009999741
67	0xba831255	-0.000999997
68	0xba831238	-0.0009999936
69	0x3a831233	0.0009999931
70	0xba831244	-0.000999995
71	0x3a831265	0.0009999989
72	0x3a8311c7	0.0009999805
73	0x3a831253	0.0009999968
74	0x3a831257	0.0009999973
75	0xba831148	-0.0009999657
76	0x3a830ecf	0.000999892
77	0xba831117	-0.00099996
78	0xba831257	-0.0009999973
79	0x3a83100a	0.0009999287
80	0x3a8311cc	0.0009999811
81	0x3a8311ec	0.0009999848
82	0xba831197	-0.0009999749
83	0x3a831224	0.0009999913
84	0xba8311ee	-0.000999985
85	0x3a831260	0.0009999983
86	0x3a831255	0.000999997
87	0x3a83118f	0.000999974
88	0xba8311a9	-0.000999977
89	0x3a8311fe	0.0009999869
90	0x3a831241	0.0009999947
91	0xba831022	-0.0009999315
92	0x3a83124c	0.000999996
93	0x3a8311cc	0.0009999811
94	0x3a831240	0.0009999946
95	0xba83122d	-0.0009999924
96	0x3a83123d	0.0009999942
97	0xba83125d	-0.000999998
98	0x3a8311f7	0.0009999861
99	0xba83124b	-0.0009999959
100	0xba8311f5	-0.0009999858
101	0xba831244	-0.000999995
102	0xba831246	-0.0009999953
103	0x3a83124d	0.0009999961
104	0x3a83124b	0.0009999959
105	0x3a831246	0.0009999953
106	0x3a83124e	0.0009999962
107	0xba831243	-0.0009999949
108	0x3a831209	0.0009999882
109	0xba8311ba	-0.000999979
110	0x3a831251	0.0009999966
111	0xba831214	-0.0009999895
112	0x3a831256	0.0009999971
113	0xba831249	-0.0009999956
114	0xba83123f	-0.0009999945
115	0x3a830c03	0.0009998087
116	0x3a831254	0.0009999969
117	0x3a83124e	0.0009999962
118	0xba831253	-0.0009999968
119	0xba830fa5	-0.0009999169
120	0xba8310a6	-0.0009999468
121	0xba831226	-0.0009999915
122	0xba83123f	-0.0009999945
123	0xba8307b6	-0.0009996805
124	0x3a83123c	0.0009999941
125	0xba830f75	-0.0009999113
126	0x3a831253	0.0009999968
127	0xba831199	-0.0009999751

encoder.2.bn.running_mean f4 [128]
0	0x3aae3eb2	0.0013293831
1	0x3cb0d80f	0.0215874
2	0x3c150fd6	0.009098014
3	0xbbf564db	-0.0074888295
4	0xbd4ac3bc	-0.049503073
5	0x3d238add	0.039927352
6	0x3d176bd3	0.036968064
7	0x3c19ce8b	0.009387623
8	0xbc81871f	-0.015811501
9	0x3b4ff33d	0.0031730675
10	0xbc9652dd	-0.01835006
11	0xbce3a253	-0.027787363
12	0x3d0a78f7	0.033806767
13	0xbbbc91c3	-0.005754681
14	0x3c24e097	0.010063312
15	0x3b2d703c	0.0026464602
16	0xbc510597	-0.01275768
17	0x3d24d698	0.040243715
18	0x3d24c044	0.04022242
19	0x3d860886	0.065445945
20	0xbcaf95cd	-0.021433735
21	0x3c75d62b	0.015004675
22	0xbc84a5d1	-0.016192349
23	0xbd2aa91c	-0.04166518
24	0xbd969773	-0.073531054
25	0x39989c16	0.00029107992
26	0xbba5b372	-0.005056792
27	0x3c98aa2b	0.01863583
28	0x3d307c8f	0.04308754
29	0x3d188ddf	0.037244674
30	0x3d004469	0.03131524
31	0x3d16943f	0.036762472
32	0x3d375e51	0.04476768
33	0xbb834141	-0.0040055816
34	0x3cfbfff0	0.030761689
35	0xbb02ca11	-0.0019956867
36	0xbcf0b3e2	-0.02938265
37	0xbd764d55	-0.060132343
38	0x3b684200	0.003543973
39	0x3cffe693	0.031237876
40	0xbcceedc7	-0.025259865
41	0x3d695bca	0.056972302
42	0x3c11190a	0.008856067
43	0xbd2199d3	-0.03945334
44	0xbcae296c	-0.021259986
45	0xbd534c53	-0.05158646
46	0xbd41953f	-0.047261473
47	0xbc454d18	-0.012042306
48	0xbd34a125	-0.044098992
49	0xbad10bc7	-0.0015948944
50	0x3c7f555f	0.015584319
51	0xbc263342	-0.010144057
52	0x3bb3abca	0.0054831253
53	0xbc7d3760	-0.015455097
54	0x3caa3d30	0.02078113
55	0xbd414507	-0.04718497
56	0xbc279d73	-0.01023041
57	0x3cddacc3	0.027059918
58	0x3c08a1df	0.008339374
59	0xbd690eba	-0.05689881
60	0x3ca847d1	0.020542057
61	0x3c66388a	0.014051566
62	0xbbe8f5ca	-0.0071093785
63	0x3cdfe727	0.027331902
64	0xbc6ad317	-0.014332554
65	0x3ce54b10	0.027989894
66	0x3c590095	0.013244768
67	0xbd0ad5a2	-0.033895142
68	0xbd1af66b	-0.03783266
69	0xbd945278	-0.07242292
70	0xbbd4ea5d	-0.006497665
71	0xbc5e5010	-0.013568893
72	0x3cd7988b	0.026317855
73	0xbc69abb5	-0.01426213
74	0x3cb05be5	0.021528194
75	0x3caeb861	0.021328153
76	0x3c3ae0db	0.011406149
77	0x3aca2c56	0.001542459
78	0xbcb3f042	-0.02196515
79	0x3cfb1867	0.030651284
80	0x3cad6a87	0.02116896
81	0x3d8d0384	0.06885436
82	0xbc0670cf	-0.008205607
83	0xbd6f88e8	-0.058480173
84	0x3d114dc7	0.035474565
85	0x3c8f3bfb	0.017484656
86	0x3d2d65d7	0.04233345
87	0xbd207f37	-0.03918382
88	0x3a040d04	0.000503734
89	0x3cbb96ff	0.022899149
90	0x3b55991a	0.0032592476
91	0x3b522385	0.0032064628
92	0xbcecfeaf	-0.028930036
93	0xbcdc490f	-0.026890306
94	0xbb9120ea	-0.0044289725
95	0xbc02731c	-0.0079620145
96	0x3c5418aa	0.0129453335
97	0x3c2b4b37	0.010454944
98	0x3d2d09d4	0.0422457
99	0x3b308c91	0.0026939253
100	0xbbfb52fd	-0.007669805
101	0xbd139701	-0.03603268
102	0x3c6ee80f	0.014581694
103	0xbc931faf	-0.017959444
104	0x3cd8594b	0.026409766
105	0x3cc05b9f	0.023481188
106	0xbd8722ec	-0.06598458
107	0x3ce16a10	0.027516395
108	0xbd2d7679	-0.042349312
109	0xbc83bf15	-0.016082326
110	0x3d0952f2	0.03352637
111	0xbc843229	-0.0161372
112	0xbafe1f98	-0.0019388078
113	0x3d12e883	0.03586627
114	0x3c51516a	0.012775758
115	0x3ccdfb72	0.025144313
116	0x3a88216f	0.001038594
117	0x3bf2198b	0.007388299
118	0xbc80e1bb	-0.015732637
119	0xbc2716e1	-0.010198326
120	0xbd0cb0e6	-0.03434839
121	0x3d1dc52d	0.03851812
122	0xbc87b15d	-0.016564066
123	0x3b1c7497	0.0023873204
124	0x3c62c480	0.013840795
125	0xbc45ad94	-0.01206531
126	0x3b88c564	0.0041739214
127	0xbd7c1a55	-0.06154855

encoder.2.bn.running_var f4 [128]
0	0x3f6afaaf	0.9178876
1	0x3f6cbfa0	0.92479897
2	0x3f69a2a9	0.91263825
3	0x3f691b91	0.9105769
4	0x3f684e71	0.9074469
5	0x3f6a5433	0.9153473
6	0x3f6880f1	0.9082175
7	0x3f6a8465	0.9160827
8	0x3f69d046	0.91333425
9	0x3f6a6850	0.9156542
10	0x3f6add13	0.9174358
11	0x3f69ca51	0.91324335
12	0x3f6be6ee	0.92149246
13	0x3f6a7ffc	0.9160154
14	0x3f692161	0.9106656
15	0x3f6adecc	0.9174621
16	0x3f690ff8	0.9103999
17	0x3f6b08c5	0.91810256
18	0x3f6d743b	0.9275548
19	0x3f6b9794	0.92028165
20	0x3f694718	0.91124105
21	0x3f6a8821	0.91613966
22	0x3f697186	0.9118885
23	0x3f6bcee4	0.92112565
24	0x3f6bfc00	0.92181396
25	0x3f68c707	0.9092869
26	0x3f687488	0.9080281
27	0x3f68e266	0.90970457
28	0x3f6a6e34	0.91574407
29	0x3f6cc75b	0.9249169
30	0x3f69e15f	0.91359514
31	0x3f69557c	0.91146064
32	0x3f6b0f77	0.9182047
33	0x3f690a4b	0.9103133
34	0x3f691adc	0.9105661
35	0x3f68e305	0.90971404
36	0x3f6a2c61	0.91473967
37	0x3f68d134	0.9094422
38	0x3f6c0f20	0.9221058
39	0x3f6820b3	0.90674895
40	0x3f6966b4	0.9117234
41	0x3f6be294	0.92142606
42	0x3f6873ba	0.90801585
43	0x3f6934ec	0.9109638
44	0x3f691586	0.9104847
45	0x3f6b4d9c	0.919153
46	0x3f6f34ea	0.93440115
47	0x3f6a8a4e	0.91617286
48	0x3f697170	0.91188717
49	0x3f68f16b	0.90993375
50	0x3f6a7254	0.915807
51	0x3f6997e5	0.912474
52	0x3f6976a0	0.9119663
53	0x3f6ca308	0.92436266
54	0x3f692edb	0.9108712
55	0x3f696952	0.9117633
56	0x3f688801	0.90832525
57	0x3f6b3baf	0.91887945
58	0x3f6c809b	0.92383736
59	0x3f68b655	0.90903217
60	0x3f6e65b7	0.93123955
61	0x3f6fda2a	0.93692267
62	0x3f6c8f1c	0.9240587
63	0x3f6a67c4	0.91564584
64	0x3f6a2ed3	0.914777
65	0x3f697a78	0.912025
66	0x3f690440	0.9102211
67	0x3f68eea1	0.9098912
68	0x3f6844cb	0.9072997
69	0x3f6ec566	0.93269956
70	0x3f691ea5	0.91062385
71	0x3f6f576d	0.93492776
72	0x3f6a498e	0.91518486
73	0x3f6903dc	0.91021514
74	0x3f6e8c37	0.931827
75	0x3f6a2dd7	0.91476196
76	0x3f689f63	0.90868205
77	0x3f6cac64	0.9245055
78	0x3f68f6ad	0.910014
79	0x3f6b4803	0.91906756
80	0x3f69fe46	0.91403615
81	0x3f68a720	0.9088001
82	0x3f69325e	0.9109248
83	0x3f697cee	0.9120625
84	0x3f6a94c8	0.9163327
85	0x3f6b558e	0.9192742
86	0x3f6ab312	0.9167949
87	0x3f6ae7ca	0.9175993
88	0x3f691e5b	0.91061944
89	0x3f68dc30	0.9096098
90	0x3f6a1dd0	0.9145174
91	0x3f687bba	0.9081379
92	0x3f687526	0.90803754
93	0x3f689bbc	0.9086263
94	0x3f68a92b	0.9088313
95	0x3f690322	0.91020405
96	0x3f693bc6	0.9110683
97	0x3f6acdf5	0.91720515
98	0x3f699586	0.9124378
99	0x3f6a0482	0.9141313
100	0x3f687d1b	0.90815896
101	0x3f699b4c	0.9125259
102	0x3f6aba95	0.9169095
103	0x3f6bd3e0	0.9212017
104	0x3f6907e1	0.9102765
105	0x3f6a4d7c	0.9152448
106	0x3f6a196e	0.9144505
107	0x3f683423	0.90704554
108	0x3f6af83b	0.9178502
109	0x3f6a12c9	0.91434914
110	0x3f6b12a6	0.9182533
111	0x3f6a7328	0.91581964
112	0x3f69650c	0.9116981
113	0x3f6a1c8f	0.91449827
114	0x3f692f07	0.91087383
115	0x3f6a0619	0.91415554
116	0x3f7189e2	0.9435102
117	0x3f68d7d8	0.9095435
118	0x3f6a3457	0.91486114
119	0x3f6a4f89	0.9152761
120	0x3f6c1cf2	0.9223167
121	0x3f6a3253	0.9148304
122	0x3f6ad33d	0.91728574
123	0x3f6ab128	0.9167657
124	0x3f69d214	0.9133618
125	0x3f69ebc8	0.913754
126	0x3f68ac35	0.9088777
127	0x3f6b8420	0.9199848
