Lab/Lab7_Data-Augmentation-CNN/CustomLeNet.pth (torch, 181360 bytes, 10 tensors)

conv1.weight f4 [6, 1, 5, 5]
000000 7f 64 76 be a4 d3 9c bd 1b 0e 77 be e9 55 a0 bb
       -0.24061774 -0.07657555 -0.24126475 -0.004893054
000010 72 e1 38 be dd 01 85 3d df 79 3e be b5 47 8e bd
       -0.1805475 0.06494496 -0.18601178 -0.06947271
000020 96 a6 a2 be 4f 71 82 bc 1f 47 ad be 60 e0 2d be
       -0.3176772 -0.01592317 -0.33843324 -0.16980124
000030 1f 6a 15 be 28 31 d1 bd 71 27 23 3e e6 22 16 3d
       -0.14591263 -0.10214454 0.15933014 0.036654375
000040 55 e3 cd 3c ba 98 12 3e 12 cc 84 3e f6 42 54 3e
       0.025132814 0.14316073 0.25936943 0.20728669
000050 8b 94 b8 3d d1 6a ec bc d8 ab 9e 3c 9b f1 43 3e
       0.09012707 -0.028859528 0.01936905 0.19135134
000060 c4 a8 84 3e 76 6f 87 3d 0d 8e 51 be a7 6f 05 bd
       0.25910008 0.06613056 -0.20464344 -0.032577183
000070 18 93 0b be 02 d5 d8 3d 2b e9 69 bc 98 5c 4c be
       -0.1363033 0.10587503 -0.014276783 -0.19957197
000080 8a 83 64 be d9 8e 37 be 26 14 a9 be 21 51 38 3e
       -0.22315803 -0.17925586 -0.33023185 0.17999698
000090 eb f9 df 3d c4 7b f6 3d f4 e4 ea bd 96 c3 c3 be
       0.1093634 0.12035325 -0.114694506 -0.38235158
0000a0 4a 48 bc bd 1b 61 85 3c 17 65 80 bb e3 ea 64 3d
       -0.091934755 0.016281655 -0.003918301 0.055888068
0000b0 a4 b9 cb 3d fb 6e 91 3c f9 20 15 3e ff 03 71 3c
       0.099475175 0.017753115 0.1456336 0.014710425
0000c0 ef 3a 93 3e fd fa 97 3e af d3 04 3d 0d aa be bd
       0.287559 0.29683676 0.03242844 -0.09309778
0000d0 0a bb 88 be 27 4d b3 be 55 74 40 be 7a b6 57 3e
       -0.267052 -0.350198 -0.18794377 0.21065703
0000e0 2f b2 5e be e3 4f be be 0e d8 ac bd e1 05 21 3d
       -0.21747659 -0.37170324 -0.08439647 0.039312247
0000f0 ac 84 7c 3e 11 66 fc 3c 9d 3e 9d 3d b0 99 1b be
       0.24659985 0.030810388 0.07677958 -0.15195346
000100 21 90 60 3e 13 eb f8 3c 5d d8 c1 3d 5b db 6c be
       0.21929981 0.03038553 0.09465096 -0.23130552
000110 91 80 1e bd a2 8b 96 3e 5f 82 6f 3e dd 5f 75 3b
       -0.03869683 0.29403406 0.23389576 0.0037441172
000120 18 9e 55 3d 2f d2 aa 3d 38 93 59 3e 0c e0 03 3e
       0.052152723 0.083408706 0.21247566 0.12878436
000130 6f 3d 00 bc 54 2e cf 3c c3 9b 2c 3e b1 ed 11 3d
       -0.007827147 0.025290646 0.16856293 0.03562707
000140 2e e1 a6 3c 63 d3 e4 3b 2f 06 2d 3e 99 6f 6d 3e
       0.020371046 0.006983207 0.1689689 0.23187102
000150 1a fc 1b 3e 2d ad 0a be be 07 91 bd 72 b1 6f bd
       0.15232888 -0.13542624 -0.07081555 -0.058518834
000160 0d ad 9a bd a4 e4 31 3d 63 bd 8b be 2e 32 5f 3d
       -0.07552538 0.04343094 -0.27292928 0.054491214
000170 95 61 d0 3d 86 32 ce bd 6d e4 4f 3e eb c1 c0 bd
       0.10174862 -0.1006823 0.20301981 -0.09411987
000180 33 d2 18 3e 2b 8f 0a bd 28 0c 40 3e d9 8a 55 3d
       0.14923935 -0.033827942 0.18754637 0.05213437
000190 0a 84 00 3e 75 02 ca 3c 11 69 87 3e 05 0a 3f 3e
       0.12550369 0.024659375 0.26447347 0.18656166
0001a0 54 92 7b 3e 73 ff 77 bc e5 65 07 3e 60 de 78 3e
       0.24567538 -0.015136587 0.13222463 0.2430358
0001b0 f3 e2 40 3e 09 de 2c be 52 6e 2b bd 1b 5f 77 3e
       0.18836574 -0.16881575 -0.041853257 0.24157374
0001c0 67 21 08 3e 18 eb 07 be 65 b5 c5 be 63 9e 3a 3e
       0.13293992 -0.13273275 -0.38614956 0.18224482
0001d0 70 8b 16 be a7 5b fd bd d2 d3 50 be f4 01 93 be
       -0.14701629 -0.12370997 -0.20393303 -0.28712428
0001e0 26 9a fd 3d 49 95 db 3d c9 61 40 be 3b f1 a3 be
       0.12382917 0.10721833 -0.18787302 -0.32019982
0001f0 c0 06 1b be 6b b3 7f 3e 16 6c 6f 3d ad fa d2 3d
       -0.15139294 0.24970786 0.05845269 0.10301719
000200 3b ac 8c 3d 10 60 6e be d5 fe 81 3d 5b 23 ac 3e
       0.06868788 -0.23278832 0.063474335 0.33620724
000210 55 3b d8 bd 4a 66 5f be d2 e0 a1 be 55 fb ae 3e
       -0.10558192 -0.21816364 -0.31616837 0.34176126
000220 84 7b 68 3e 07 7a 96 be 74 81 8d be 23 2f 14 be
       0.22703367 -0.29389974 -0.27637827 -0.14471106
000230 60 35 8f 3e 5e a7 85 3d 35 dc 85 be 8b 07 c0 be
       0.2797041 0.065260634 -0.26144567 -0.37505755
000240 25 20 21 3e 02 3c c7 3d 14 85 c4 bb 4b 0e fe bc
       0.15734918 0.097282425 -0.0059973095 -0.031012675
000250 74 45 8c be ef 79 1d 3e
       -0.2739674 0.15378545

conv1.bias f4 [6]
000000 e6 5d a5 3e 6e 39 c2 3d cb 72 e5 3d 5d 41 50 be
       0.322982 0.0948361 0.11203536 -0.20337434
000010 05 38 4e bd e6 2a 9b 3e
       -0.050346393 0.30306166

conv2.weight f4 [16, 6, 5, 5]
000000 74 73 c5 bd f1 15 15 be 26 e8 29 be 9c 96 a7 bd
       -0.096411616 -0.14559151 -0.16592464 -0.08183023
000010 6d ba 68 be 14 af 08 bd cd 59 24 be 09 b5 02 be
       -0.22727366 -0.033370093 -0.16049881 -0.12764372
000020 6a 22 2b 3c e1 9e 56 be 41 80 73 3c 59 3a 45 be
       0.010445217 -0.20959045 0.014862121 -0.19260539
000030 fa 26 f2 3c 3b b1 b4 3d 8f 94 8b be c8 8f d4 3c
       0.029559601 0.088228665 -0.2726178 0.025947466
000040 34 a8 70 bd f5 f6 9f 3b 03 11 8b bc 0c 20 a2 be
       -0.05875416 0.0048817345 -0.016975885 -0.31665075
000050 5f f4 ec 3c a1 bf 9a 3b e6 ff 2b 3d 1a a4 63 bd
       0.028925119 0.004722551 0.04199209 -0.05557642
000060 2d e4 80 be ce 89 46 3e 42 2a f0 3d d2 4e c5 bd
       -0.25174084 0.19388506 0.1172681 -0.096341744
000070 cf 20 35 3d 43 52 16 3e a3 af 47 3e 93 69 b3 3d
       0.04422074 0.14679818 0.19500594 0.08760371
000080 bd a7 08 bc 4b b7 e5 bd 9d 75 cd 3d cc f2 5e 3d
       -0.008340773 -0.11216601 0.100321986 0.054430768
000090 3a e6 b1 3a 3d 40 8a bd 90 95 68 be 7f 1c 1b be
       0.0013572641 -0.06750534 -0.22713304 -0.15147589
0000a0 79 c4 6a 3c c1 75 27 be 4e a7 82 be 68 9f 3e be
       0.014329069 -0.16353513 -0.25518268 -0.18615496
0000b0 83 02 68 be e1 66 11 bd ac 3b 07 be 60 48 13 be
       -0.22657208 -0.035498504 -0.13206357 -0.14383078
0000c0 97 0f 62 be 37 e5 33 be d4 5f 8c bd 7b 84 9d 3d
       -0.2207626 -0.17567907 -0.06854215 0.07691284
0000d0 8a c4 0f 3e 5e d3 42 be a8 f9 5e be c6 bb 79 3d
       0.14039817 -0.19025943 -0.21774924 0.06097009
0000e0 1a 1c 13 3d f1 ca 41 3e 39 b3 82 3d ae f3 7d be
       0.03591547 0.18925072 0.0638184 -0.24799988
0000f0 11 81 bc 3d f7 34 c0 3d a1 3a 70 3e c4 a3 30 3d
       0.09204305 0.09385102 0.23459865 0.04312493
000100 1a 19 4b be ca de da 3d 3d 1a 76 3d 33 d3 62 3e
       -0.19833794 0.10687025 0.060083617 0.22150879
000110 4f 64 d5 3d bd 68 9c bd a1 4d 0a be df bb 82 bd
       0.10419523 -0.07637165 -0.13506176 -0.0638349
000120 2e 89 a2 3d f1 b1 c9 bd 6a eb e4 3b d5 5a 82 bd
       0.07936321 -0.09848393 0.0069860714 -0.06364981
000130 41 01 ed bc 6c 97 32 bc ae 9b 04 3e df 46 a4 3c
       -0.028931262 -0.01090036 0.12950012 0.020053325
000140 3d dc ab bd b8 d8 0e bd 21 2f 30 3c aa 85 ae 3d
       -0.083916165 -0.034874648 0.010753424 0.08521588
000150 00 3a 6c bd d5 c5 a4 bc 3a 4b e1 bd 1e de 9c bc
       -0.0576725 -0.020113865 -0.110006765 -0.019148882
000160 70 3e 15 3e 87 c9 15 bd a4 4e 51 3c 1a ce 02 be
       0.145746 -0.036569145 0.012775097 -0.12773934
000170 35 3b 3d bd c2 08 d4 3d ab c3 12 3d c9 2b 68 bb
       -0.046199042 0.10353233 0.035831135 -0.0035426489
000180 b1 15 08 be f5 67 35 bc 58 32 81 bd 2e b6 58 bd
       -0.13289525 -0.011072149 -0.063084304 -0.052908115
000190 44 39 4c 3d a3 f7 f1 3d a4 5e 4b bd 35 51 69 be
       0.0498593 0.11814811 -0.049650803 -0.22784884
0001a0 f3 b3 0e be be 95 95 3d bd 34 90 3d 1b 65 07 3d
       -0.13935833 0.07303952 0.07041309 0.033055406
0001b0 2e 60 8d be 15 c3 83 bd d8 f6 b3 bd e1 15 68 bc
       -0.27612442 -0.06433693 -0.08787316 -0.014165373
0001c0 39 ac 0f bd c2 9c 54 be 9a f7 3a bd 6d 4c 5c bd
       -0.035076354 -0.20762923 -0.045646288 -0.053783823
0001d0 bc 7b 86 3c 3f f7 3d bd 4d 14 5b bd f0 fe f7 3c
       0.016416423 -0.04637837 -0.053486157 0.03027293
0001e0 bc 3f b3 ba ca 6a b1 3d bf fc 4a 3d 74 ef 26 bb
       -0.001367561 0.086629465 0.049557444 -0.0025472315
0001f0 3f e3 f6 3c 9b a9 b7 3c a2 34 e7 3d b0 b3 ad 3c
       0.030137656 0.022419741 0.11289336 0.021203846
000200 17 6c 4e be 99 d4 68 be 9b 73 81 3d dd b2 a4 3c
       -0.2015842 -0.2273735 0.06320878 0.02010482
000210 6a 7e 0d 3e c3 2a 91 3c 19 8b ee bd b4 67 64 3d
       0.13817754 0.017720586 -0.116476245 0.05576296
000220 21 35 42 3d a0 85 64 3e cb 50 ae 3d 86 47 04 3c
       0.04741395 0.22316599 0.08511504 0.008073693
000230 44 5e c1 bc 80 ee 35 3c bc 8f 56 3e 9c 6e 0a 3d
       -0.02360452 0.011104226 0.20953268 0.03379689
000240 96 83 b4 3d b0 51 83 bd 7b f8 73 3d d2 ce 35 3c
       0.088141605 -0.06412065 0.05956314 0.011096673
000250 0f 76 04 3e 10 18 d7 3d 2f dc 04 bc 24 c7 8b 3d
       0.12935661 0.105026364 -0.0081091365 0.068250924
000260 87 6c 06 3e da 28 7c bd 3c 24 1c be 2d 73 d6 3d
       0.13127337 -0.061562397 -0.15248197 0.10471187
000270 6a cc c7 3c 2b 44 1e be 5c a7 91 be 10 56 73 bd
       0.024389464 -0.15455692 -0.28447998 -0.059408247
000280 e6 ba df 3d 79 c8 17 be cf d8 68 be 25 56 03 bc
       0.1092432 -0.14822568 -0.22738956 -0.008016144
000290 55 fb 0f bd ee d7 9f 3d cc 04 93 be 4a 8c 61 be
       -0.0351518 0.07804857 -0.28714597 -0.22026172
0002a0 75 f1 c5 bc 62 ca 11 bd e9 95 25 bd 3b 9f fe bd
       -0.024162987 -0.035593398 -0.04042617 -0.124327146
0002b0 3d a8 a9 bd 40 0c fb 3c 25 8d 89 bc 5f 63 0b be
       -0.08284042 0.03064549 -0.016790936 -0.13612126
0002c0 cd c8 37 be b8 08 b8 be 98 24 43 be 95 3e 88 be
       -0.17947693 -0.35944152 -0.19056928 -0.26610246
0002d0 8c 22 04 be 4f a6 c1 be eb f2 10 bf 1d c3 c0 be
       -0.12903804 -0.37822196 -0.56620663 -0.3764886
0002e0 73 f7 05 be 6d c2 b7 be 13 54 e8 be 4c 2b ca be
       -0.13082676 -0.35890523 -0.45376644 -0.39486158
0002f0 fc b0 10 be 5b 6f 89 be 94 90 94 be 5b d7 73 be
       -0.14130014 -0.2684277 -0.29016554 -0.2381262
000300 85 5f 0c be 15 dd 23 bd ab 8f 13 be b9 28 d7 bd
       -0.13708313 -0.040005762 -0.14410274 -0.10505814
000310 d4 47 e6 bd d4 77 a8 bd 75 83 95 bc 54 6c 0c bd
       -0.11244169 -0.082259804 -0.01825116 -0.034282997
000320 b7 b1 29 3e dd 1a 27 3e 82 64 e7 3c 70 81 96 be
       0.16571699 0.16318841 0.028246168 -0.29395628
000330 b4 49 2e be 08 64 12 3e 7b cb ff 3d e5 f4 3c be
       -0.17020303 0.14295971 0.12489983 -0.18452795
000340 0f 4a 5f be 6e ca c1 3a ca 69 89 3d ad c0 36 be
       -0.21805595 0.001478506 0.06709631 -0.17846937
000350 31 44 4b be 02 21 a2 bd ce 1a cf ba f5 da 69 3d
       -0.19850232 -0.07916452 -0.0015800835 0.05709358
000360 11 01 61 be 6d 58 06 be 23 d1 a1 bc 7f 69 15 bd
       -0.21973063 -0.1311967 -0.019753044 -0.036477562
000370 25 dd d9 bd 0e 1b b0 bd 16 8c 8a bd f7 4a b4 bd
       -0.10637883 -0.0859891 -0.067650005 -0.08803361
000380 ca 09 a9 3b c1 10 7b bd 60 96 53 3d b8 f2 20 3e
       0.0051586377 -0.061295275 0.05165708 0.1571759
000390 51 a8 c0 bd 71 12 9a bd 86 97 1e bd ec c5 28 3e
       -0.09407104 -0.07523049 -0.038718723 0.16481751
0003a0 dc d1 8c 3d 8d 08 e4 bd 98 c4 2e 3c a9 4b 8e 3d
       0.06875965 -0.111344434 0.010666989 0.06948025
0003b0 c4 98 62 3d a0 e7 03 bd 41 60 96 bc 32 e3 4d bb
       0.05532147 -0.032203317 -0.018356444 -0.0031415937
0003c0 d1 f0 a7 bd 38 c6 42 3c 75 f3 43 3d 51 62 89 bd
       -0.08200229 0.011888079 0.0478396 -0.067082055
0003d0 e1 5f d6 3d 86 21 77 bd 13 4e bd bd b1 f2 60 3c
       0.10467506 -0.060334705 -0.09243407 0.013729737
0003e0 e9 9a 2b bd b5 22 2f 3d 1c dd 04 3e fc aa 0e bd
       -0.04189578 0.04275771 0.12974972 -0.034831032
0003f0 46 9c a9 be 13 af 1b be 9c f8 dd 3c 69 ba 7b 3e
       -0.3312704 -0.15203504 0.027096085 0.24582829

conv2.bias f4 [16]
000000 37 dd 7b 3d 2d 9e 7c bc a5 9b bc 3d 7e d3 df 3b
       0.061490264 -0.015418571 0.09209374 0.0068306318
000010 c6 50 8d 3d 58 40 a6 bd a0 9d b2 bc 11 df 7d bc
       0.06900172 -0.08117741 -0.021803677 -0.015495078
000020 2b 72 c6 bc bc bd 25 3b d2 c0 0c bd 0a 9f 09 be
       -0.024224361 0.0025290092 -0.034363575 -0.13439575
000030 c6 80 ba bd bc d6 c5 bb 7b b5 a2 bd 07 33 78 bd
       -0.09106593 -0.006037561 -0.07944771 -0.06059554

fc1.weight f4 [120, 256]
000000 86 1e ba bc 85 4b 8a bd f4 b1 36 be 30 32 d9 bd
       -0.022719633 -0.067526855 -0.17841321 -0.10605276
000010 a9 7d 8b bc 2e af 4f bc c5 36 88 bc e6 98 2d ba
       -0.017027693 -0.012676043 -0.016627679 -0.000662221
000020 90 fb ce bd 84 e4 f7 3d b6 7f 78 bb 7e 3a c1 3d
       -0.101065755 0.12104133 -0.0037917919 0.094349846
000030 21 ae 37 be 14 56 8d bb 07 b3 23 bc 60 b7 07 3e
       -0.17937519 -0.00431324 -0.009991414 0.13253546
000040 44 7f 2c bc b4 a5 68 3c c3 e5 19 be ae 0d da 3d
       -0.010528389 0.014199663 -0.15029053 0.106471404
000050 07 98 90 3d de 74 0d bd 8f 51 a3 3c 15 51 d7 3c
       0.07060247 -0.03453528 0.019936351 0.02628378
000060 66 b4 f5 bd 0e e6 d0 3c 4f b0 42 3d 7f 3c 59 bd
       -0.11997299 0.025500324 0.047531422 -0.05303621
000070 db 39 9f bd f8 bb 74 3d a3 d1 94 3c 9f fe 80 bc
       -0.07774707 0.059749573 0.018166369 -0.015746413
000080 05 e9 2e 3e 24 b3 71 bd 4d b8 4b bd 73 42 d2 bd
       0.17081077 -0.059008732 -0.04973631 -0.102665804
000090 72 03 67 3d aa 6f 9f bb 44 2f 04 be ed 0e 94 3c
       0.05639977 -0.0048656063 -0.12908655 0.018073523
0000a0 bd 98 10 3c 4d b1 63 bc 3e 7e ff bd 67 a5 87 be
       0.008825478 -0.013897252 -0.12475251 -0.2649338
0000b0 f3 63 12 bc a0 74 8b 3d bb 77 ae 3d 2b 0d aa bd
       -0.008934963 0.06809354 0.085189305 -0.08303293
0000c0 e9 b1 9a bd 3b 75 fa bd 13 68 4e bd 44 e0 b8 3c
       -0.07553465 -0.12229391 -0.05039222 0.022567876
0000d0 00 8c 99 bd 30 78 1e bd 0f df 63 bd cd 4d 97 3d
       -0.07497406 -0.03868884 -0.055632647 0.07387886
0000e0 ad c2 17 be 05 3f a5 3d 28 42 93 3b 0b 0d d9 3d
       -0.14820357 0.08068661 0.0044939704 0.10598191
0000f0 0c db 69 be 2b b0 70 bd c6 84 7d 3d 8a d9 2a 3d
       -0.22837466 -0.058761757 0.0618942 0.041711368
000100 6c 84 cf bc d9 82 eb bc 36 ee 0a bc 74 e1 ab 3d
       -0.025331698 -0.028748916 -0.0084796455 0.08392611
000110 dd 1b ef bd fb 80 34 bd 34 94 c9 bc a2 25 72 bd
       -0.116752364 -0.044068318 -0.024606802 -0.05911792
000120 b0 69 81 be 80 ec 52 be ce 9a ae bd d7 74 b5 bc
       -0.25275946 -0.2059803 -0.085256204 -0.02215044
000130 f3 b9 32 be 2c 89 0b be 76 ab 84 bd a1 db 05 bd
       -0.17453746 -0.13626546 -0.06478016 -0.032680158
000140 e8 7e a9 3d 02 d6 2c 3e 0a 83 0d 3e 8f d9 2d 3e
       0.082761586 0.16878513 0.13819519 0.16977523
000150 94 4d 97 bd e2 e1 91 3d fc c9 d9 3c e3 b2 a5 3d
       -0.07387844 0.07123162 0.026585571 0.080907606
000160 6d 01 5f be 63 f7 d7 3b dc 66 c4 3d 06 2c 73 3d
       -0.21777888 0.00659077 0.09589931 0.059368156
000170 88 63 fc bc 66 3b e4 3b 4a 2d d2 3d d6 d7 9a 3d
       -0.030809179 0.0069650887 0.102625445 0.07560699
000180 0d 28 62 3d 5d 66 34 bd fc d1 cf 3d b9 c4 da 3d
       0.055213977 -0.044042934 0.10147473 0.10682053
000190 8d bd e5 bc 14 c1 84 bd 74 83 68 bd bd 64 ad 3d
       -0.028044486 -0.06482139 -0.05676599 0.0846648
0001a0 53 ec 17 3d a9 88 d7 3c e4 92 5a bc 8d 94 43 3d
       0.03709061 0.026310282 -0.0133406855 0.04774909
0001b0 fa 85 47 3d ae 5a e6 bd 9b f4 ef b9 31 a7 09 bd
       0.048711754 -0.112477645 -0.00045767878 -0.03360671
0001c0 d9 25 04 3c 16 09 92 3d 61 e3 4b bd f3 29 f1 3a
       0.008065664 0.07130639 -0.049777392 0.0018399343
0001d0 3f 0b 89 be 31 35 0a be 02 d6 f8 3d d9 df fd bc
       -0.26766393 -0.13496853 0.12150194 -0.030990528
0001e0 c0 fd 90 be e6 03 21 be 8b 4d 71 3d a3 ad 66 3d
       -0.28318596 -0.15724143 0.05891184 0.056317937
0001f0 c6 1c fb bd 9a 21 f9 bd d2 f9 c3 bd 69 31 eb 3c
       -0.122613475 -0.12164612 -0.09569134 0.028710084
000200 0a 9f 14 be 9f d1 1b 3d 9d 10 24 3e 3c 0d ba 3d
       -0.14513794 0.038041707 0.16021962 0.090845555
000210 c4 b9 86 be fc 4f 39 be 02 57 8b 3c 08 8b 37 3d
       -0.26313603 -0.18096918 0.017009262 0.044810325
000220 59 d2 93 be d3 0c d9 bd bf 6a 99 3d 99 c2 c8 3b
       -0.2887142 -0.10598149 0.07491063 0.0061267135
000230 47 14 38 be 22 af 01 3e 04 8b f4 3d ee f2 86 bc
       -0.17976485 0.12664464 0.119405776 -0.01647326
000240 a2 fb 16 3e 35 54 e6 3d f2 1c da 3d 83 cf 91 3c
       0.14744428 0.1124653 0.10650052 0.017799145
000250 c5 18 27 be 31 6c e4 bd f7 74 56 bd 1b 6a 8b 3b
       -0.16318043 -0.111534484 -0.05235764 0.004254592
000260 f3 a9 72 be bc 76 6d bd 41 c4 63 3d 31 61 3a 3c
       -0.23697643 -0.057974562 0.055607084 0.011375711
000270 dd e3 d3 bd 9e 6e b6 3c 2e 2a 20 3d 48 2f 1a 3e
       -0.10346196 0.022269543 0.039102726 0.15057099
000280 44 2d 9d bc 1a 9c c4 3d 9d b9 7d 3d a3 56 59 3e
       -0.019186623 0.096000865 0.061944593 0.21224456
000290 00 b3 c1 bd 83 92 b7 bd 1e 80 6c bd 5e a6 a4 bc
       -0.0945797 -0.08963492 -0.05773937 -0.020098861
0002a0 98 32 aa 3d ae c2 e1 3c b1 b0 8b bd 99 18 19 3b
       0.08310431 0.02755865 -0.068208106 0.0023360609
0002b0 70 81 31 3c c4 db 0d 3d 9f 49 5e 3d 57 dd 1e 3c
       0.010834083 0.034633413 0.05426943 0.009696326
0002c0 7c ac 28 3e 60 5d 97 3e 80 7d 02 3e e2 87 b7 3d
       0.16472048 0.29563427 0.12743187 0.089614645
0002d0 df 97 c0 bd 16 60 4c 3d 2d 77 27 3e e3 e6 67 3d
       -0.09403967 0.049896322 0.16354056 0.056616675
0002e0 4d 66 09 be 62 1d 16 bd db 65 3f 3e 90 fc df 3d
       -0.13417931 -0.036649115 0.18691199 0.10936844
0002f0 23 fb 03 be 5e f6 fb bc d1 74 01 be 3d 37 3c 3b
       -0.1288877 -0.030757125 -0.12642218 0.0028719448
000300 9b 45 20 3d 67 1e 45 3b 71 3b 12 3d d8 cc cf bc
       0.03912888 0.0030077936 0.03570122 -0.025366232
000310 3d b5 c7 bc c0 9d ea bd eb d9 26 be 86 20 40 be
       -0.024378413 -0.1145587 -0.16294067 -0.18762407
000320 05 21 f2 3c 9d 49 a6 bd 0e cc b9 bd 81 c3 28 be
       0.02955676 -0.08119509 -0.090721235 -0.16480829
000330 48 56 f5 3d 72 d2 49 3d 8a b8 d4 3d 3b 36 14 3e
       0.119793475 0.049272962 0.103867605 0.14473812
000340 b0 83 51 bc 6e 1e 0c bd 00 b5 cc 3c c5 15 7f 3e
       -0.012787744 -0.034208708 0.024988651 0.24910648
000350 69 58 b0 bd 5f 35 1e bd b9 4b 17 3d 3d 49 36 3e
       -0.08610613 -0.038625117 0.03693745 0.17801376
000360 77 48 0f 3e 90 ce 8c bd 14 5c f7 bd a1 6c 1b bd
       0.13992487 -0.06875336 -0.120781094 -0.037945393
000370 6f ef 59 3e a2 01 16 bc 6a 50 48 3d 59 0c 90 bc
       0.21282743 -0.009155663 0.048904814 -0.017584013
000380 b7 e2 56 3e 3d 25 75 3d 6f 22 a7 3d a7 68 b9 3d
       0.20984922 0.059849966 0.081608646 0.09053164
000390 f9 1a c6 bb 76 4e 8c bd 0c 34 85 bd 43 2b 51 bc
       -0.006045696 -0.06850903 -0.06504068 -0.012766662
0003a0 6d 11 64 3d e4 72 fe 3a 0f 00 43 bc 25 d6 aa bd
       0.05568068 0.0019412902 -0.011901869 -0.08341626
0003b0 32 93 cd 3c bc 2c aa 3d e2 2f d3 3d 19 3a ce 3c
       0.025094602 0.08309314 0.10311867 0.025174187
0003c0 b3 3b 8f bd c6 20 ca 3a be 6b 20 3d 5d b7 a3 3d
       -0.069938086 0.0015421144 0.03916525 0.07993958
0003d0 bb 8e 72 3d 02 1d 0e bd 05 11 53 bb c6 d5 71 3b
       0.05921815 -0.034695633 -0.003220619 0.00369011
0003e0 dc cf f9 3d 30 09 09 3e 30 1d 95 3d 8e 0f 92 3d
       0.12197849 0.13382411 0.07280958 0.07131873
0003f0 68 de 12 bc 96 ed f1 bc 12 9a d4 3d e7 22 72 3c
       -0.008964159 -0.029532235 0.10380949 0.014778829

fc1.bias f4 [120]
000000 14 65 7e 3b b0 ab 3f 3e 86 76 8e 3d b9 b2 54 bd
       0.0038817571 0.18717837 0.069562 -0.051928256
000010 3a 60 33 bd ab 73 0e bd 23 25 f9 bd c5 7c 0b 3d
       -0.04379294 -0.03477828 -0.121652864 0.034054536
000020 c6 de 0c 3c be 42 ad bc e0 fc 4d bd 69 c4 04 3d
       0.008598035 -0.02114999 -0.05028999 0.032413874
000030 71 e4 b0 bd cd fe 3a 3c 07 1e 11 bd cb cc c5 3c
       -0.08637322 0.011413288 -0.035429027 0.024145504
000040 28 26 ef 3d 45 50 85 3d 50 f7 54 bc 3a 21 14 bc
       0.116771996 0.06509451 -0.012998417 -0.009041125
000050 49 a2 97 bd b5 74 64 bc ac e5 0f 3c db 05 51 3b
       -0.07404 -0.013943841 0.008782785 0.003189436
000060 21 d3 f4 bc 91 68 b2 b8 9f 74 22 bd b6 92 4a bd
       -0.02988583 -8.5071784e-05 -0.039662 -0.04945632
000070 ca d8 e7 bd 5d 28 e9 bb 8d b1 d2 3c 9a ad ed bc
       -0.11320646 -0.0071154074 0.025719428 -0.029013444
000080 3d 8c c0 bd 3d 49 56 3c 67 84 ae 3b 21 fc 96 bc
       -0.09401748 0.013078985 0.005325842 -0.018430771
000090 c1 59 a2 bd 68 d6 5d bd a6 3f d0 bd e0 66 a6 bc
       -0.079272754 -0.05415955 -0.1016839 -0.020312726
0000a0 f5 9c 72 bd 34 4a 83 bc 02 51 d0 bd 90 d9 69 bd
       -0.059231717 -0.016026594 -0.10171701 -0.05709225
0000b0 1f ce 5e bd 76 d4 75 bd 04 e6 49 bd 54 66 19 be
       -0.05439579 -0.06001707 -0.049291626 -0.14980441
0000c0 55 88 f4 3c ae 22 b9 3d 5c 87 96 bd 63 33 44 38
       0.029850164 0.09039818 -0.073500365 4.67779e-05
0000d0 5e ba e7 bd 3b 24 5e bd 87 ba 98 3b 01 80 74 3d
       -0.113148436 -0.05423377 0.0046609077 0.059692387
0000e0 01 3e 45 3c 97 18 80 bd 4a bf 8c 3d 5e 6d 22 bd
       0.012038709 -0.0625469 0.06872423 -0.039655082
0000f0 3b 52 33 bd 56 d1 d4 bd ee d6 71 3c 02 a9 25 bd
       -0.043779593 -0.1039149 0.014760716 -0.04044438
000100 1f 9b c6 bc 15 dc a3 3a 71 15 4d bc e9 39 0f 3a
       -0.02424389 0.0012501503 -0.012517319 0.00054636464
000110 c9 44 85 bd 9f ee 3e 3d 12 8c 88 bd c3 0d bf bc
       -0.0650726 0.046614286 -0.06667341 -0.023321992
000120 9f 7f 6a bc a5 c5 9e 3d a6 7a f7 bc 64 9c 8c bd
       -0.014312654 0.077525415 -0.03020985 -0.06865767
000130 27 1a 5b bb 88 22 90 bd bd 38 d3 bd ad cd 2b be
       -0.0033432336 -0.07037836 -0.10313556 -0.16777678
000140 8a c4 e2 bb 49 a1 6a bc 3b ec c9 3d d1 80 8b 3d
       -0.006920402 -0.01432068 0.098595105 0.06811679
000150 16 b9 af bd 97 9e 66 bd ed 37 96 bb 33 79 9c 3c
       -0.08580224 -0.056303587 -0.0045843036 0.019100761
000160 59 66 49 bd 54 0d 54 3b b8 9c d2 bc 6d d2 0b bd
       -0.049169872 0.0032356577 -0.025709495 -0.034136225
000170 e8 ce 92 bc 1f ac d7 bb 3d 5b bb 3d 43 68 0a bc
       -0.017920926 -0.0065817977 0.09148262 -0.0084477095
000180 7c cc 14 3b 41 57 c0 bc 6f f4 0f 3d 1d 67 36 bd
       0.002270489 -0.023479106 0.03514522 -0.04453193
000190 34 07 90 bd 2f a8 13 bd 0b c8 df 3b 26 f9 97 bd
       -0.07032624 -0.036049064 0.006829267 -0.07420568
0001a0 1e a1 98 bd c3 5d 9a bd 10 68 6d bd 3b 8f d3 bd
       -0.07452606 -0.07537415 -0.05796057 -0.103300534
0001b0 85 83 f8 bc d9 7c 07 bd 85 f8 2d bd 10 f9 28 bd
       -0.03033615 -0.03307805 -0.042473335 -0.04125315
0001c0 dd 2b ee bc c7 e3 b0 3b a4 80 1b 3e 71 dd 62 bd
       -0.02907365 0.005398247 0.15185791 -0.055386964
0001d0 5c 68 9b 3c 2c 88 47 bd 35 19 61 bd 3a dd a4 bd
       0.01897066 -0.048713848 -0.05495568 -0.08050008

fc2.weight f4 [84, 120]
000000 66 42 38 be 9b 9c 40 be 7a 4f 60 3b ab cc 59 bd
       -0.17994079 -0.1880974 0.003422706 -0.053173702
000010 e8 5f 17 3d 52 a6 1a bd 94 f9 74 3c 29 87 e7 bd
       0.036956698 -0.03775627 0.014952082 -0.11305077
000020 ee 86 a1 3d e6 5c d4 bd d7 ae a3 3b 26 51 66 3c
       0.07887064 -0.103692815 0.004995208 0.014057433
000030 aa 30 b0 3a bd c7 a7 3d 0f 64 b1 bc 74 74 80 bd
       0.0013442237 0.08192394 -0.021654157 -0.06272212
000040 e9 2f d8 3d bb d6 a0 3d 11 47 e5 bc aa ba 31 3c
       0.10556013 0.078534566 -0.027987989 0.010847727
000050 22 60 0a 3e 72 95 bf bd e0 11 86 3d 84 5a a3 3d
       0.13513234 -0.09354676 0.06546378 0.07976249
000060 ba b1 18 be db ac 59 3d 82 71 90 3c 99 80 19 3d
       -0.14911547 0.053143363 0.01763225 0.037476156
000070 2c c3 29 3e 47 5d 8c bc f9 85 6b 3e 97 a7 0b bd
       0.16578358 -0.017134322 0.23000325 -0.034095373
000080 bd 71 2b 3e 11 30 78 3e 0f 55 87 be d3 e9 73 3d
       0.16742606 0.24237086 -0.26432082 0.059549164
000090 5a 79 01 3e 9d ce a3 3d b6 d9 45 3e cc 4a dd bc
       0.12643948 0.07998393 0.19321331 -0.027013205
0000a0 9f f8 35 3c 3f 78 e3 bc 98 b8 05 3e 6f 81 58 3c
       0.011106639 -0.027767299 0.13058698 0.013214453
0000b0 50 02 00 bd ad 59 ad 3c 1c a8 a5 3d 88 a3 33 3d
       -0.031252205 0.021160925 0.08088705 0.043857127
0000c0 60 7c d8 bd 7b 75 8b 3c 74 b1 58 3e cc e7 84 3c
       -0.10570598 0.017023792 0.21161443 0.01622381
0000d0 9a 54 f6 3d 19 8d 6b bd bf d7 47 be ca 41 88 3d
       0.12027855 -0.057507608 -0.19515894 0.06653173
0000e0 33 5d 09 be 88 69 70 bd 66 48 c3 3d 12 7d 4f bd
       -0.13414459 -0.058694392 0.09535293 -0.050656386
0000f0 7d 20 34 bb 43 96 24 be 59 06 40 3e d3 b5 ce 3c
       -0.0027485185 -0.16072945 0.18752421 0.025233185
000100 55 28 17 3d 9d c4 9d 3e c1 0d 82 bd 7a 2a 04 3c
       0.036903698 0.30814067 -0.063502796 0.008066768
000110 20 37 0a be 0a 7c a3 bd 66 78 20 be 1d c4 72 bd
       -0.13497591 -0.07982643 -0.15670928 -0.05926906
000120 19 e5 f7 bd e3 22 9d 3d d8 0f 01 3d 64 8c ea 3d
       -0.12104244 0.0767267 0.03150925 0.11452559
000130 b1 85 d5 3d a2 24 3e 3d 47 85 8c be 84 5c 48 3d
       0.1042589 0.046421655 -0.27445433 0.048916355
000140 08 c8 a6 bc 71 6d 36 3e 5a de 42 bc 89 29 e7 bd
       -0.020359054 0.17815186 -0.011893833 -0.11287219
000150 55 b7 85 bd bf bd cc 39 40 af b7 bc 0b d2 46 3d
       -0.065291084 0.00039051284 -0.022422433 0.048540156
000160 5e bb 88 bc 38 68 f1 3d 59 83 87 3d a9 5c 73 bd
       -0.016690906 0.11787456 0.066168495 -0.05941454
000170 19 cd 3d 3e 55 c7 a6 3d 7c a5 60 3c c0 d4 20 3c
       0.1853527 0.08143488 0.01371133 0.009816349
000180 31 ba 0b be 5c 93 8c 3c d5 ca bc bc 24 5f 86 bd
       -0.13645245 0.01716011 -0.023045937 -0.065611154
000190 85 62 a0 3c 1d 5e 76 3b d8 7e aa 3c e4 09 17 be
       0.019578228 0.0037592717 0.020812437 -0.14749867
0001a0 4e 2c f4 3c d5 d9 ab 39 a7 b5 cc 3d 3a 34 0a 3c
       0.029806282 0.0003277796 0.09995585 0.008435303
0001b0 12 e4 53 bd 20 c5 7b bd 3d af b9 3d 05 fa 4d bb
       -0.051731177 -0.06146729 0.09066627 -0.003142954
0001c0 39 5f 86 bd 4d 95 bd 3d f0 bf 15 bd 30 f8 9a 3b
       -0.06561131 0.092569925 -0.03656 0.0047292933
0001d0 43 b2 22 bd e0 80 ad 3d 0a c6 86 be 78 ea 90 bd
       -0.039720785 0.084718466 -0.26322967 -0.07075971
0001e0 25 1f a9 3d f9 07 8b be b7 f3 3e bd c3 d5 c3 3c
       0.082578935 -0.2715452 -0.046619143 0.02390564
0001f0 22 25 09 3e e4 0d 60 bd 84 df da 3c 41 45 f5 bd
       0.13393071 -0.054700747 0.026717909 -0.119761
000200 f5 9e 71 3c 75 eb 19 be 76 c4 38 3d e9 e1 0d bd
       0.014747371 -0.15031226 0.045109235 -0.034639273
000210 29 f0 0f 3e c6 23 d8 bd 33 1c 34 bd 9e 41 0b 3d
       0.14056458 -0.10553698 -0.043972205 0.033998124
000220 10 89 f5 bd 3b 9b 59 bd d8 15 d0 bc 20 60 28 3d
       -0.11989033 -0.053126555 -0.02540104 0.041107297
000230 2e 9f 8a 3c ad 4b 0c be e8 a1 72 ba 4b c3 49 3d
       0.016921606 -0.13700743 -0.00092556933 0.04925851
000240 15 7d 52 3d 4b f6 9d bd 6d 44 08 be 94 a3 14 bc
       0.05138882 -0.07712992 -0.13307352 -0.009072203
000250 53 ea 09 3d 7f a8 3f 3e 19 94 2f 3e 5a 89 8d bc
       0.033670735 0.1871662 0.17146339 -0.017277408
000260 29 57 4a 3d 83 68 6a 3b 80 2f 9c be 15 38 74 3c
       0.04939953 0.003576786 -0.3050499 0.014905949
000270 0e 08 ef 3d 74 7e 04 be a0 68 81 3e 43 67 ca bb
       0.11671458 -0.12938863 0.25275135 -0.0061768605
000280 1a 36 db 3d 75 cc 70 3e ff c2 38 3d 67 13 7a bd
       0.107036784 0.23515494 0.045107838 -0.06105366
000290 7c 88 10 3b 2f d9 cf 3c 66 d6 e4 bb d6 3b 50 bd
       0.0022054007 0.025372116 -0.006983566 -0.050838314
0002a0 87 10 d8 bd 33 d7 18 be c0 09 fb 3d cc 88 ba bd
       -0.10550027 -0.14925842 0.12257719 -0.09108123
0002b0 6b f6 1f 3c ea bf 16 be c9 09 10 bd 95 56 3a 3d
       0.0097633405 -0.14721647 -0.03516558 0.045492727
0002c0 55 ae ed bd 05 ec bd 3c 83 a0 8c 3b 9f 50 5a be
       -0.11605517 0.023183832 0.0042915954 -0.21319817
0002d0 6f f9 67 3d af bc 35 3e a8 70 80 3d 69 e3 0f 3d
       0.056634363 0.17747758 0.062714875 0.035128985
0002e0 f2 21 bc bd 44 13 6e bd 3f f0 49 3d e6 53 bd 3c
       -0.09186162 -0.058123842 0.049301382 0.023111295
0002f0 61 b5 3f 3e 80 49 5f be d6 f1 d0 3c 5e b2 75 bd
       0.18721534 -0.21805382 0.025505941 -0.059984557
000300 86 4f a5 3c fa b8 b3 bd 9a c7 d7 3d 42 6f be 3a
       0.020179521 -0.08775516 0.10536118 0.0014529007
000310 ef 5b 25 be 01 7a cf bc 05 7b 20 3d b1 3e d7 bd
       -0.16148351 -0.02532673 0.03917982 -0.10510004
000320 91 8b d1 bc 54 b5 42 3d 7e ba 8e be 8d d6 23 be
       -0.025579246 0.04753621 -0.27876657 -0.15999813
000330 3b 4f 5d 3d 72 11 2e be 28 b9 89 3d 7f 1a 96 bd
       0.05403064 -0.16998842 0.06724769 -0.073292725
000340 67 cd 37 3d 8d 97 ca b9 9b e3 8b 3c ac 96 08 3d
       0.04487362 -0.00038641357 0.017076304 0.033346817
000350 9d 60 f5 bc 53 4d 17 3e 1a 89 46 bc 2b 66 52 3d
       -0.029953295 0.1477559 -0.0121176485 0.051366966
000360 a3 87 3d 3d f2 e5 41 bd db 66 c5 3d 85 77 56 3e
       0.04627193 -0.047338434 0.09638759 0.2094403
000370 79 46 43 bd c1 a8 a0 3d 35 2f d9 bd a3 29 e4 3d
       -0.04767463 0.07844687 -0.10604707 0.11140754
000380 33 bc 49 3d 67 81 c5 bd 75 bf ab bd 48 70 95 3d
       0.049251746 -0.09643822 -0.08386127 0.072968066
000390 d6 8b 96 bd bd 2d 38 3e 8e 74 98 bd 02 89 97 3d
       -0.0735089 0.17986198 -0.07444106 0.07399179
0003a0 0d 21 ed bc f2 a2 06 be 39 39 2d 3e ae a2 94 bd
       -0.028946424 -0.13148096 0.1691636 -0.07257591
0003b0 60 7e 36 be 1e 6e e5 3d 1d bc cd 3d 31 44 17 3d
       -0.17821646 0.11202644 0.100456454 0.036930267
0003c0 69 8f 49 3c 7a 61 3e bd 54 24 ba bd fd 8a 83 3d
       0.012302258 -0.04647968 -0.0908896 0.06422994
0003d0 d6 c7 9e bd 6a ac e9 3c 5b 96 68 bb 50 97 6d bd
       -0.077529594 0.028524596 -0.003549001 -0.05800563
0003e0 0e d9 62 bd 32 19 d7 bd 8f 06 96 3d 87 14 10 be
       -0.05538278 -0.105028525 0.0732547 -0.1407033
0003f0 e1 55 f7 bd 43 d7 97 bd e2 f9 3a bd eb bf ab bd
       -0.12076927 -0.07414105 -0.045648463 -0.08386215

fc2.bias f4 [84]
000000 a2 b5 a7 bd 7f b9 06 be b3 fa 00 be 15 eb af 3b
       -0.081889406 -0.13156699 -0.12595634 0.0053686
000010 a4 81 35 3c f0 3d fe 39 25 57 17 3e 30 0a 9c 3b
       0.011078272 0.00048492802 0.14779337 0.0047619566
000020 7a ad b4 3c 91 28 b5 bd a7 3b 86 bd b5 91 9c 3c
       0.022055376 -0.08845628 -0.065543465 0.019112447
000030 ea f9 e4 3b e9 80 3e 3c aa 03 f1 bd fc 2e b7 bc
       0.0069878 0.011627414 -0.11768277 -0.022361271
000040 57 32 d0 bd ba 73 f5 ba 63 d7 a1 bc 08 8e b1 bd
       -0.101658516 -0.0018726506 -0.019756025 -0.086696684
000050 38 78 87 3d f1 b6 00 3e 34 aa e3 bd 18 53 47 bd
       0.06614727 0.12569787 -0.11116448 -0.04866323
000060 f7 91 87 bd 2b 15 28 bd bc 99 61 3d 5d d7 83 3d
       -0.066196375 -0.041035812 0.055078253 0.06437562
000070 77 68 80 3d 2e 8d ec 3d 07 c2 71 3c d2 94 f3 bd
       0.06269925 0.115503654 0.014755732 -0.118936196
000080 94 99 48 3d c3 73 b7 3d 41 6e c9 bd ed c9 ca 3d
       0.04897459 0.08957627 -0.098354824 0.099017955
000090 77 6e 83 bb ba 9a 78 3d d7 5b d1 3d 61 72 c5 3c
       -0.004010971 0.060694434 0.10222595 0.024102392
0000a0 c9 76 54 3d 92 e5 ed bc b7 0a 5b bd a4 33 99 bc
       0.051871095 -0.029040132 -0.053477015 -0.018701382
0000b0 eb 44 bc bd a3 1c 5b bc 00 49 48 3d 82 35 14 3e
       -0.091928326 -0.013373527 0.048897743 0.14473537
0000c0 06 4a b1 bc de 4d 2f 3d a1 10 5a 3d 74 38 59 bd
       -0.021641742 0.04279887 0.053238515 -0.053032354
0000d0 33 b0 81 bb 29 49 85 3b 33 e7 f5 bd 96 7c 9f 3d
       -0.003957772 0.0040675593 -0.120069884 0.07787435
0000e0 08 5b 9d 3d 91 18 ca bd 9e 92 d8 bd 49 d2 9e 3b
       0.076833785 -0.09867967 -0.1057484 0.0048468453
0000f0 02 4b bd 3c 14 4b 96 3c aa 2a b4 b9 96 5f b2 bd
       0.023107056 0.018346347 -0.00034364063 -0.08709638
000100 93 5d 06 bb 21 84 aa bd e5 43 70 3b 98 23 89 bc
       -0.0020502552 -0.08325983 0.0036661562 -0.016740605
000110 d5 47 f1 3d 5c a1 46 bc 92 b9 2b 3d 37 c1 27 bc
       0.11781279 -0.012123432 0.04192502 -0.010238937
000120 92 79 28 bd 9e 2d 1d bc 8c b8 e2 bd 3a 0f 8d bc
       -0.041131563 -0.0095933955 -0.11070356 -0.017219175
000130 06 5c db bd 84 15 4a 3d 05 0f a5 3d 8e 88 e4 bd
       -0.107109115 0.049336925 0.080595054 -0.11158858
000140 3a 0d 98 3b 0c 3e bb 3d 65 3d 4e bd a5 76 33 3c
       0.0046402486 0.09142694 -0.05035152 0.01095358

fc3.weight f4 [10, 84]
000000 64 35 90 3d 5a 26 10 be e7 d7 4a 3d c5 4b 5e 3e
       0.070414335 -0.1407713 0.049522307 0.21708591
000010 ee de 13 be 23 58 92 bd f1 64 b7 bd d7 5d 8e 3d
       -0.1444051 -0.07145717 -0.089548 0.06951492
000020 4e 3a 3d 3e eb d6 a8 be 6b 6a c1 bd da 9e 05 be
       0.18479273 -0.3297647 -0.09444126 -0.13048878
000030 04 72 af 3d c4 8b d1 3d 37 be 56 be ca 17 3e 3e
       0.08566669 0.10231736 -0.20970999 0.18563762
000040 7f 3c 34 be fe cd 4f 3d d9 2e 70 be c8 76 18 be
       -0.17601202 0.05073356 -0.23455371 -0.14889061
000050 10 64 28 bd a6 05 2f 3e c3 51 76 be e0 93 f7 bd
       -0.041111052 0.17091998 -0.24054627 -0.12088752
000060 e1 f6 2a bd f7 c5 51 be 6e c4 1a 3e 28 a4 ad ba
       -0.04173935 -0.20485674 0.15113994 -0.0013247775
000070 24 be d0 3d d9 8c 56 bd 19 b8 89 be 02 f2 25 3c
       0.101925164 -0.052380417 -0.26898268 0.0101285
000080 19 bd db 3d ca 2e 88 be 51 5a 29 be d7 64 06 bd
       0.10729427 -0.26598197 -0.16538359 -0.032811012
000090 19 36 74 be cc 88 80 be 9d 9c 08 3d de c2 0e be
       -0.23848762 -0.25104368 0.033352483 -0.13941523
0000a0 16 5a 78 bd d0 f8 aa be 75 48 84 bd 22 4a ae be
       -0.060632788 -0.33392954 -0.064591326 -0.34040934
0000b0 5b 88 46 bd 13 81 8b 3d f2 be 80 3e f6 2f 32 3e
       -0.048469882 0.06811728 0.2514568 0.17401108
0000c0 a4 e0 37 be 7f c8 b3 bc 35 4b 17 3e 7a 63 99 bd
       -0.17956787 -0.02194619 0.14774783 -0.07489677
0000d0 34 cd d6 be 61 20 0e bd 79 aa 24 bd 8c db 10 3e
       -0.41953433 -0.034698848 -0.040201638 0.1414625
0000e0 4e d2 a1 ba 65 eb a3 3e 5a 01 11 bd 7a 48 88 bc
       -0.0012346001 0.3201553 -0.03540168 -0.016636122
0000f0 ca a5 46 be 9a 96 c5 bd e8 7d 37 be 00 95 36 3e
       -0.19399181 -0.096478656 -0.17919123 0.17830276
000100 d4 0e 1e 3e d7 f3 bd be b2 66 d2 bb 12 b2 96 be
       0.15435344 -0.37100098 -0.0064209336 -0.29432732
000110 22 6c ac be cd d1 94 3d 7a 6a c0 3d 01 f4 aa be
       -0.3367625 0.07266579 0.09395309 -0.33389285
000120 d2 f7 91 be e5 d6 10 bd a2 8f 06 3d 0b 62 dc 3d
       -0.28509384 -0.03536119 0.032851823 0.10760888
000130 02 fd db bc be 20 f1 3d 45 72 4f 3e 81 83 ab bd
       -0.026854042 0.11773823 0.20258434 -0.08374692
000140 1c 94 d7 3d 78 8e fb 3d e1 37 ee bd 60 f6 eb bc
       0.105262965 0.12283033 -0.11631752 -0.028804004
000150 8b 60 39 be 56 ca aa bd 92 be 5b be bc 73 17 3e
       -0.18103234 -0.08339374 -0.21459416 0.14790243
000160 62 74 0e 3e 67 c0 07 3e dd 32 e9 bd 33 24 91 bd
       0.13911584 0.1325699 -0.113866545 -0.070869826
000170 ec 99 d8 3d a0 24 3e 3e cb 8b 09 bd c3 0e 1f 3e
       0.10576233 0.18568659 -0.033580583 0.15532975
000180 2a 3f 17 3e a7 ae 15 3e 79 dd 53 3d ce c6 b6 3c
       0.14770189 0.14617406 0.051724885 0.022311594
000190 88 eb 04 be b8 b8 bf 3d a6 02 23 3d ad cb cb bc
       -0.12980473 0.09361404 0.039797448 -0.024877394
0001a0 15 76 53 bd 2e cf 83 3c 53 90 67 bd 3e 46 cd bc
       -0.051626284 0.016090002 -0.056534123 -0.025057908
0001b0 7d 28 ea bc 9c 9c 8e be 6c c1 ac be 73 7f 10 3e
       -0.02858376 -0.27853858 -0.3374132 0.14111118
0001c0 12 59 51 bd e8 24 82 be 75 f7 19 be cc e3 70 3c
       -0.051110335 -0.25418782 -0.15035804 0.0147027485
0001d0 c9 1f b4 3d 57 24 76 be a1 af 7c 3d 72 61 b7 be
       0.08795125 -0.240373 0.06169093 -0.35816532
0001e0 53 31 f3 bb ea b4 8a 3d c0 1c 58 3e 90 a1 18 be
       -0.0074216514 0.06772788 0.21104717 -0.14905381
0001f0 f3 a4 4b be 4e d5 18 3e 50 19 a8 3b d7 12 7f bd
       -0.19887142 0.1492512 0.0051299706 -0.062273826
000200 c5 b0 92 bd fe 68 9b 3d a6 88 d1 3d fc 8b 14 be
       -0.07162622 0.07588385 0.10231142 -0.14506525
000210 35 02 90 3c 3d b7 14 bc 11 a9 32 3e 84 36 4d 3e
       0.017579177 -0.009076891 0.17447306 0.20040327
000220 43 fc 9f 3e 21 41 83 3c 0d d5 01 bd 3a ae 72 be
       0.31247148 0.016022267 -0.03169732 -0.23699275
000230 0f d0 af bd c9 2f 3d be c3 94 98 bd fa ea be bb
       -0.08584606 -0.1847526 -0.07450249 -0.005826351
000240 89 bb 9d 3d 0a f1 79 bd d8 5b a9 3d 82 7a 37 3d
       0.07701785 -0.06102089 0.08269471 0.044794567
000250 7e be 09 3d a5 ae 35 bd c4 e1 55 3e 1d 49 7d be
       0.033628933 -0.044356007 0.20886904 -0.24734922
000260 97 13 82 be ac 9c d1 bd f1 47 ca 3d 77 9d 66 be
       -0.2540557 -0.10234961 0.09877003 -0.22521006
000270 b8 d1 09 3d 4e 62 b5 3d ee 00 f6 bc 13 1e ca 3d
       0.03364727 0.08856641 -0.03002974 0.098690175
000280 cc b2 24 3d 64 ac 3d be 9c e2 58 3d 96 2a 3f 3c
       0.040209576 -0.18522793 0.052950487 0.011667868
000290 20 23 b9 3d a5 9c 6f 3d f8 d0 35 be f7 7e 1f 3e
       0.09039903 0.058498997 -0.17755497 0.15575777
0002a0 3d 88 6a 3e d8 bf 12 be 10 2d df bc 9a b8 3e bd
       0.22903533 -0.14330995 -0.027243167 -0.04656277
0002b0 48 75 19 be f0 a1 00 bd 31 c8 94 be 1d 89 cc 3d
       -0.14986145 -0.031404436 -0.29058984 0.0998709
0002c0 2b a5 5a 3e e9 bf cc 3c 71 ff 81 bd 4b 95 e7 3d
       0.21352069 0.024993854 -0.0634755 0.11307772
0002d0 7f f4 29 3e 7a cd 0d 3e b1 ed 9a be 75 e1 9d bd
       0.16597174 0.13847914 -0.3025947 -0.07709018
0002e0 65 04 96 3c 39 b7 9d be 14 50 da bc db 25 13 be
       0.018312642 -0.3080385 -0.026649512 -0.1436991
0002f0 fb f4 d8 3c 7e 59 0a be e2 62 3c bd c8 f7 2c 3b
       0.026484003 -0.13510701 -0.04599274 0.0026392806
000300 0d 6b b7 3b ec e2 98 bc 0a 5b 99 bd 06 fb 49 3d
       0.0055974782 -0.018662892 -0.074880674 0.04931166
000310 96 e5 4d 3d 58 57 d9 bd 2a 00 0f 3e ce 88 a8 bd
       0.05026778 -0.106123626 0.13964906 -0.082292184
000320 e2 e4 42 be da 33 db bd 28 0f 97 3d ec 68 69 be
       -0.19032624 -0.10703249 0.07375938 -0.22793931
000330 35 0a d3 3d a2 a7 85 be ce 48 8d be fe e4 39 be
       0.10304681 -0.26104456 -0.27594608 -0.1815376
000340 b8 2d a0 bc 8b 33 a4 be b1 39 95 3c 13 c7 dd 3d
       -0.01955305 -0.32070574 0.018215986 0.10828986
000350 6e e1 92 bd f9 c1 22 3d 4c b1 00 3d fa 7c 3b be
       -0.071719036 0.039735768 0.031419083 -0.18309394
000360 f2 80 7a 3c cb fe 9b 3d 12 aa e7 3d b7 cb dd bd
       0.015289532 0.07616957 0.11311735 -0.10829871
000370 5f 8a c9 bd f0 e5 fd bd 4c eb fa 3b 05 42 db 3c
       -0.09840845 -0.12397373 0.007657444 0.026764879
000380 ec eb e9 3d f8 64 1e bd 60 f3 75 3d f6 dc e0 bd
       0.11421952 -0.03867051 0.060046554 -0.10979645
000390 a8 f5 df be 8a fe b7 bd e9 54 47 3e 6c c2 3e 3d
       -0.43742108 -0.08984096 0.19465984 0.046572134
0003a0 12 f8 62 be 04 27 10 be 7e 57 1f bd 48 4c 1b 3e
       -0.22164944 -0.14077383 -0.0389018 0.15165818
0003b0 86 6d ac 3d ce 23 da bd 1f 2c 7e be ce 94 d9 3d
       0.084193274 -0.106513605 -0.24821518 0.10624085
0003c0 ea 86 31 be 04 5c 87 3d db 03 b6 bd 92 bb 8e ba
       -0.17336622 0.066093475 -0.08887454 -0.001088964
0003d0 71 6c 83 bd 1b 26 83 3d bb 7c aa 3d b3 67 24 bc
       -0.06417168 0.064037524 0.08324572 -0.010034489
0003e0 c2 24 6f 3e 0d ac ca bc 1f c0 c7 bd 5f 43 76 3b
       0.23353866 -0.024740243 -0.09753441 0.0037576777
0003f0 7e df 0d 3b 88 e0 78 bc c3 27 70 bd ae 6a 24 bd
       0.0021648104 -0.015190251 -0.05863167 -0.0401408

fc3.bias f4 [10]
000000 1f e9 e2 3d cf d7 05 be 6a de b8 3c f3 28 a5 bd
       0.110796206 -0.13070606 0.022566993 -0.08064451
000010 36 71 9c bb 28 24 ca 3d cd d7 c5 3d 55 e8 87 bb
       -0.004774238 0.098701775 0.09660301 -0.004147569
000020 c7 1d b9 3d b1 af 0e 3c
       0.09038883 0.00870888
