Lab/Lab7_Data-Augmentation-CNN/CustomLeNet.pth (torch, 181296 bytes, 10 tensors)

conv1.weight f4 [6, 1, 5, 5]
0	0xbe0d5970	-0.13803649
1	0xbd370a78	-0.04468772
2	0x3ce8c29e	0.028413113
3	0x3c89dbab	0.016828379
4	0x3d3c6afc	0.046000466
5	0x3e11b5a3	0.14229445
6	0xbb9f3558	-0.004858654
7	0xbe16308b	-0.14666955
8	0x3e08b1da	0.13349095
9	0x3db3d81e	0.087814555
10	0x3d375afa	0.044764496
11	0xbe3623eb	-0.17787139
12	0xbda1b993	-0.078967236
13	0xbdaf774c	-0.08567676
14	0x3df6efb2	0.12057437
15	0xbcabe376	-0.020982485
16	0xbd33113e	-0.043717615
17	0xbd371fae	-0.044707946
18	0x3e2f4fd9	0.17120303
19	0xbd1861bc	-0.03720258
20	0xbd8d5663	-0.069012426
21	0x3e17ee42	0.14836982
22	0x3db544e6	0.08851032
23	0xbd22e1a2	-0.03976596
24	0x3da9d86d	0.08293233
25	0x3d443c34	0.047908977
26	0xbd0e201b	-0.034698587
27	0x3df62b28	0.1201995
28	0x3e05ed78	0.13078868
29	0xbca635ee	-0.020289388
30	0xbbc7239d	-0.0060772435
31	0x3e1b846c	0.15187234
32	0xbcd4f122	-0.025993887
33	0xbd5c07fa	-0.053718545
34	0xbd2dcaab	-0.042429607
35	0xbd513eca	-0.05108527
36	0xbd22f8ec	-0.03978817
37	0xbcb5530f	-0.022134332
38	0xbce88399	-0.028383063
39	0xbd9605b9	-0.0732531
40	0xbd37495a	-0.044747688
41	0x3e206817	0.15664707
42	0x3e26a446	0.16273603
43	0x3e1a8f36	0.15093693
44	0x3bb79509	0.005602483
45	0x3d50892e	0.050912075
46	0xbccda682	-0.025103811
47	0x3e15fde3	0.14647631
48	0xbe075ae0	-0.1321826
49	0x3dbaeffc	0.09127805
50	0x3e0651f6	0.13117203
51	0x3de4bbd3	0.11168637
52	0x3cbf2f4e	0.023337986
53	0xbc2d4875	-0.010576357
54	0x3e2fabbd	0.17155357
55	0xbde3c5f1	-0.11121739
56	0xbdedfb03	-0.11620142
57	0x3ded83cc	0.11597404
58	0x3dd7affb	0.105316125
59	0x3e360278	0.17774379
60	0xbd07277a	-0.032996632
61	0xbd220fac	-0.039565727
62	0x3e226871	0.15860154
63	0x3de3d6da	0.11124964
64	0xbe1c9f14	-0.15295058
65	0xbdb9775d	-0.0905597
66	0xbe3c0457	-0.1836103
67	0xbe0bc11e	-0.13647887
68	0xbc24e9c1	-0.010065497
69	0x3dea7f56	0.11450069
70	0xbda21d9f	-0.07915806
71	0x3e088480	0.13331795
72	0xbdcd0046	-0.10009818
73	0xbda694e8	-0.0813387
74	0x3d6a9f6c	0.057280943
75	0x3d8ea928	0.06965858
76	0x3d11360a	0.035451926
77	0xbe2f0e71	-0.17095353
78	0x3d34dc2b	0.04415528
79	0x3e15ce18	0.146294
80	0x3de49778	0.11161703
81	0xbd5e66ea	-0.054297365
82	0xbe40094e	-0.1875355
83	0xbdb84e09	-0.08999259
84	0x3c3d0cc6	0.01153869
85	0xbddd37ff	-0.10801696
86	0xbe401da2	-0.18761304
87	0xbc460732	-0.012086676
88	0x3dae47c0	0.08509779
89	0xbe116426	-0.1419836
90	0xbe51679e	-0.20449683
91	0xbe2fabde	-0.17155406
92	0x3df7fac1	0.121083744
93	0xbb87e6a3	-0.004147367
94	0xbdb72165	-0.089419164
95	0xbca2b9ad	-0.019863928
96	0xbd068193	-0.032838415
97	0x3e38d88f	0.1805136
98	0xbe3d882e	-0.1850898
99	0xbe31b09e	-0.1735253
100	0x3d4ad485	0.04951908
101	0xbdcecf20	-0.100981
102	0xbe0d1eb8	-0.1378125
103	0xbd9fd132	-0.07803573
104	0x3c7bee53	0.015376645
105	0xbd97746e	-0.07395254
106	0xbd5d8525	-0.054082055
107	0xbe147f6e	-0.14501736
108	0xbe0b435d	-0.13599916
109	0x3d1496bd	0.036276568
110	0x3c8a6499	0.016893672
111	0xbe24a994	-0.16080314
112	0x3d71caa7	0.059031155
113	0x3ca99541	0.020701053
114	0x3d0666bb	0.032812815
115	0xbd7ac6b9	-0.061224673
116	0xbe2829ec	-0.16422242
117	0x3e3b5271	0.18293168
118	0xbbfef946	-0.0077811806
119	0xbd3dfdb4	-0.04638453
120	0x3de9f201	0.11423112
121	0xbe13c826	-0.1443182
122	0xbd430a39	-0.04761717
123	0xbdbf35e3	-0.0933645
124	0x3db4bff8	0.08825678
125	0xbc7e241e	-0.015511541
126	0xbda3377b	-0.079695664
127	0xbe1d506d	-0.15362711
128	0xbe118b09	-0.14213194
129	0xbe0876cc	-0.13326567
130	0xbe0306cb	-0.1279556
131	0x3e254a6d	0.16141672
132	0xbdfe68c1	-0.12422324
133	0x3d0675f7	0.032827344
134	0x3dd5fccf	0.1044861
135	0xbd8d09f0	-0.06886661
136	0x3e318fbd	0.17339988
137	0xbcf640a4	-0.03006012
138	0xbe49c7c5	-0.19705112
139	0x3ddba364	0.10724524
140	0xbdbf2aea	-0.09334357
141	0xbd7b77e4	-0.061393633
142	0x3e2ab982	0.16672328
143	0xbe4138c6	-0.18869314
144	0xbe2f6ba4	-0.17130905
145	0xbd3f4efa	-0.046706177
146	0xbe0ad39b	-0.13557284
147	0xbe1cbd4f	-0.1530659
148	0x3e33f53b	0.17574017
149	0x3e2d1a25	0.16904505

conv1.bias f4 [6]
0	0xbde8cb10	-0.11366856
1	0xbcc1b6c5	-0.023646722
2	0x3e44e2bb	0.19227116
3	0x3c58973b	0.01321965
4	0xbe24d72d	-0.16097708
5	0xbdf3a8f6	-0.11897461

conv2.weight f4 [16, 6, 5, 5]
0	0xbd654fc5	-0.055984277
1	0xbc18203c	-0.009285029
2	0x3d4226b2	0.047400184
3	0xbd40827c	-0.04699944
4	0xbda1aad7	-0.07893913
5	0x3d6939fa	0.056940056
6	0xbd986e9d	-0.07442973
7	0xbc193a22	-0.009352239
8	0x3d5c2148	0.053742677
9	0xbd8a38a4	-0.067490846
10	0x3d03ab96	0.03214606
11	0x3b43f171	0.002989855
12	0xbd8db32c	-0.0691894
13	0xbd947887	-0.07249551
14	0xbc5cf99f	-0.013487249
15	0xbc591b19	-0.0132510895
16	0x3d3afb86	0.045650028
17	0x3d87c8da	0.06630106
18	0xbb7953a1	-0.0038044231
19	0xbb8679c1	-0.0041038697
20	0x3c9e92a4	0.019357033
21	0x3d2c1d23	0.042019974
22	0x3d56dd33	0.052457046
23	0x3d475f7b	0.04867504
24	0x3a363340	0.0006950386
25	0x3d821f3d	0.063536145
26	0x3d39f876	0.045402966
27	0xbd633bba	-0.05547688
28	0xbd5795c0	-0.052633047
29	0xbbf1311b	-0.00736059
30	0x3da5305b	0.08065864
31	0xbc845839	-0.01615535
32	0xbd92a81a	-0.07160969
33	0x3b4f6a6e	0.003164913
34	0xbd5d4d61	-0.054028872
35	0x3cd71f8f	0.026260165
36	0xbcf3d94f	-0.029766707
37	0x3cd0f845	0.02550901
38	0xbd8c13f8	-0.06839746
39	0xbd35f402	-0.044422157
40	0x3da0c7d1	0.07850612
41	0xbd034fde	-0.03205859
42	0xbd194594	-0.03741987
43	0x3d825606	0.06364064
44	0xbc5f79c7	-0.013639874
45	0xbcb0edde	-0.021597799
46	0x3bc7a40b	0.0060925535
47	0x3c522966	0.012827253
48	0x3c919a58	0.017773792
49	0xbdb5e878	-0.088822305
50	0x3d478f00	0.04872036
51	0x3d8d122b	0.06888231
52	0xbc185717	-0.009298108
53	0x3b0abb90	0.0021168925
54	0x3c73bf5a	0.014877165
55	0x3ce3ddb1	0.027815672
56	0xbcbdb03e	-0.023155328
57	0x3d6c9269	0.057756815
58	0xbae9ee73	-0.0017847553
59	0x3d9c2513	0.07624259
60	0x3d5fe324	0.054659978
61	0xb9fc2d40	-0.000480989
62	0x3d0183a7	0.031619694
63	0xbd1b51b3	-0.03791971
64	0x3d663303	0.056200992
65	0x3d436c11	0.047710482
66	0xbd109e7a	-0.035307385
67	0xbd072a7f	-0.03299951
68	0xbcfa3546	-0.03054298
69	0x3d887b58	0.06664151
70	0xbda0c6a8	-0.07850391
71	0x3b63e420	0.0034773424
72	0xbd8b29b5	-0.06795064
73	0xbba511b5	-0.0050375112
74	0x3d83cfc4	0.064361125
75	0x3d720f9b	0.059096914
76	0xbcadca8c	-0.021214746
77	0xbcd5431c	-0.026032977
78	0xbd2a48a7	-0.041573193
79	0xbd5e2a76	-0.054239713
80	0xbd386f3a	-0.04502795
81	0xbc3c407c	-0.011489984
82	0x3c7c1151	0.015384988
83	0xbd58a7d4	-0.05289443
84	0x3d80a04d	0.06280575
85	0x3d97904c	0.07400569
86	0x3d156dd9	0.036481712
87	0xbd8aa265	-0.067692555
88	0x3ba7ecaa	0.005124648
89	0xbc36e4b2	-0.011162924
90	0xbd874d6c	-0.06606564
91	0xbce05e68	-0.027388766
92	0xbcd5a370	-0.02607891
93	0x3da46eb2	0.08028926
94	0x3d4ca18a	0.049958743
95	0xba82de93	-0.0009984545
96	0xbcc4ff98	-0.024047658
97	0xbd264f2d	-0.04060285
98	0x3d9a6a05	0.07539753
99	0xbb883063	-0.004156159
100	0xbd9cc6f3	-0.07655134
101	0xbd51fc40	-0.051265955
102	0xbd831b42	-0.064016834
103	0xbceb654b	-0.028734824
104	0x3c36ed6f	0.011165007
105	0xbd98438d	-0.07434759
106	0x3d700afe	0.058604233
107	0xbcf2186d	-0.029552663
108	0xbdc40562	-0.09571339
109	0xbc056cf3	-0.008143651
110	0xbd27301f	-0.040817376
111	0xbd812779	-0.06306357
112	0xbd9ec1ad	-0.077517845
113	0xbba2a236	-0.0049631847
114	0xbd1029c2	-0.035196073
115	0x3d280fac	0.04103057
116	0xbd895bcb	-0.06706961
117	0xbd46f8de	-0.048577182
118	0x3cdb5d92	0.026778016
119	0xbdabe52e	-0.08393322
120	0x3d24253f	0.040074583
121	0xbda65582	-0.08121778
122	0x3c6c88ac	0.014436882
123	0xbd7a3ad3	-0.061091255
124	0xbcc4d3db	-0.024026802
125	0x3d95289f	0.072831385
126	0x3d8060d2	0.06268467
127	0xbda5277d	-0.080641724
128	0x3d9971dd	0.07492421
129	0x3cb9a9df	0.022664009
130	0xbd95d5bb	-0.073161565
131	0xbd919143	-0.071077846
132	0xbd9bfcce	-0.07616578
133	0x3c0f50f9	0.008747333
134	0x3c3da7d3	0.011575657
135	0xbc59a308	-0.013283499
136	0x3c1c2998	0.009531401
137	0x3c82b02e	0.01595315
138	0xbda80797	-0.08204573
139	0x3cab4f89	0.020911949
140	0xbd2706e8	-0.04077807
141	0x3d289b29	0.041163597
142	0x3cf86663	0.03032226
143	0x3d145b6b	0.036219995
144	0x3c9a5118	0.018837497
145	0xbd415933	-0.047204208
146	0xbd5cb17b	-0.053880196
147	0xba5b412d	-0.0008363899
148	0xbb260e7e	-0.0025338228
149	0xba8bd877	-0.001066937
150	0xbc869cb2	-0.01643214
151	0xbd1a8d42	-0.03773237
152	0xbc2c5979	-0.010519379
153	0x3d2c8f98	0.04212913
154	0xbd6c18a3	-0.057640683
155	0xbd59cc8a	-0.05317358
156	0xbd2e5476	-0.042561017
157	0xbd39249a	-0.04520092
158	0x3d87d3b1	0.06632174
159	0xbd0ac908	-0.033883125
160	0xbce44963	-0.027867025
161	0xbd003a15	-0.03130539
162	0xbd507aad	-0.050898243
163	0x3c836fd6	0.016044538
164	0x3cbe11e7	0.023201896
165	0xbd9f7653	-0.077862404
166	0xbc0e6eaf	-0.008693381
167	0xbd8a6e52	-0.06759323
168	0xbd896cf0	-0.06710231
169	0xbb57a309	-0.0032903573
170	0xbd8e5234	-0.06949273
171	0x3c69975c	0.014257278
172	0x3c0c91be	0.0085796695
173	0x3d298462	0.041386016
174	0x3c04e000	0.008110046
175	0xbda518d3	-0.080613755
176	0x3d31c600	0.04340172
177	0x3d897a68	0.067128
178	0x3c35f9f8	0.0111069605
179	0xbcc2caed	-0.023778403
180	0xbd23d6ab	-0.039999645
181	0x3b4cdd1b	0.0031259719
182	0x3d6ba515	0.05753048
183	0xbc404f85	-0.011737709
184	0x3dacb7c7	0.0843349
185	0x3d87ca2d	0.06630359
186	0x3d4fd5d2	0.050741024
187	0xbc905c25	-0.017622063
188	0x3d802474	0.06256953
189	0x3d0b2382	0.03396941
190	0xbd9dfe0b	-0.077144705
191	0xbc4536ee	-0.012037022
192	0xbd13174d	-0.035910893
193	0x3d505608	0.050863296
194	0xbcf6f8db	-0.03014796
195	0xbd86baf3	-0.065786265
196	0x3d24ee7d	0.040266503
197	0xbc0eca83	-0.008715275
198	0x3d828c0c	0.06374368
199	0x3d542df8	0.05180165
200	0x3d969dd9	0.07354326
201	0x3d00ef48	0.031478196
202	0xbd44080a	-0.04785923
203	0xbd9957ed	-0.07487474
204	0x3c970390	0.018434316
205	0x3d86054c	0.06543979
206	0x3c4aaf07	0.012370831
207	0xbd58ec9b	-0.05296002
208	0xbd9d07eb	-0.07667526
209	0xbd4de8aa	-0.050270714
210	0xbda6888c	-0.08131513
211	0xbd8e00ae	-0.069337234
212	0xbd1cd7f6	-0.038291894
213	0x3cf698e0	0.030102193
214	0x3b06bcca	0.0020559304
215	0xbcb47444	-0.022028096
216	0xbd7a6d7b	-0.061139565
217	0x3ce8aac3	0.028401738
218	0xbc9da58b	-0.019243976
219	0x3d79bb57	0.060969677
220	0xbc9e8063	-0.019348329
221	0x3d1f7e0d	0.03893857
222	0x3d920cc5	0.07131342
223	0x3d694f14	0.05696018
224	0xbd9d8016	-0.07690446
225	0xbd88dee8	-0.06683141
226	0xbd93bbe2	-0.0721357
227	0xb99d2a6d	-0.00029976983
228	0xbc92bdeb	-0.017912826
229	0x3d8f5730	0.069990516
230	0x3d8ef7d1	0.06980861
231	0xbd2b1a2e	-0.041773014
232	0x3d928e70	0.07156074
233	0x3d6e7f72	0.05822701
234	0x3d969cf7	0.073541574
235	0xbd1abf60	-0.037780166
236	0xbcc614e3	-0.024179881
237	0xbbc206a7	-0.005921203
238	0xbd730c46	-0.059337877
239	0xbc7852a8	-0.015156426
240	0x3d8c7289	0.06857783
241	0x3d8dd663	0.06925657
242	0x3d8edffd	0.06976316
243	0xbc905301	-0.017617704
244	0x3ccc9c84	0.024976976
245	0xbd1b9967	-0.037988093
246	0xbdb2b3b3	-0.08725681
247	0xbd88f211	-0.066867955
248	0x3d2846f8	0.041083306
249	0xbda27148	-0.07931763
250	0xbd8e628c	-0.0695239
251	0xbccd64e6	-0.025072526
252	0x3b59bfdc	0.003322593
253	0xbd77cc7f	-0.060497757
254	0xbd69f084	-0.05711414
255	0xbd89d4c9	-0.06730039

conv2.bias f4 [16]
0	0xbd8e8907	-0.0695973
1	0xbda140b4	-0.07873669
2	0xbce13a4f	-0.027493624
3	0x3d13303d	0.035934675
4	0xbc9d6918	-0.019215152
5	0x3d481ad4	0.04885371
6	0xbd90b1ff	-0.070652
7	0xbd776221	-0.060396317
8	0x3d97d041	0.07412768
9	0xbcac04ba	-0.020998348
10	0x3bebd804	0.007197382
11	0xbd9b95f0	-0.07596958
12	0xbd362cac	-0.044476196
13	0x3d076364	0.03305377
14	0xbbfdbd56	-0.007743518
15	0xbbf5fe7a	-0.0075071426

fc1.weight f4 [120, 256]
0	0x3d57e318	0.052706808
1	0x3d820136	0.06347887
2	0x3d689bd0	0.05678922
3	0x3b7b7c3a	0.0038373605
4	0xbc910d54	-0.01770655
5	0x3d3e87ec	0.046516344
6	0x3d39fac1	0.045405153
7	0x3d66336e	0.05620139
8	0xbd35ec3c	-0.044414744
9	0x3cdfbcaa	0.027311642
10	0xbd25297d	-0.04032277
11	0x388477cb	6.316564e-05
12	0xbcce89c4	-0.025212176
13	0xbd14211e	-0.036164396
14	0x3d7c522c	0.061601803
15	0xbd33ac77	-0.043865647
16	0x3b109b34	0.0022065165
17	0x3c32d5f8	0.010915272
18	0xbd31049b	-0.043217283
19	0x3d4e6883	0.05039264
20	0x3d0a504a	0.033767976
21	0xbb28a68c	-0.0025734035
22	0x3d56a352	0.05240185
23	0xbd6b36e9	-0.057425413
24	0x3cea458a	0.028597612
25	0x3b511294	0.0031901943
26	0xbc593107	-0.013256318
27	0xbd4881c4	-0.04895188
28	0x3d179f38	0.037017077
29	0x3d320a5c	0.04346691
30	0xbd381454	-0.04494126
31	0x3c941743	0.018077498
32	0x3d2f8699	0.04285297
33	0x3cbc5cb3	0.022993421
34	0x3b13fb7e	0.002258032
35	0xbd503c5f	-0.050838824
36	0xbd4bdbf8	-0.049770325
37	0xbcb4f8ed	-0.022091353
38	0xbd42d185	-0.047563095
39	0x3d86370c	0.06553468
40	0xbc9dd954	-0.01926867
41	0xbd1afc95	-0.037838537
42	0xbce48dd2	-0.027899656
43	0x3b0f3917	0.0021854097
44	0xbd4cb136	-0.04997369
45	0xbbc4a5b2	-0.0060011977
46	0x3d616824	0.055030957
47	0xbd1094c6	-0.03529813
48	0x3d4ae6a3	0.04953636
49	0xbce556fc	-0.027995579
50	0x3caa6e1a	0.020804454
51	0xbcf910a0	-0.030403435
52	0x3cd27722	0.025691573
53	0xbb4b8980	-0.0031057298
54	0xbd772ea8	-0.06034723
55	0xbce92ac8	-0.028462783
56	0x3d37a8fa	0.044838883
57	0x3ccc6dac	0.02495464
58	0x3caf9d58	0.021437332
59	0x3ced1622	0.028941218
60	0xbd5e3800	-0.054252625
61	0xbd72445c	-0.059147224
62	0x3d188700	0.03723812
63	0xbc0c236f	-0.00855337
64	0xbccaeb0c	-0.024770282
65	0xbd4c18a8	-0.0498282
66	0x3d4b1d17	0.04958829
67	0xbd31afd2	-0.043380566
68	0xbc35a951	-0.011087731
69	0x3c32ecca	0.010920713
70	0xbd5b202b	-0.053497475
71	0x3d41372f	0.047171768
72	0xbca7da58	-0.020489857
73	0xbc92203d	-0.017837638
74	0xbcef916c	-0.029244147
75	0x3d2bf8ea	0.04198543
76	0xbd3b4427	-0.045719292
77	0x3d7433e0	0.059619784
78	0xbd6bdd11	-0.057583872
79	0x3d69b09c	0.057053193
80	0x3d56ffaf	0.052489933
81	0x3d0b362b	0.033987205
82	0x3d314137	0.043275084
83	0x3bf07db6	0.0073392047
84	0x3d01b1e5	0.031663794
85	0x3cefd658	0.029277012
86	0x3d0da3ac	0.034579918
87	0x3c15ff58	0.009155117
88	0xbb1be059	-0.0023784845
89	0xbc844595	-0.01614646
90	0x3c91c54f	0.01779428
91	0x3cc80dc5	0.024420628
92	0xbd3e4078	-0.0464482
93	0x3cc6dc2d	0.02427491
94	0x3ba347db	0.004982931
95	0xbd41c19d	-0.047303785
96	0xba8bd12d	-0.0010667198
97	0xbd5247f8	-0.051338166
98	0x3d66a6d3	0.05631144
99	0xbd77fe2b	-0.060545128
100	0x3d440560	0.04785669
101	0xbcd45e1d	-0.025923783
102	0xbd7ad8d3	-0.061241936
103	0x3d5af46f	0.053455766
104	0xbc687c7d	-0.014189837
105	0xbd1e2893	-0.038612913
106	0xbd85cd48	-0.06533295
107	0xbcdc765d	-0.026911909
108	0xbc1c6b61	-0.0095470855
109	0x3b2099ab	0.0024505656
110	0x3d3b09aa	0.045663513
111	0x3d652b7f	0.055949684
112	0xbd32d999	-0.04366455
113	0x3cf267e8	0.029590562
114	0x3cf82ab6	0.030293804
115	0x3cf49ef4	0.029860951
116	0xbc821f63	-0.015884107
117	0x3bcb3823	0.0062017604
118	0x3c340dec	0.010989647
119	0x3be6a8c7	0.007039163
120	0x3d272c21	0.04081357
121	0xbd4bd03d	-0.04975914
122	0x3d57c33b	0.05267642
123	0xbd02cfa0	-0.031936288
124	0xbbf13d7a	-0.007362065
125	0xbd14c565	-0.036321063
126	0x3d3b1b10	0.045680106
127	0xbd2778d4	-0.040886715
128	0xbd76bd25	-0.060238976
129	0xbc091cda	-0.008368695
130	0xbd5f68d5	-0.054543335
131	0xbd1fc9ad	-0.039010692
132	0xbd8da0b4	-0.06915417
133	0xbd3f1bff	-0.04665756
134	0xbd8b77e4	-0.06809977
135	0x3d322dca	0.0435007
136	0xbc75df34	-0.015006829
137	0xbd2413f4	-0.04005809
138	0xbb7847f2	-0.003788468
139	0x3cd209d2	0.025639448
140	0x3d3d7c32	0.04626102
141	0xbb67e272	-0.0035382775
142	0x3c9d2fa8	0.019187763
143	0xbc6c4817	-0.014421484
144	0xbc376cfd	-0.011195418
145	0xbba95f2b	-0.0051688156
146	0xbc5047e3	-0.012712452
147	0x3c0514de	0.008122651
148	0x3bde60c5	0.006786438
149	0xbc3334f0	-0.010937914
150	0xbcbd21b3	-0.023087358
151	0x3bdcc90b	0.0067378334
152	0xbd4701c3	-0.048585664
153	0xbcae85d6	-0.021304052
154	0xbd87550c	-0.06608018
155	0x3c314317	0.010819218
156	0x3d83bc52	0.064324036
157	0xbc998ece	-0.018744852
158	0x3d2f260b	0.04276089
159	0x3d4a4647	0.049383428
160	0xbd5c3ba7	-0.053767826
161	0x3d65f698	0.056143373
162	0xbc0c448b	-0.008561264
163	0x3c05de83	0.008170727
164	0x3d45d479	0.048298333
165	0x3c1f3450	0.009717062
166	0xbd25a196	-0.040437303
167	0x3d8ee229	0.069767304
168	0xbd0543ec	-0.03253548
169	0xbd4713c9	-0.048602853
170	0xbc03ec28	-0.0080519095
171	0xbac18324	-0.0014763814
172	0x3c9d28b0	0.01918444
173	0x3d19000a	0.037353553
174	0x3cb91a93	0.02259568
175	0x3caa213c	0.0207678
176	0x3d005f89	0.03134111
177	0xbd517b29	-0.051142845
178	0x3d18bdc9	0.03729037
179	0x3d2a2ef3	0.04154868
180	0xbc55f4ca	-0.013058851
181	0x3d0fbc43	0.03509165
182	0x3d36eabf	0.044657465
183	0xbc5b631a	-0.013390327
184	0xbd534146	-0.05157592
185	0xbd002653	-0.03128655
186	0xbc84772b	-0.016170105
187	0x3c8ddf61	0.01731843
188	0x3d31e63e	0.043432467
189	0xbd66964e	-0.056295685
190	0xbb4da8b0	-0.0031381063
191	0xbce5bdc5	-0.02804459
192	0x3ab99327	0.0014158235
193	0xbbe582a9	-0.0070041013
194	0xbd4023ba	-0.04690907
195	0x3d2737b8	0.040824622
196	0xbce79385	-0.028268585
197	0xbd517b28	-0.05114284
198	0xbcef81b9	-0.029236661
199	0xbd3a1d50	-0.04543811
200	0x3bbadea0	0.0057028085
201	0x3d3b08a6	0.045662545
202	0x3d4bb51a	0.04973326
203	0xbc053889	-0.008131155
204	0xbd37b2d2	-0.04484827
205	0xbcde479a	-0.027133752
206	0x3cf97962	0.030453388
207	0x3ce03969	0.027371125
208	0xbd60fc35	-0.054928023
209	0x3bd00c34	0.006349111
210	0xbca94ffc	-0.020668022
211	0xbc31310a	-0.0108149145
212	0xbd125ec7	-0.035734918
213	0xbd52270a	-0.05130676
214	0x3c8eee38	0.017447576
215	0x3d5b0179	0.0534682
216	0xbd6c01e7	-0.057619
217	0xbd6d1ecb	-0.057890695
218	0x3c7fae01	0.015605451
219	0xbd352890	-0.044228137
220	0x3c5120d7	0.012764177
221	0xbd04b033	-0.0323946
222	0xbce76696	-0.028247159
223	0x3cf43e84	0.029814966
224	0xbd6e49d3	-0.058175873
225	0x3d0f6116	0.035004698
226	0x3d0c6c38	0.034282893
227	0xbd83afe0	-0.0643003
228	0xbd835067	-0.0641182
229	0xbc94b0a6	-0.018150639
230	0xbbc6047f	-0.0060430164
231	0xbd4ffd2b	-0.05077855
232	0xb9aabfac	-0.00032567733
233	0xbbc32233	-0.0059550046
234	0xbd4ab66b	-0.049490374
235	0xbc85af55	-0.016318956
236	0x3c09549e	0.008381991
237	0x3d0f4fc4	0.03498818
238	0x3afe1fa4	0.0019388092
239	0xbbc8fa37	-0.0061333436
240	0xbc17496d	-0.009233815
241	0x3c8a9e38	0.016921148
242	0xbd744fd9	-0.05964646
243	0x3d71f679	0.059072945
244	0xbcaab981	-0.020840408
245	0xbcc90e83	-0.024543053
246	0xbca6ac16	-0.020345729
247	0x3d1dc8d7	0.038521614
248	0x3c3f4d47	0.011676139
249	0xbd5e601f	-0.054290887
250	0x3b55acbe	0.0032604183
251	0xbd45d49b	-0.04829846
252	0xbd8bb335	-0.068212904
253	0x3b9f33c7	0.0048584673
254	0xbcd0eefc	-0.025504582
255	0x3cb6f352	0.022332821

fc1.bias f4 [120]
0	0xbd5d8819	-0.05408487
1	0x3d161180	0.036637783
2	0x3c83d5ee	0.01609322
3	0xbbc08a88	-0.005875889
4	0xbd2720d8	-0.040802807
5	0xbc2b6d11	-0.010463015
6	0xbcfcb822	-0.03084952
7	0xbd5506ee	-0.05200856
8	0xbd23c69b	-0.039984327
9	0xbbce11b9	-0.006288734
10	0xbd55da4b	-0.052210134
11	0xbd18e4eb	-0.03732769
12	0x3d21daf8	0.039515465
13	0xba7097fc	-0.0009177921
14	0xbd1cf617	-0.038320627
15	0xbcf1d46d	-0.029520238
16	0xbce884a1	-0.028383555
17	0xbba420f7	-0.0050088125
18	0xbd8eb8ca	-0.069688395
19	0xbc9082c9	-0.017640488
20	0xbd02a74a	-0.03189782
21	0x3b780e32	0.0037850258
22	0xbd095714	-0.03353031
23	0x3bb781fa	0.005600211
24	0x3d23e998	0.040017694
25	0x3c63dd51	0.013907746
26	0xbd88b56d	-0.06675229
27	0xbd2c823a	-0.04211638
28	0x3bc58ba1	0.006028608
29	0xbd125bda	-0.035732128
30	0xbd8cdaee	-0.06877695
31	0x3c561993	0.013067621
32	0xbcf648a3	-0.030063933
33	0x3d1fff3b	0.039061766
34	0x3d504034	0.05084248
35	0x3ce69337	0.02814637
36	0x39bca2c2	0.00035979418
37	0xbc7f26b6	-0.015573194
38	0x3d517663	0.051138293
39	0xbcc3db94	-0.023908414
40	0x3d69dfa3	0.057098042
41	0x3cd0598d	0.025433326
42	0xbd5f4391	-0.054507796
43	0xbd0435db	-0.032277923
44	0xbd3ee77d	-0.046607483
45	0x3cc5f4ca	0.024164576
46	0xbd6a57bc	-0.057212576
47	0xbd4746e8	-0.048651606
48	0x3d59c5da	0.0531672
49	0x3b417839	0.0029521121
50	0xbaafe0ec	-0.0013418472
51	0x3d802099	0.062562175
52	0x3d04372d	0.032279182
53	0xbce3d2ad	-0.027810419
54	0xbd84aaa8	-0.064778626
55	0xbbad8e07	-0.005296472
56	0xbce92e68	-0.028464511
57	0xbc891822	-0.01673514
58	0xbc09d5f1	-0.008412824
59	0xbaad118b	-0.0013204081
60	0xbd776667	-0.060400393
61	0xbd466f6b	-0.0484461
62	0xbd617cc9	-0.055050645
63	0x3cdcce8e	0.026953962
64	0xbd665c75	-0.056240518
65	0xbd1a5502	-0.037678726
66	0x3d54090c	0.05176644
67	0xbcb42424	-0.02198989
68	0x3c22273d	0.00989705
69	0xbd668035	-0.05627461
70	0x3c2fa1cd	0.010719729
71	0x3d230b84	0.039805904
72	0x3d1531f7	0.036424603
73	0x3ca647d0	0.020297915
74	0xbcbf1aa1	-0.023328127
75	0xbb5a172a	-0.0033277967
76	0x3d44f4f0	0.048085153
77	0x3b0299bb	0.0019928056
78	0x3cadd06f	0.021217553
79	0xbaaf6b7e	-0.0013383476
80	0xbcd29521	-0.025705876
81	0xbc4b8f7a	-0.012424344
82	0xbd54d37b	-0.051959496
83	0xbc3ebcb6	-0.011641672
84	0x3d2d5a10	0.04232222
85	0xbd0758e6	-0.033043765
86	0x3d65bd4f	0.056088742
87	0xbd160148	-0.036622316
88	0xbd8b4e81	-0.06802083
89	0xbb6f7fe3	-0.0036544732
90	0x3cc77244	0.024346478
91	0x3c343671	0.010999308
92	0x3d66265c	0.056188926
93	0xbd940e1b	-0.07229253
94	0xbccda267	-0.025101854
95	0xbc5f3a76	-0.013624778
96	0xbbcd65b0	-0.0062682256
97	0xbd660a5a	-0.056162216
98	0xbd6a6cfd	-0.057232846
99	0xbc274cdf	-0.010211199
100	0xbc8baed8	-0.017051145
101	0xbce54066	-0.02798481
102	0xbd4728a7	-0.048622753
103	0xbcee5e11	-0.029097589
104	0x3c49be6b	0.012313466
105	0xbce36098	-0.02775602
106	0x3c58b30b	0.013226281
107	0x3d1b15c6	0.03786256
108	0xbd01337f	-0.03154325
109	0x3d190569	0.037358675
110	0xbc7c193b	-0.015386875
111	0xbd3c4bb9	-0.045970652
112	0xbca93fb9	-0.020660268
113	0x3d241c4b	0.040066045
114	0xbd447ad6	-0.047968708
115	0x3d2839c1	0.041070703
116	0x3d675117	0.056473818
117	0x3d33046c	0.04370539
118	0xbccab9a5	-0.024746725
119	0xbb97bea3	-0.00463088

fc2.weight f4 [84, 120]
0	0xbd92616b	-0.07147487
1	0xba8d2d9d	-0.001077104
2	0xbda980e3	-0.08276536
3	0x3d5781aa	0.05261389
4	0x3c979a3d	0.018506164
5	0xbd21eea2	-0.03953422
6	0x3d40fa08	0.04711345
7	0x3c2d8a10	0.010591999
8	0xbd1eb106	-0.03874304
9	0x3c9206b8	0.01782547
10	0xbd1e2297	-0.038607206
11	0xbd044069	-0.03228799
12	0xbdb71bc8	-0.08940846
13	0x3be53440	0.006994754
14	0xbd84260b	-0.064525686
15	0x3d8dd792	0.069258824
16	0xbda2f384	-0.07956603
17	0xbd82101d	-0.063507296
18	0x3c110117	0.0088503575
19	0x3da2bf53	0.079466484
20	0xbc97c209	-0.01852514
21	0xbce2df3a	-0.027694333
22	0xbb6309d1	-0.0034643302
23	0xbad4fa8a	-0.0016248983
24	0x3c080871	0.008302794
25	0xbd0a0aba	-0.033701636
26	0xbd82ca88	-0.06386286
27	0x3d09ec7e	0.033672802
28	0x3d8b09fc	0.06789014
29	0xbca8137c	-0.020517103
30	0xbd821bd4	-0.06352964
31	0xbda5334f	-0.08066427
32	0xbdab7cdd	-0.08373425
33	0x3d9e0c52	0.07717194
34	0xbd823b44	-0.0635896
35	0x3baeb6d4	0.0053318534
36	0xbb87a3df	-0.004139408
37	0xbdc2b587	-0.0950728
38	0x3d5c4fb9	0.053786967
39	0x3d961b5b	0.073294364
40	0x3dcbe92c	0.099565834
41	0xbaaa6712	-0.0013000688
42	0xbbceebe4	-0.0063147414
43	0xbd85e99c	-0.06538698
44	0xbd63035f	-0.055423137
45	0xbd3002ed	-0.04297154
46	0xbcfc4268	-0.030793384
47	0xbd4564d1	-0.04819185
48	0x3d8b992a	0.06816323
49	0x3d4745d8	0.048650593
50	0x3d69cb68	0.05707875
51	0xbd3378f3	-0.043816518
52	0xb9670e90	-0.00022035302
53	0xbd92da8b	-0.0717059
54	0xbcae976a	-0.021312434
55	0x3cc48816	0.023990672
56	0xbd5e3078	-0.054245442
57	0x3d63f30b	0.055651706
58	0xbd9def72	-0.07711686
59	0x3d99b5dc	0.0750539
60	0xbccc54b8	-0.02494274
61	0x3dad2445	0.084541835
62	0xbda44f2d	-0.08022914
63	0x3d10a095	0.035309393
64	0xbd56d809	-0.05245212
65	0xbd2ac053	-0.04168732
66	0x3d6c608f	0.057709273
67	0x3d62f3a5	0.05540814
68	0xbb962b13	-0.0045827716
69	0xbc41504c	-0.011798929
70	0xbdacedbf	-0.08443784
71	0x3c48a222	0.012245687
72	0x3d0920d8	0.033478588
73	0xbd41297a	-0.047158696
74	0xbd13514f	-0.035966214
75	0x3c2fe95c	0.01073679
76	0x3d8f8e80	0.070096016
77	0x3cd85b1c	0.026410632
78	0x3daf033d	0.085455395
79	0xbb8f29d1	-0.0043689986
80	0x3c509d80	0.012732863
81	0xbdc7438d	-0.09729681
82	0x3d7786b0	0.060431182
83	0xbd0609ce	-0.032724194
84	0xbd2fe698	-0.04294452
85	0xbd7a0437	-0.061039176
86	0xbc73e157	-0.014885268
87	0x3c8d16ba	0.017222751
88	0x3d85c8b6	0.06532423
89	0xbda9e034	-0.082947165
90	0xbda3fc42	-0.08007099
91	0x3ce0111a	0.027351905
92	0xbd9b9139	-0.075960584
93	0xbbd30d17	-0.0064407694
94	0x3d6e2555	0.05814107
95	0x3cb68c84	0.0222838
96	0xbda56fb0	-0.08077943
97	0xbd369cc9	-0.044583116
98	0x3d82a50a	0.06379135
99	0xbce3e0a1	-0.027817072
100	0x3d055675	0.032553155
101	0xbd636f92	-0.055526324
102	0x3da2811f	0.07934784
103	0x3d699e12	0.057035513
104	0xbc1afb34	-0.009459306
105	0xbd622e5d	-0.055219997
106	0x3ac5bc3d	0.0015086007
107	0xbbdc6090	-0.0067253783
108	0xbd38bd25	-0.045102257
109	0xbcd6703a	-0.02617656
110	0x3c4e3e72	0.01258813
111	0xbc9606cb	-0.018313786
112	0xbcc9efa2	-0.024650399
113	0x3d112a45	0.035440702
114	0x3b6f3a9b	0.0036503437
115	0x3cb500f8	0.022095188
116	0x3d9df0fc	0.0771198
117	0x3c56ea73	0.0131174205
118	0xba9ad2d9	-0.0011812105
119	0x3d1355f4	0.035970643
120	0xbd88391c	-0.06651518
121	0x3dbe2812	0.092849866
122	0xbc986998	-0.018605039
123	0x3d132fec	0.035934374
124	0x3d2e97b8	0.04262516
125	0x3d7d7ac0	0.06188464
126	0x3c3d17ac	0.011541288
127	0x3c4f2e3a	0.012645299
128	0xbd261410	-0.040546477
129	0xbd632aca	-0.05546073
130	0xbd85f921	-0.06541658
131	0x3b2007a0	0.0024418607
132	0xbc543328	-0.01295165
133	0xbd9df75f	-0.07713198
134	0xbdbf7849	-0.093491144
135	0xbcdabcd2	-0.026701365
136	0xbc580af8	-0.013186209
137	0x3cb33dea	0.021880109
138	0x3d9509c9	0.07277257
139	0xbdb4ef45	-0.088346995
140	0xbcdb4eb7	-0.026770933
141	0x3d5be3a9	0.05368391
142	0x3ba661e5	0.005077588
143	0x3c752651	0.014962749
144	0x3c9a0e68	0.018805698
145	0xbd5c6318	-0.05380544
146	0x3d3e0890	0.046394885
147	0x3ca9ede5	0.02074332
148	0x3d275eee	0.040862016
149	0x3d0f3934	0.034966663
150	0x3d6e8079	0.05822799
151	0xbd7ac9c3	-0.06122757
152	0x3d47d614	0.048788145
153	0xbd91b2bf	-0.07114171
154	0x3d8b0f5d	0.0679004
155	0x3d15e37d	0.036593903
156	0x3d3986f3	0.045294713
157	0x3cd11bee	0.025526013
158	0x3d9afafa	0.07567401
159	0xbdab7d9a	-0.08373566
160	0x3dda8c4f	0.10671293
161	0xbd84cb66	-0.06484108
162	0xbd3dcf25	-0.046340127
163	0x3b13adf7	0.002253411
164	0x3ce81ef7	0.028335078
165	0xbd083543	-0.03325392
166	0xbcabd54d	-0.020975733
167	0xbdb549a2	-0.08851935
168	0x3d733ade	0.059382312
169	0x3b37ec60	0.0028064474
170	0xbd6c330f	-0.05766588
171	0xbc80e878	-0.01573585
172	0xbc37fa20	-0.011229068
173	0x3d2839b2	0.041070648
174	0xbcc5c768	-0.024142936
175	0x3bb55c53	0.0055346875
176	0xbd925c93	-0.071465634
177	0xbcad50b8	-0.021156654
178	0x3d3f3e39	0.0466902
179	0x3d1f1868	0.038841635
180	0x3d9a3e8a	0.0753146
181	0xbdacc17a	-0.0843534
182	0xbc95123d	-0.018197173
183	0xbcf1456f	-0.029452054
184	0xbcd180d8	-0.025574133
185	0xbdb3d58d	-0.08780966
186	0x3d3566b0	0.044287384
187	0x3b5dd5d2	0.003384937
188	0xbbeb247e	-0.007175981
189	0xbd9394e1	-0.07206131
190	0x3d13bed4	0.03607066
191	0x3d943006	0.07235722
192	0xbd281526	-0.041035794
193	0xbd9c0535	-0.07618181
194	0x3d849d86	0.06475358
195	0xbcff4f9e	-0.031165894
196	0xbdd038a8	-0.10167056
197	0x3d978999	0.073992915
198	0xbcc982e6	-0.02459855
199	0xbd99c62c	-0.075085014
200	0xbd0006a0	-0.031256318
201	0xbd407ecf	-0.046995934
202	0x3cd780d4	0.026306547
203	0x3ce25061	0.027626218
204	0xbd859773	-0.06523027
205	0x3d481cc2	0.04885555
206	0x3d738557	0.059453335
207	0x3c12f6ce	0.008969976
208	0xbd35f0ec	-0.044419214
209	0xbdaea3b0	-0.08527315
210	0xbd562114	-0.05227764
211	0xbd8ebd98	-0.06969756
212	0xbcf55ff3	-0.029952979
213	0x3d947ad8	0.07249993
214	0xbd0eb5b7	-0.034841266
215	0x3d8c9b62	0.068655744
216	0x3d0411c8	0.03224352
217	0x3c396d8c	0.011317622
218	0x3da050e2	0.07827927
219	0xbca669ab	-0.020314058
220	0xbcefb8ba	-0.02926289
221	0xbb8025b9	-0.003910747
222	0xbcb664e2	-0.022264902
223	0xbd0c3fd5	-0.034240562
224	0x3c544509	0.012955912
225	0x3d563310	0.05229479
226	0x3c8753e4	0.016519494
227	0xbd971d30	-0.07378614
228	0xbd242b9c	-0.04008065
229	0x3b19b8d0	0.0023456104
230	0x3ae017c5	0.0017096928
231	0xbc07c395	-0.0082863765
232	0x3d3bdd4c	0.045865342
233	0xbd4dfe2f	-0.050291236
234	0x3d04e26e	0.032442503
235	0x3bddfb9c	0.006774379
236	0x3cb8d55c	0.022562675
237	0x3cc5ad8c	0.024130605
238	0xbdacefd9	-0.08444185
239	0x3cc6a946	0.024250638
240	0xbdb457c6	-0.08805804
241	0xbd5e0360	-0.054202437
242	0xbd330209	-0.043703113
243	0x3d165fe7	0.036712553
244	0xbc8f4da6	-0.01749308
245	0xbc1034a7	-0.008801616
246	0xbc4d3e67	-0.012527085
247	0x3cc63900	0.024197102
248	0x3c6e0316	0.014527103
249	0x3d9a7759	0.07542295
250	0x3d0c1734	0.034201816
251	0x3d9d0ce4	0.07668474
252	0x3d11eb31	0.035624687
253	0x3cacb8d7	0.021084232
254	0x3c970218	0.018433616
255	0xbc73e3e2	-0.014885874

fc2.bias f4 [84]
0	0xbd666fc4	-0.05625893
1	0xbcd7fc1d	-0.026365334
2	0x3d3837ad	0.04497497
3	0xbd977a4a	-0.07396372
4	0x3d9e13fc	0.077186555
5	0x3b0d94be	0.002160355
6	0x3d38e9e4	0.04514493
7	0xbda5b81c	-0.08091757
8	0x3d331aed	0.04372685
9	0xbdaba6c8	-0.083814204
10	0x3dc403b5	0.095710196
11	0x3c80c7c6	0.01572026
12	0x3d5233da	0.05131898
13	0xbd7a17d4	-0.06105788
14	0xbcbd86b5	-0.023135522
15	0xbdad4ae6	-0.08461551
16	0xbd3b7945	-0.04576995
17	0xbb1e9382	-0.0024196808
18	0xbc8e9f3b	-0.017409911
19	0x3c378b3d	0.011202631
20	0xbda79fc3	-0.08184769
21	0xbd74d346	-0.0597718
22	0xbd35680f	-0.04428869
23	0xbd349adf	-0.04409301
24	0xbc874b2c	-0.016515337
25	0x3ad94d08	0.0016578743
26	0xbd26fa54	-0.040766075
27	0xbd82afe2	-0.06381203
28	0x3c846bfb	0.01616477
29	0xbc9232ac	-0.017846428
30	0x3d0a8ac7	0.033823755
31	0xbd5af32b	-0.05345456
32	0xbd911bfb	-0.07085415
33	0xbd254133	-0.040345382
34	0x3d33efb2	0.043929763
35	0xbc890761	-0.016727151
36	0xbdc09448	-0.094032824
37	0x3addeaca	0.0016930935
38	0x3d2d919d	0.042375196
39	0xbda2640d	-0.079292394
40	0x3ca799ff	0.020459173
41	0x3d268156	0.040650688
42	0xbd8989ab	-0.06715711
43	0x3dc6ead3	0.09712758
44	0xbd8f2020	-0.06988549
45	0xbdc037f5	-0.09385673
46	0xbd429202	-0.047502525
47	0xbcc3f9f7	-0.023922903
48	0xbcd36478	-0.025804743
49	0xbd90b171	-0.07065094
50	0xbd8d0f1f	-0.0688765
51	0x3b0771ea	0.0020667263
52	0xbc3681b5	-0.011139323
53	0x3d8b95f7	0.06815713
54	0xbcdb1fb0	-0.026748508
55	0xbca7692b	-0.02043589
56	0xbda30b4f	-0.07961141
57	0xbc23bb29	-0.009993353
58	0xbd86069c	-0.065442294
59	0x3d9dc798	0.07704085
60	0xbcf6c390	-0.030122548
61	0x3c72e427	0.014824904
62	0x3d73c43b	0.05951331
63	0xbb4ed033	-0.0031557202
64	0xbd8579fc	-0.06517407
65	0x3d0d82d3	0.03454859
66	0xbcaed58e	-0.021342065
67	0x3b629693	0.0034574613
68	0x3c0900e5	0.00836203
69	0xbc5a0ba5	-0.01330844
70	0xbdb3bdcb	-0.087764345
71	0x3db32919	0.08748073
72	0xbd46228d	-0.048372794
73	0xbc4a340a	-0.012341509
74	0xbccab0a2	-0.024742428
75	0x3dd985cf	0.10621225
76	0x3acff8a2	0.0015866945
77	0x3d0203c6	0.03174188
78	0x3da8ba12	0.08238615
79	0x3d17de83	0.037077438
80	0xbccc52fd	-0.024941916
81	0xbd8a2709	-0.067457266
82	0x3c264df0	0.010150418
83	0xbcd010f7	-0.025398714

fc3.weight f4 [10, 84]
0	0x3c85054f	0.016237883
1	0x3b31b60b	0.0027116563
2	0xbd7a86fd	-0.06116389
3	0xbd6262bb	-0.055269938
4	0xbd893732	-0.06699981
5	0x3bc61ad9	0.006045681
6	0x3d8818c3	0.06645348
7	0x3cececbf	0.028921483
8	0xbd17218a	-0.03689722
9	0x3ceec2a3	0.029145544
10	0xbc9f027a	-0.01941036
11	0x3d885b79	0.06658072
12	0xbdb8bc01	-0.09020234
13	0x3d6e1d05	0.058133144
14	0x3db52ef3	0.088468455
15	0x3d80c132	0.06286849
16	0xbd87e392	-0.066352025
17	0xbd9b7cba	-0.07592149
18	0xbac7dd9c	-0.001524854
19	0xbca72855	-0.020404974
20	0x3d676655	0.056494076
21	0x3d9f093a	0.07765432
22	0xbca8305a	-0.020530868
23	0x3a23b4f2	0.00062449195
24	0xbd24a4b2	-0.04019613
25	0x3d69ac76	0.057049237
26	0x3d9df75e	0.07713197
27	0xbcc55290	-0.02408722
28	0xbdda9c83	-0.106743835
29	0xbd93154b	-0.07181796
30	0xbd57bda6	-0.052671097
31	0xbd911f68	-0.070860684
32	0xbdd13458	-0.10215062
33	0xbdd93c5d	-0.106072165
34	0xbc11966e	-0.008885963
35	0x3c153393	0.0091065345
36	0x3db7a4ab	0.08966955
37	0x3d0f37d0	0.034965336
38	0x3db392f7	0.08768266
39	0x3cb2b403	0.021814352
40	0xbdcc3583	-0.09971144
41	0x3d990029	0.07470734
42	0x3da98595	0.08277432
43	0x3c8626df	0.016375957
44	0x3d35d16e	0.04438918
45	0xbd1c7999	-0.038201902
46	0x3c50742b	0.012723009
47	0xbb9a4f10	-0.004709132
48	0x3d6d7a64	0.05797805
49	0x3dd14f7b	0.10220238
50	0xbdf0ff5d	-0.11767457
51	0x3dc3ef4e	0.09567128
52	0xbd4c657f	-0.04990148
53	0x3c667a36	0.014067223
54	0xbc9aa422	-0.018877093
55	0xbd1175e9	-0.03551284
56	0xbbd77c0d	-0.0065760673
57	0xbd96dd5e	-0.07366441
58	0xbd407225	-0.046983857
59	0x3c17c021	0.009262116
60	0xbd915bfa	-0.07097621
61	0x3d8b6fe9	0.068084545
62	0x3ca0bfb2	0.019622657
63	0xbd272893	-0.04081018
64	0x3d876a51	0.06612075
65	0x3d3ba824	0.04581465
66	0xbcef7f53	-0.029235518
67	0xbd83d325	-0.06436757
68	0x3d7d0a95	0.06177767
69	0xbda497cf	-0.08036768
70	0xbb2d8ecc	-0.0026482819
71	0x3d6ad72a	0.057334103
72	0xbda4e14a	-0.08050783
73	0xbdbc0a68	-0.09181672
74	0xbc8fbb3c	-0.017545335
75	0xbc1505c3	-0.009095612
76	0x3cd82d8a	0.026388902
77	0x3d706499	0.058689687
78	0x3d8b14e8	0.06791097
79	0x3dc655ff	0.09684371
80	0xbcdc516b	-0.026894292
81	0xbd0fda27	-0.035120156
82	0xbcfac664	-0.030612178
83	0xbd3a655c	-0.04550682
84	0xbdb8fe1c	-0.090328425
85	0xbd7c1d22	-0.06155122
86	0x3d099d98	0.03359756
87	0xbce53673	-0.027980065
88	0xbd9edc3b	-0.077568494
89	0x3d2d6bf8	0.042339295
90	0xbde1d26c	-0.11026463
91	0x3d5502f6	0.052004777
92	0xbc8a4ee3	-0.01688332
93	0x3d5567ae	0.05210083
94	0xbd296098	-0.041351885
95	0x3d1c0b47	0.038096692
96	0xbd3a224d	-0.045442868
97	0x3dcb04d4	0.0991303
98	0x3d04cdb9	0.032422755
99	0x3cc2b1d8	0.023766443
100	0x3dcdb6b3	0.10044613
101	0x3b875214	0.0041296575
102	0x3cd422a3	0.025895422
103	0xbd4f2bc0	-0.050578833
104	0xbd1efe28	-0.0388166
105	0x3c531842	0.0128842015
106	0xbdb9daf0	-0.09074962
107	0xbc0de0d9	-0.008659565
108	0x3c2cb885	0.01054204
109	0xbd93b101	-0.07211495
110	0x3d796732	0.06088943
111	0xbd2c9f00	-0.04214382
112	0x3d023c30	0.03179568
113	0x3c393cbd	0.011305985
114	0xbd90b38f	-0.07065498
115	0x3d9bafa6	0.07601862
116	0xbdb4145a	-0.08792944
117	0xbd91c5ce	-0.071178064
118	0x3c967912	0.018368278
119	0xbdb440f5	-0.08801452
120	0xbd921d5c	-0.07134506
121	0x3d96ed02	0.073694244
122	0xbc691415	-0.014225979
123	0xbd276314	-0.040865973
124	0xbcd65172	-0.026161883
125	0x3da7d638	0.08195156
126	0x3cc3ac37	0.02388583
127	0xbc387dd0	-0.011260465
128	0xbd6bc1d9	-0.057557914
129	0xbcafdd26	-0.021467756
130	0x3dc53111	0.09628499
131	0x3bc5fc8f	0.00604207
132	0x3d0ec93f	0.034859892
133	0xbddcfd01	-0.10790444
134	0x3baee079	0.005336818
135	0x3b4382fe	0.0029832716
136	0xbd9b902c	-0.07595858
137	0x3d0078c3	0.031365167
138	0xbd884797	-0.0665428
139	0xbc78f11d	-0.015194205
140	0x3d13eb45	0.036113042
141	0xbd42c84f	-0.04755431
142	0x3b3f8e57	0.0029229128
143	0xbdb85bbc	-0.09001872
144	0x3d2273de	0.03966128
145	0xbdde7dc1	-0.108638294
146	0xbdbafd97	-0.091304
147	0x3d89e267	0.06732636
148	0xbd709b03	-0.05874158
149	0xbcb2563f	-0.021769641
150	0xbda0b131	-0.078462966
151	0x3dd888f7	0.10572999
152	0x3da72eac	0.08163199
153	0x3d2c2af6	0.04203316
154	0xbdcddb71	-0.10051621
155	0x3d9699c4	0.07353547
156	0xbcc2eeb6	-0.023795467
157	0x3d9e9aec	0.07744393
158	0x3cf25cb7	0.029585226
159	0xbdb04e3b	-0.08608671
160	0x3c3ce4b5	0.011529137
161	0xbc2d5e76	-0.010581603
162	0x3da9ed1a	0.08297177
163	0x3dd3390f	0.103136174
164	0xbd5d221f	-0.05398762
165	0x3dc6e0b8	0.097108305
166	0x3b5d66c1	0.003378317
167	0x3d9bf123	0.076143526
168	0xbbaed7aa	-0.0053357678
169	0xbdcdb86a	-0.1004494
170	0x3bf25bd1	0.0073961993
171	0xbd789f10	-0.06069857
172	0x3d8fbd60	0.07018542
173	0xbba94037	-0.0051651257
174	0x3dc67112	0.09689535
175	0x3d66e985	0.056375045
176	0xbc06db1a	-0.008230949
177	0xbd9f8853	-0.07789674
178	0xbda3c3d1	-0.079963334
179	0x3d837ba9	0.06420071
180	0x3cc841d1	0.024445446
181	0x3da4bc69	0.08043749
182	0x3d6002fa	0.05469034
183	0xbd9545ff	-0.07288741
184	0xbd3c220f	-0.04593092
185	0xbd7776bf	-0.06041598
186	0xbd519fb7	-0.051177707
187	0x3d5c8d51	0.053845707
188	0x3dcd9df0	0.1003989
189	0xbdb37d6e	-0.08764158
190	0x3dae36b6	0.08506529
191	0xbd23da7d	-0.04000329
192	0xbc9eb337	-0.019372566
193	0x3d8aa1b0	0.06769121
194	0xbd0293fb	-0.031879406
195	0xbcb483e9	-0.022035556
196	0xbd68b6c3	-0.05681492
197	0x3b9df9c0	0.0048210323
198	0xbd20c58c	-0.039250895
199	0xbc63e444	-0.013909403
200	0x3d840373	0.064459704
201	0x3d21cc59	0.03950152
202	0xbd41ec63	-0.047344577
203	0x3dd9ff7b	0.10644432
204	0xbd8996a5	-0.06718186
205	0xbdb8e135	-0.0902733
206	0x3baaecba	0.0052162083
207	0xbd14d0e3	-0.036332022
208	0x3dc23510	0.09482777
209	0xbd918dfa	-0.07107158
210	0x3d44efde	0.048080318
211	0x3cfdf9c0	0.03100288
212	0xbcd2deea	-0.02574106
213	0x3cad6bab	0.021169504
214	0xbbedf507	-0.0072618756
215	0x3cefcaba	0.029271472
216	0xbd17f01b	-0.037094217
217	0x3cdc57d1	0.026897343
218	0xbdb51f97	-0.08843916
219	0xbcd2527d	-0.0256741
220	0x3d3a9d81	0.045560364
221	0xbc2049e0	-0.009783238
222	0x3d87092b	0.065935455
223	0x3de0801b	0.10961934
224	0x3d95dd2d	0.073175766
225	0xbcfa5c28	-0.030561522
226	0xbc988c12	-0.018621478
227	0x3ce50871	0.027958127
228	0xbcff2903	-0.031147486
229	0x3cb4ea66	0.022084426
230	0x3cd64755	0.02615706
231	0x3d7ee3e6	0.06222906
232	0xbd05b264	-0.03264083
233	0xbd3b8d8b	-0.045789283
234	0x3d88d8cd	0.066819765
235	0x3daf21bf	0.085513584
236	0x3db3e449	0.08783776
237	0x3dbee10d	0.09320269
238	0xbc6b08d6	-0.014345368
239	0xbd9dc7ba	-0.077041104
240	0x3d88e46b	0.06684192
241	0xbc736b03	-0.014857057
242	0x3da62752	0.081129685
243	0x3d075b93	0.033046316
244	0x3d79c10b	0.060975116
245	0xbd9e755c	-0.07737228
246	0xbc979067	-0.018501474
247	0xbd192a3f	-0.037393805
248	0x3d2f5945	0.042809743
249	0x3d59aad5	0.053141434
250	0xbd9e0280	-0.077153206
251	0x3cfcd854	0.030864872
252	0xbd8796e8	-0.0662058
253	0xbda023b0	-0.07819307
254	0x3c9751cb	0.01847162
255	0xbcb752b0	-0.022378296

fc3.bias f4 [10]
0	0xbcf4de76	-0.029891234
1	0x3d57a63b	0.052648764
2	0xbd0ab342	-0.03386236
3	0xbd0778f3	-0.03307433
4	0xbd0df471	-0.034656946
5	0xbd96abf6	-0.07357018
6	0xbdb2f631	-0.087383635
7	0x3d16c929	0.036812935
8	0x3ca4096e	0.020024028
9	0x3cf7d780	0.030254126
